Models/models_GA/flood_cnn_epochs_20.pth (torch, 150547 bytes, 31 tensors)

encoder.0.weight f4 [16, 2, 3, 3]
00000000: f22e b0bd e84f 403e aaad 15bd 7cba a3bd
00000010: e129 20be 9839 07be 2fb2 1abe 69e2 cbbe
00000020: 2d3d acbe cc42 223e 2c50 93bc 3810 44be
00000030: 551f 333d 440f 51be 1211 1cbc a06e 193e
00000040: 564d bebd 3d14 033e c418 5c3c 0f16 023e
00000050: 8bfc 693c d69b 763e 79b4 7dbc 53f6 d73d
00000060: b556 0abd 621a 693e 373a 863d 6d3c 2fbe
00000070: f99b 353d 7118 24be a0ec 063e 5783 083e
00000080: 4fcc b13d 33a3 a33d b01e 4a3e 228a 103e
00000090: 7b0d e23c 6887 69bd f353 e43d efc1 733d
000000a0: 5ee4 363d 6d1d 233c 4325 bcbd 7ed0 aebe
000000b0: 84cf ebbe e166 183d 6f69 28be d8b1 853d
000000c0: c5b9 263d 0695 043e 30eb 5abe 923a e6bd
000000d0: b286 0cbe 4d1c a93e 117b dcba 8b6d 383e
000000e0: 5562 a53d b106 223e 20ca 313e f2f8 553e
000000f0: 0246 fc3d 49bb 243e edef 9f3e 5cd4 013d
00000100: 7e81 aa3c df8c b13d 4ee9 25bd 6aba 4f3d
00000110: 51a2 703e 8bb8 9c3d 751a ee3d da80 1e3e
00000120: 5962 913d 2124 d2bd 8c05 c13d a744 1c3d
00000130: 4712 b43d 3fbd 98be 9db7 b9bc a619 83bd
00000140: 8e49 dfbe efc3 e8bd 5ac8 c13d 0536 783d
00000150: 0dc4 d0bd f5ad ef3d 1c47 8b3d 7998 1d3e
00000160: cde3 bfbd 6b75 80be c220 f2bd a687 1dbe
00000170: 6b15 8bbe 7135 b4bd 37ec e1bd 7d2a 0b3d
00000180: 415e ce3c 0845 173c 8528 2b3e 74cc 303d
00000190: 9d8f 093d 1b2a 90be 3d6a 19be 152c 0cbe
000001a0: c594 f03d 12f3 4abe 0518 1f3d 81f3 393e
000001b0: 18e1 0b3d 4c90 9bbc ae5e ab3c 9233 b43d
000001c0: c0f5 7bbe da1b 14bd 4f0e 683d 23d5 1abe
000001d0: e916 e1be 0148 81bc 903b c4bd f31b 463d
000001e0: 81e8 22be 8062 213e f9e1 263e 7f09 61be
000001f0: 8a74 413d d4db 7a3d 1e5a 95bd 9eea ed3c
00000200: b351 a43d d206 dc3c bc50 9abc 8a4f 393e
00000210: 6012 f4bd 3819 9abe 96ea c73d b893 8dbd
00000220: 2adb e63d 936c ddbc ad54 413e 1a77 d8bd
00000230: 8395 79be 7bae ba3d 4438 6fbe af64 99be
00000240: ab8f 1d3d 085e 053e 16fc d6bc 0e68 19be
00000250: 5278 fa3d ff7f 3bbe 2fb7 bb3d 4d12 40be
00000260: 7b41 f8be 6c25 83bd 85f2 25be 4e8c 12be
00000270: d65e 4e3d a19b 043e f5ae 89be 715e c73c
00000280: c841 813c 8354 5d3e 5182 b4bd deed e9bc
00000290: 3522 8fbd 859a 2fbd 2327 933e 481c 983e
000002a0: 83bc 05be f49f 1b3e 983d 8e3e 2d90 e9bd
000002b0: 0ee4 f43c 6d35 eb3c 00ae aebc 2dc7 553e
000002c0: b38c f5bc c7f6 a83d 1854 b4bc 27d6 523e
000002d0: fe31 fcbc b4ed 00be 533b 96be 3a19 92bd
000002e0: b4cc 263e 4208 6f3e 8794 b93b 7b69 263d
000002f0: 3eec 713e b714 393e 1741 103e 17c5 363e
00000300: e4cd c5bd c938 ab3d d26c a4bd 700e babe
00000310: 6f7a dfbd 980f 933d 5602 803d 5c8d 81be
00000320: 6004 b8be 0a5c 2e3e 0919 d5bd f2ae b5bc
00000330: 801f 3abe d56e 3a3e d920 0a3e 3eb7 993d
00000340: 1424 febb f3c4 3ebe 44e1 a73d e92d ca3d
00000350: d1b6 71be b787 34be e7ad 583e ec87 bfbb
00000360: a478 f63c 4bef 0d3e ebb7 033e 4815 433e
00000370: 740a 8f3d deac 7cbd 7dc7 e73d 3246 913e
00000380: 8174 7d3e 25bb 67be 94bc 8e3d 052e bb3d
00000390: a0a7 81bc a9bc f03d daf5 5b3e b78a 1dbd
000003a0: f08d 053e a951 773e 9c11 1cbe 8e34 223e
000003b0: 9f5e e9bd 531a 143e d5f9 c23d 089a 92bd
000003c0: 6bd8 373d 7efb d5bd 3fb7 45be 6e37 ce3c
000003d0: 85c1 333a 2113 933d 3dab c7bc 5320 72bd
000003e0: 7e21 60bd 31da 2e3d a6ff 03be 13d8 14bf
000003f0: f97d 1b3d 08f3 e43d c59e 093d c4dc 583d
-0.08602704 0.18780482 -0.036542572 -0.079945534 -0.15640976 -0.13205564 -0.15107034 -0.39821175
-0.33640423 0.15845793 -0.017982565 -0.19146812 0.043731052 -0.2041598 -0.009525554 0.14983606
-0.092920944 0.12800689 0.013433639 0.12703727 0.014281402 0.24082884 -0.015484923 0.105450295
-0.033774097 0.2276397 0.06554072 -0.17112894 0.0443382 -0.16024949 0.13176203 0.13331352
0.08681547 0.07990112 0.19738269 0.14115193 0.027594319 -0.0570139 0.111488245 0.05951112
0.04465138 0.009955746 -0.091867946 -0.34143442 -0.4605676 0.037207488 -0.1644647 0.06528062
0.040704507 0.12947473 -0.2137878 -0.1124164 -0.13723257 0.33029404 -0.0016821345 0.18010537
0.08075396 0.15822865 0.17362261 0.20895746 0.123180404 0.16087069 0.31237736 0.031696662
0.0208137 0.08669447 -0.0405057 0.050714888 0.23499419 0.07652386 0.1162614 0.1547884
0.070988365 -0.10260797 0.09424886 0.03815141 0.087925486 -0.29831883 -0.022670561 -0.064013764
-0.43610805 -0.11365496 0.09462042 0.060598392 -0.10193644 0.117031015 0.068006724 0.15390195
-0.093696214 -0.25089583 -0.11822654 -0.15383777 -0.27164778 -0.08799256 -0.110313825 0.033976067
0.025191428 0.009232767 0.16714676 0.04316373 0.033584226 -0.28157124 -0.14981933 -0.13688691
0.117471255 -0.19819286 0.038841266 0.18159296 0.034150213 -0.018989705 0.02091917 0.08798899
-0.24605465 -0.036159374 0.05665427 -0.15120368 -0.43962792 -0.015781404 -0.09581673 0.0483665
-0.15909006 0.15760231 0.16297139 -0.21976279 0.04723028 0.0612448 -0.07292579 0.029042538
0.080233954 0.02685872 -0.018837325 0.18096748 -0.11917567 -0.30097365 0.097615406 -0.06912941
0.11272271 -0.027029311 0.18879957 -0.10569592 -0.2437344 0.09115311 -0.23361307 -0.29959628
0.03846709 0.13024151 -0.02624325 -0.149811 0.122299805 -0.18310545 0.09165799 -0.18756981
-0.48487458 -0.06403622 -0.16205795 -0.14311334 0.05038341 0.12949993 -0.26891294 0.024337025
0.015778437 0.2161427 -0.088139184 -0.028555807 -0.06988946 -0.04287197 0.28740796 0.29709077
-0.13060193 0.15197736 0.27781367 -0.114044525 0.029893901 0.028711999 -0.021323204 0.20876761
-0.029974317 0.08250194 -0.022012755 0.20589505 -0.030785557 -0.12590677 -0.29342136 -0.07133718
0.16289026 0.23342994 0.005663458 0.040627938 0.23625275 0.18074308 0.1408733 0.17848621
-0.09658411 0.0836044 -0.08028568 -0.3633914 -0.10912024 0.07180709 0.062504455 -0.2530316
-0.35940838 0.17027298 -0.10405166 -0.022178147 -0.18176079 0.18206342 0.13489093 0.07505654
-0.0077557657 -0.18629818 0.08197263 0.09872038 -0.23604895 -0.17629896 0.21160088 -0.0058450606
0.030086823 0.13860814 0.12863128 0.19051087 0.06984416 -0.061688296 0.11317346 0.28373867
0.24751474 -0.22629984 0.06969562 0.09139637 -0.015827 0.11754734 0.21480504 -0.038462367
0.13042426 0.24152245 -0.15241092 0.1584036 -0.11395001 0.14463167 0.09520308 -0.071582854
0.044884127 -0.10448359 -0.19308184 0.025172915 0.0006857145 0.07181383 -0.024373645 -0.059112858
-0.05471944 0.042688552 -0.12890491 -0.58142203 0.037961934 0.11179167 0.03359868 0.052944914

encoder.0.bias f4 [16]
00000000: 71e7 293e 792b 1ebe 7970 55be 627b dd3d
00000010: e514 0bbe d017 5a3d a78d c1bd e715 95bb
00000020: 6099 2ebe de24 1e3e 4da5 cfbd 73c7 5e3c
00000030: 7853 76be 0067 203e 76ab 84bd 0a01 d13a
0.16592194 -0.15446271 -0.20843686 0.10814549 -0.1358219 0.053245366 -0.09450846 -0.00454973
-0.17050695 0.15443751 -0.101389505 0.013597357 -0.24055278 0.15664291 -0.06478016 0.0015945744

encoder.1.weight f4 [16]
00000000: 91dc 7a3f 8466 963f 26ed 7e3f fa33 903f
00000010: bbbb 7e3f e512 6a3f 398c 753f d0d3 753f
00000020: c82e 7a3f 2c37 693f c079 373f ea58 5c3f
00000030: 8059 9b3f a7b4 7f3f b46c 8c3f c9d4 793f
0.9799281 1.1750035 0.9958061 1.1265862 0.99505204 0.9143508 0.9591709 0.96026325
0.9772763 0.9109981 0.7167015 0.8607317 1.2136688 0.9988503 1.0970674 0.9759031

encoder.1.bias f4 [16]
00000000: cf10 283a 7007 ff3d 4fb7 ed38 3024 043e
00000010: 4c7d 983a f253 6838 425d 90b9 9847 c73a
00000020: b2a9 1f3b cf95 cc3d 0b0f 95b8 60b9 8cbe
00000030: 7a9d 023e 8698 9239 a99a f83d fb5f ce39
0.0006411196 0.124525905 0.000113351845 0.1290443 0.0011634021 5.539129e-05 -0.00027535303 0.0015203832
0.002436262 0.09989511 -7.1076756e-05 -0.2748518 0.12755385 0.0002796093 0.12138874 0.00039362893

encoder.1.running_mean f4 [16]
00000000: 74c5 293e d25c 1ebe e25c 55be db80 dc3d
00000010: eea8 0abe 4a3f 5a3d c1fc c1bd 05c0 89bb
00000020: 0b5d 2ebe 5b0c 1e3e 8d39 d0bd 9bd5 663c
00000030: d562 76be 4b8a 203e 12bd 84bd 650d 003b
0.16579229 -0.15465096 -0.20836213 0.10766765 -0.13541004 0.053283013 -0.09472037 -0.0042037987
-0.1702768 0.154344 -0.10167227 0.014089013 -0.24061139 0.15677755 -0.06481375 0.0019539234

encoder.1.running_var f4 [16]
00000000: baaf 893f 0677 533f f791 ea3e 11e0 0b40
00000010: 17ba e13e e210 023f 80fa e43e 8476 df3e
00000020: 80bb 083f 4bb6 3e3f e8ef 853e cf80 ac3e
00000030: 2889 c43f 372f 1c3f 3ebb 993f 176b b43e
1.0756752 0.8260349 0.45814487 2.185551 0.44087288 0.5080701 0.44722366 0.43645108
0.534111 0.74496907 0.26159596 0.33692023 1.5354357 0.61009544 1.2010267 0.35237953

encoder.5.weight f4 [32, 16, 3, 3]
00000000: 633b 9fbd 46bc 0ebd d741 efbb f7f4 a2bb
00000010: 8845 fdbd ce74 d83d 83fd 653d 5b59 f23d
00000020: b755 4c3e 08c4 4cbe 649b 7a3d 1782 0b3e
00000030: 9227 72bd 8b2e a53d e720 eb3d d8ae 0ebd
00000040: f4ed 36bd 518e 8dbd 10e0 82bd 6150 7ebd
00000050: 5764 edbd 95e0 3abd cd0c cc3c 73c1 96bc
00000060: 47eb 43bd 24e7 a5bc 3965 693d 9a78 c3bd
00000070: e167 993d a084 bf3b e349 033d eed9 ed3d
00000080: 84e2 9d3d 5831 72bd 6735 923c e4f3 b5bb
00000090: 9de6 4abd cb3f a2bc 3a29 62bc 06f4 cfbc
000000a0: c346 8f3c 25f1 c03d 7701 2fbd 044d 2e3d
000000b0: 659d 8d3c b47e 4fbd a411 a13d 5cff af3d
000000c0: 4f4f 953d b225 df3c 6463 a1bd 6eef 4ebd
000000d0: f8e8 78bd e404 453d b36c 09bd a484 ffbc
000000e0: c350 f6bd 411f a13d d314 c53d 7c07 003d
000000f0: d052 b53d 1a66 31bd bfd3 a03d 630d dcbc
00000100: 3362 573d 28d5 afbd e82b 10bd b6f7 bc39
00000110: c395 9b3c 8132 d93d 4051 503d 9955 983d
00000120: ca9e 0e3d 6633 a0bc 1bd3 5bbc 17af 473d
00000130: c81a 17bd ac67 5b3b 2e01 bf3b a99c 5f3d
00000140: 4e84 ee3d 3ed3 8bbe 145b 9fbd 7a50 9e3d
00000150: a504 8f3c db58 ca3c 495a 1b3e 66a6 b43d
00000160: 99ec 17be f21f 9abd 1dcd 3dbe e262 b1bd
00000170: e1ce febc ac49 1fbd 1e1c 9fbc 2d5f d63d
00000180: 2f0d a83d 719f d53d ac31 413d 32c4 69be
00000190: dc49 eabb e27e e73c 331c 62bc b6ca 3abe
000001a0: 83cc d1bd d90b e53c e733 e53c cb30 eebb
000001b0: 0a3a b2bd c6d3 c7bd a000 fc3d 58fa 1ebd
000001c0: 73c7 7dbd 5f9c 0e3e f480 eb3c 5357 943d
000001d0: 66d5 4c3d 9e7e 03be bd83 01be 1775 893d
000001e0: 4314 aabd c2ff 723d 6b69 be3d dd2f 883d
000001f0: b173 0ebd fd7d ef3d 7300 eebd ccbd 773d
00000200: cfc5 efbc 1324 84bd 5448 4d3e 7e8d f83d
00000210: 887c 193d d5f9 233c 8da5 d3bd 703a 95bc
00000220: a993 2bbd 0992 06bc b05c 283d 4c07 3b3c
00000230: 0bb3 2a3d 56e8 38bd 88df c83d 7e90 443d
00000240: a969 2f3d a152 99bd f6f6 f43b 586b 3f3c
00000250: fe7b 12bd 89ad 2a3d 0a81 ccbc cd3f 10bc
00000260: 7b3e f53c f857 e2bd 7e04 e43d a62b 203c
00000270: a82a 873d 245f d43d 1b96 103e ae11 23bd
00000280: 0a68 8bbc 39f9 953d 1753 0bbd 4ff9 4c3d
00000290: e99a adbd 9de9 2fbd 0e82 cdbd 44f8 bdbb
000002a0: 7121 c1bc da33 f93d 4a6e 0d3e 92e4 c33d
000002b0: 24cf 3c3e 0914 2c3d 5985 ccbc 3912 6b3d
000002c0: ea6e ed3d c670 d5bb bcdf 44bd fa61 893d
000002d0: 6470 523b 49ba 343c 8e72 abbc 126e ccbd
000002e0: 598c 28bc fb4f 7fbd 39a7 6b3d 8662 ae3d
000002f0: 11c4 513d e666 ea3c 9e67 723d 2307 903d
00000300: d07b d13c 1ce8 c3bd d7d9 e9bd 25df 6cbc
00000310: 4cd6 503c a391 71bd c066 3abd a265 1e3d
00000320: e7e2 84bd 6aac a0bd 79a9 edbd ba74 233c
00000330: 20c5 813d 438c e0bb f263 3d3d aac5 5abd
00000340: f3bc 49bc d948 863d b68c 11bc f1f2 f1bd
00000350: 8911 5f3b 5f30 2e3d 12a7 33bd 2fef ea3d
00000360: 4970 0fbd d453 68bd 549f 72bc 87b8 a3bd
00000370: ffc2 fc3c f9b7 1fbd c391 4a3d 505d 2a3d
00000380: 89e9 343d 8853 b83d 158a eb3d 973a 67bc
00000390: 15d8 233c a9f6 c63d ce5b b9bc 80b9 1d3d
000003a0: 8f35 763d b1f2 0f3e ecbf 5abd c3ea cb3d
000003b0: c9bf 5a3d f36b 98bc b839 ff3d 1fad 683d
000003c0: 4ab3 8f3b fdc3 6fbd 3807 fd3c 7ef1 98bd
000003d0: 7002 bd3c 3742 873b 71c4 bbbd 444e 243d
000003e0: 182e dcbd a949 6a3d 0053 dbbd 3da5 f1bd
000003f0: 666d e13c e6ed 213e df44 8b3d d8e4 673d
-0.07774999 -0.03484752 -0.00730155 -0.0049730497 -0.12366778 0.10569154 0.05614997 0.118334495
0.19954573 -0.19996655 0.06118335 0.13623844 -0.05911977 0.08065518 0.11480885 -0.034834713
-0.044660524 -0.0691191 -0.06390393 -0.062088374 -0.11591404 -0.045624334 0.024908448 -0.01840279
-0.0478318 -0.020251818 0.0569813 -0.09544487 0.074905165 0.0058446676 0.032052886 0.116138324
0.0770922 -0.05912909 0.01784773 -0.0055527557 -0.049536336 -0.01980581 -0.0138037745 -0.025384914
0.017489797 0.09420995 -0.042726006 0.042553917 0.017286966 -0.050657943 0.07864693 0.08593628
0.072905175 0.027239654 -0.078802854 -0.050521307 -0.06076905 0.048100367 -0.03355093 -0.031191178
-0.12027123 0.07867289 0.096231125 0.031257138 0.08853686 -0.043310262 0.07852887 -0.026861852
0.052583884 -0.08585578 -0.035198122 0.00036042713 0.01899231 0.10605336 0.050858736 0.074382015
0.0348194 -0.019555759 -0.013417031 0.048750963 -0.036890775 0.0033478541 0.005828998 0.054592762
0.11646329 -0.27309602 -0.07781044 0.077301934 0.01745827 0.024700573 0.1517116 0.088208005
-0.14836349 -0.07525624 -0.18535276 -0.086614385 -0.031104507 -0.03888862 -0.019422587 0.10467372
0.082056396 0.10430802 0.04716651 -0.22828749 -0.007149918 0.028258745 -0.0138006685 -0.1824139
-0.10244086 0.027959751 0.02797885 -0.007269 -0.08702476 -0.097571895 0.12304807 -0.038812965
-0.061957788 0.13926838 0.028748013 0.07243218 0.0500082 -0.1284127 -0.1264791 0.06711786
-0.08304646 0.05932594 0.09297451 0.06649754 -0.0347783 0.11693952 -0.116211794 0.06048374
-0.029269127 -0.06452193 0.20047122 0.121363625 0.037472278 0.010008295 -0.10334311 -0.018216342
-0.041888867 -0.008213528 0.04110402 0.011415314 0.041674655 -0.045143448 0.0980826 0.04798936
0.042825375 -0.07486463 0.007475729 0.011683308 -0.03576278 0.041669402 -0.024963874 -0.008804274
0.02993702 -0.11051935 0.11133669 0.009776032 0.06599933 0.10369709 0.1411976 -0.039811783
-0.017017383 0.07322926 -0.034014788 0.050042447 -0.084768124 -0.0429474 -0.100345716 -0.005797418
-0.023575516 0.12168093 0.13811603 0.09565081 0.18438393 0.042011295 -0.024965929 0.057390425
0.11593421 -0.006513688 -0.048064932 0.06708141 0.0032110447 0.011030742 -0.020928647 -0.09981932
-0.010287368 -0.062332135 0.057532523 0.085148856 0.051212374 0.028613519 0.05918085 0.07032611
0.025571734 -0.09565756 -0.11418503 -0.014457499 0.012746405 -0.05897678 -0.045508146 0.038671143
-0.06488591 -0.078453854 -0.1160459 0.00997656 0.06336427 -0.006852658 0.046237893 -0.053411163
-0.012313115 0.06556863 -0.008883646 -0.118139155 0.0034037551 0.0425266 -0.043860503 0.11471402
-0.035019193 -0.05672057 -0.014808495 -0.0799418 0.0308547 -0.03899381 0.049455415 0.041592896
0.04416803 0.09000307 0.115009464 -0.01411309 0.010000248 0.097150154 -0.022626784 0.038506985
0.06010967 0.14057423 -0.053405687 0.099568866 0.053405557 -0.018606162 0.12462181 0.056805726
0.0043853866 -0.05853652 0.030887231 -0.07467936 0.023072451 0.0041277665 -0.091683276 0.040113702
-0.10750979 0.057199154 -0.1070919 -0.11799095 0.027517986 0.15813407 0.068002455 0.056614727

encoder.5.bias f4 [32]
00000000: fe68 6a3b 016a 773c 24dc 1a3c baa5 18bd
00000010: 8ae5 1e3d fdc7 fc3b fdcf 85bd 8606 773d
00000020: a91e b13c fd78 6b3d 18ee 94bc db6f 3fbc
00000030: c15e 80bd 87dd 2b3d a107 0bbd ef4b 8e3d
00000040: 62cb 853b 1429 41bd ce66 e7bc 7a40 bfbd
00000050: cea3 723d 42d6 403d 6fec 07bd 798a 1e3d
00000060: dd7c 7cbd bbcb bebd 416c 9c3d b4a7 4c3c
00000070: 3cb6 1a3d 2d1b a23d e134 583d 12cf 2abd
0.0035768147 0.015100957 0.0094519 -0.037267424 0.038793124 0.00771427 -0.06533811 0.060308956
0.021621065 0.05748843 -0.018179938 -0.011684383 -0.06268073 0.04195931 -0.033942822 0.06948077
0.004083083 -0.047158316 -0.028247263 -0.0933847 0.059238248 0.047079332 -0.033184465 0.038706277
-0.061642516 -0.09316202 0.07637835 0.012491155 0.03777145 0.079153396 0.052784804 -0.041701384

encoder.6.weight f4 [32]
00000000: 5a96 583f 8ff8 3e3f 943b 5f3f 6938 643f
00000010: febb 673f f0eb 703f c9b8 413f a45d 673f
00000020: fbdc 4f3f 742c 6b3f 1dd6 6c3f e8da 6b3f
00000030: 8865 673f 824c 3c3f 8b71 753f c0d8 463f
00000040: 6de9 733f 1f95 713f 566e 433f eba6 6e3f
00000050: 9cc4 7f3f ff54 6f3f 7781 7a3f 33ce 6c3f
00000060: a0fd 5f3f 9fc5 823f 8622 4c3f 9479 7e3f
00000070: 4bb6 6b3f bb14 763f 731d 6b3f 6924 493f
0.8460442 0.7459802 0.87200284 0.89148575 0.9052123 0.9411001 0.75672585 0.9037726
0.81196564 0.91864705 0.9251421 0.921309 0.903893 0.7355424 0.9587638 0.77674484
0.95278054 0.94368166 0.76340234 0.93223447 0.9990938 0.9348907 0.978538 0.92502135
0.87496376 1.0216559 0.7974018 0.99404263 0.9207503 0.9612538 0.9184181 0.7857118

encoder.6.bias f4 [32]
00000000: a8b1 053e 81ab 303e afaf 8b3d 9493 973d
00000010: d52b 73be 070c b73c 9b55 2cbf aebc 19bf
00000020: a7aa f53d 88f0 353d e09e 6a3d ee1a b53d
00000030: c0fe dc3d 2040 29bf cb8a 273c 843d 1f3e
00000040: 205e 2f3d 6084 943d 6460 1cbf 7668 273d
00000050: 2404 45bb 2bbb 413d 0892 6f3d 6c79 86be
00000060: 7a16 a43d cd34 8f3c a450 1dbf 257f 32bc
00000070: 02db e33d 1e5c 4a3d ef3a bf3d fa06 2c3e
0.13056052 0.17252924 0.06820618 0.07401195 -0.2374719 0.022344602 -0.67318124 -0.6005353
0.1199544 0.04441884 0.05728042 0.08843027 0.10790777 -0.6611347 0.010225962 0.1555081
0.042814374 0.07251811 -0.6108458 0.040871106 -0.0030062282 0.047297638 0.058488876 -0.26264513
0.080120996 0.017481232 -0.6145117 -0.010894571 0.11125757 0.049404256 0.093374126 0.16799536

encoder.6.running_mean f4 [32]
00000000: c056 913e 45af 863f 98ec a33d acfc b8bd
00000010: f59e 2bbe 2cb1 3bbe 9ae7 60c0 7fb6 4cc0
00000020: 0dc5 653d 4c7a 773b f932 87bd 5964 1c3d
00000030: 61ba 353e 70f4 67c0 cfc4 92be 1780 123f
00000040: 2a28 49bd db55 e7bd 3566 66c0 39a3 2ebe
00000050: 1bad 97be 5d00 14be e79c e7bd 3692 ad3d
00000060: d769 93be e31d 1cbe 0d92 52c0 18e2 d8be
00000070: 173c 023e e717 503c e32c 193e 3b52 123f
0.28386497 1.0522238 0.08004111 -0.09032568 -0.16759856 -0.18329304 -3.5141358 -3.1986387
0.056096125 0.0037762104 -0.06601519 0.038181636 0.17746879 -3.6242943 -0.28665778 0.572267
-0.04911057 -0.112956725 -3.5999882 -0.17054452 -0.29624256 -0.14453264 -0.113092236 0.08475153
-0.28791687 -0.15245776 -3.2901642 -0.42359996 0.12718235 0.012701011 0.14958529 0.57156724

encoder.6.running_var f4 [32]
00000000: 916f 3640 698c 0c41 80af 8640 8829 2440
00000010: 1ea7 7041 f29a c840 0b94 1541 5da0 0441
00000020: 4543 2040 bfd8 aa40 254d 4a40 4cf2 6b40
00000030: 694c 6640 346f 2841 a51f f340 5dbe 9640
00000040: 5cd0 8840 95b8 b940 3a08 1841 8911 bf40
00000050: fd1d 4641 17eb c640 1f77 9b40 7007 0740
00000060: d893 c940 0fae 9240 e7d4 0a41 c0cf 5441
00000070: e602 3b40 28d8 9440 f2a4 2340 81b7 8540
2.8505595 8.78428 4.2089233 2.5650349 15.0408 6.268914 9.348643 8.289151
2.5041058 5.3389583 3.1609585 3.6866636 3.5984137 10.527149 7.597613 4.7107377
4.2754345 5.803782 9.502008 5.9708905 12.382321 6.2161975 4.858291 2.109829
6.2992973 4.5837474 8.676978 13.30072 2.922052 4.6513863 2.5569425 4.1786504

encoder.10.weight f4 [64, 32, 3, 3]
00000000: 1f09 09bc a510 033c d90d 7d3c a36c 36bd
00000010: 8cd5 8bbb 3e3e edbc 16bd 1ebe e8de c7bb
00000020: 2c5c 70bb 33a3 d83c a137 d33c 5bba 313c
00000030: 2a71 5cbc 30c3 073d 528d 2fbc 8567 e6bd
00000040: 8ec3 0d3d 2a10 a1bb 7936 20bd d7ac 763c
00000050: 53cd ed3a 1cd2 c4bc 3653 063d 4461 3d3d
00000060: 3fb4 26be c28c e13c fcc5 38bd fb1a 0fbd
00000070: 797e 963d 3535 033d 6766 33bd 33c1 8a3d
00000080: abd8 ab3c e5c8 33be 2e75 7a3d def8 24bd
00000090: 7efe ee3c e0d0 773d 1d16 51bd 41e0 4f3b
000000a0: 91ec 3c3d 68ab bfbd 9aeb 46bd eff3 863d
000000b0: 5af0 d5bd 44f5 81bd 1e94 223d 20ee 8c3d
000000c0: 466d 03bd a423 8a3d 297d 653d 584d 40be
000000d0: 506d abbb 60de 30bd a0b0 ecbd 8108 46bd
000000e0: ecc8 383c 75d2 24bd e3bf e2ba f99d 1cbd
000000f0: e79d bb3d 0343 103e 7436 543e a54b 02bf
00000100: cc51 8bbe 9e61 93be c4a5 bdbe ff1c 54be
00000110: 584b 80be 8c38 3ebd 3f7e 6e3d abdc 3f3d
00000120: 0206 15bc d464 dfbc e549 8a3c fa88 063c
00000130: e61b a13b 5049 183d c77e 5fbe 21a5 5abc
00000140: 37c3 41bd c9f5 81bd 1af1 a13c 6954 8a3c
00000150: 362b b33b 4840 66bc ba75 123d 759c c3bd
00000160: 5a9b ca3c 8b1c 423a c576 c9bc 2109 3b3d
00000170: 3588 8fbc 794c 97bd 1103 973d e120 3c3c
00000180: dc76 2fbe d6de 0d3d d76e 79bd 2353 59bd
00000190: 1667 533d 6bb7 fb3c 6283 98bd 78f3 a13d
000001a0: f954 773c 8e1f 74be f737 8fbb 767c 91bd
000001b0: e6ce 823a 59a1 833c ced0 44bc e414 6ebd
000001c0: af85 473c a19f 553c 8259 3dbe f334 aa3c
000001d0: c7f8 0c3a d4ae 34be 47cd 9abd dfd6 f2bd
000001e0: 2db4 5cbe 23eb 8fbd 9ca8 55bd e709 f53c
000001f0: 5e04 ed3d 59ba b53d b1dd 9cbd dbb4 fc3c
00000200: 010d 4c3d 04c5 86bd e4f0 173d 1328 463d
00000210: 6c00 35be 3c64 1fbc 2e4b 80bd 0549 be3b
00000220: b39a ec3c 2dfc 873c df95 dbbb 8508 0b3b
00000230: 1434 deb9 63c8 4abe d724 513c e251 40bc
00000240: 462b 5bbd e444 053c 48d8 ac3c 4ed1 0cbd
00000250: af6a 7a3a a577 833c 0243 2ebe 81e9 033d
00000260: 8533 3f3b 457c 8bbd 0b5f 943d 7f71 263d
00000270: ecf1 6fbd a9a6 543d 1a87 a439 c8b8 90be
00000280: 38b4 01bd 7c35 b5bc 6aa8 fabe 1117 a5be
00000290: c31c b4be e3a0 f6be 25e9 9abe 2a76 b4be
000002a0: 2cfd 65bd 91a7 a2bd 46f5 acbc d017 64bd
000002b0: ef2c 003d 6a66 9b3c 073f edbc d720 943d
000002c0: 5f2d 51bc 13e2 53be 61e7 d23d bf41 81bd
000002d0: ef00 7cbd 95c2 b03d 9e96 833d 5c54 c7bc
000002e0: 43a4 943d 00f2 b03c 07fc 0abe c7f9 a8bc
000002f0: 485d 77bd d5c8 05bd 66d7 733d ab6e 003d
00000300: 00f2 aebd 5401 573d 1795 173d dd15 60be
00000310: 97e5 973c 4f05 4fbd 63c8 adbc bbcc 053e
00000320: 4e2e 6e3d 8e0d 1cbd dc0a 743d 7a4f 4d3d
00000330: c697 4cbe 9535 5cbc f8c5 03bc 92bb 91bd
00000340: fbde 443c d520 e1bc bc33 eb3c 6cb2 11bd
00000350: 7d20 87bd a011 273e 63bf 223e 9a40 9b3d
00000360: 6c7f 8dbd d637 5b3d 37a7 583d 290d 0fbd
00000370: ed28 b63d b34e f43c c752 5ebe 128c 45bd
00000380: 884c 25bd 2353 5ebc cc29 833b 3755 cb3c
00000390: e2a6 273c 5a73 24bd c730 2a3d cfff e9bd
000003a0: 89d5 edbb 7689 493c df46 aebd a2d0 93bc
000003b0: ee71 eabc 46fd 8ebd 2e43 8abd a9af 65bc
000003c0: be1c 0a3e a036 3f3e 57fe ea3d 6601 89bd
000003d0: 99a0 ee3d 22bc d33d 3402 1fbd 45d9 243d
000003e0: ae1a d13d a2c2 58be 30c7 fe3c fa3d 6ebc
000003f0: 9ff9 a5ba b7e6 9b3a bc4d b43a cd21 65bd
-0.008363991 0.007999574 0.015445196 -0.044537198 -0.0042674 -0.028960343 -0.15501818 -0.0060995705
-0.0036676032 0.026445007 0.025783362 0.010847653 -0.013454715 0.03314513 -0.010714846 -0.112502135
0.034610324 -0.004915257 -0.03911445 0.015055857 0.0018142856 -0.02402597 0.0327942 0.046235338
-0.16279696 0.027532939 -0.045110688 -0.03493784 0.073483415 0.032033164 -0.04379883 0.06775131
0.020977339 -0.17557104 0.061146908 -0.0402764 0.029174086 0.060501933 -0.05104648 0.003171936
0.046124045 -0.09358865 -0.04856453 0.065894954 -0.10446234 -0.06345609 0.039692037 0.06881356
-0.032086633 0.06745079 0.056027565 -0.18779504 -0.005231537 -0.043180823 -0.11557126 -0.048347954
0.011278372 -0.04023977 -0.0017299618 -0.038236592 0.09160977 0.14088063 0.20723897 -0.50896674
-0.27210844 -0.28785414 -0.37040532 -0.20714186 -0.25057483 -0.046440646 0.058225866 0.046841305
-0.009095671 -0.027269758 0.016880939 0.008211369 0.004916656 0.03717929 -0.21825705 -0.013345034
-0.047305312 -0.06345708 0.019768286 0.016885953 0.0054677976 -0.014053412 0.035756804 -0.09551326
0.02473228 0.0007404766 -0.024592767 0.045663003 -0.017521003 -0.07387633 0.07373632 0.011482448
-0.17135185 0.03463634 -0.06089672 -0.0530578 0.051611982 0.030727109 -0.07446934 0.07907766
0.015095943 -0.23840162 -0.004370685 -0.07103817 0.0009979873 0.016068147 -0.012012674 -0.05812539
0.012177869 0.013038547 -0.18491176 0.020777201 0.0005377647 -0.17644817 -0.07558685 -0.1185739
-0.21553107 -0.07027271 -0.05216275 0.029911948 0.115730986 0.088734336 -0.07659472 0.030847957
0.04981709 -0.065805465 0.037094966 0.04837806 -0.17675942 -0.009728488 -0.062643394 0.0058070445
0.02888236 0.016599739 -0.0067012156 0.0021214795 -0.0004238194 -0.19803004 0.012765131 -0.011738272
-0.053508066 0.008134101 0.021099225 -0.034379296 0.000955264 0.016048262 -0.17017749 0.03220511
0.0029174995 -0.06810812 0.072446905 0.040635582 -0.058580324 0.051916752 0.00031381176 -0.28265977
-0.03166601 -0.02212023 -0.48956615 -0.3224416 -0.35178193 -0.48169622 -0.30256 -0.35246402
-0.056149647 -0.07942117 -0.02111305 -0.055686772 0.031292852 0.018969733 -0.028960718 0.07232826
-0.012767165 -0.20691709 0.10298038 -0.06311368 -0.061524328 0.086308636 0.06425212 -0.024332218
0.07257893 0.02159977 -0.13572703 -0.020626916 -0.060391694 -0.03266223 0.05953159 0.03135554
-0.085422516 0.0524915 0.037007418 -0.2188334 0.018542094 -0.050542172 -0.021213716 0.1306638
0.05814963 -0.038098864 0.05958067 0.050124623 -0.19979772 -0.013440509 -0.008042805 -0.07115854
0.012016053 -0.027481476 0.028711192 -0.035570547 -0.065979935 0.16315317 0.1589332 0.07580681
-0.069090694 0.053520046 0.052893844 -0.03492466 0.08894525 0.029822683 -0.21711265 -0.048229285
-0.04035619 -0.013569626 0.0040027853 0.024820907 0.010232659 -0.04014907 0.041550424 -0.11425745
-0.0072581214 0.01230084 -0.08509611 -0.01804382 -0.028618779 -0.06981902 -0.06751095 -0.014018931
0.13487527 0.18673182 0.11474293 -0.0668972 0.11651725 0.10338618 -0.03882046 0.040246267
0.10210167 -0.21167997 0.03110084 -0.014541144 -0.0012662894 0.001189432 0.0013756077 -0.055940438

encoder.10.bias f4 [64]
00000000: b7e4 85bc 1fa2 f1bc 9f1a 39bc cead 913c
00000010: 2147 42bd 9762 2e3d d331 f33b 6497 9a3c
00000020: bc35 92bc 0380 cabc c105 3f3d bcae 073d
00000030: ca8f ad3c e589 06bd 9067 1ebd 104f 603d
00000040: 8ae4 473d 69af 093d d638 223d b27b 0a3d
00000050: c9ae 27bd 2bd8 4dbd 126e a7bc f96d 4c3d
00000060: 640a 023d 7e47 cebc 2bd8 aebc d11a bdbb
00000070: 8d74 ac3c 662b f1bb 3214 323d c221 a73c
00000080: e3b5 f03c 6759 643d 6443 2cbd 7cb0 83bc
00000090: 2231 08bd 27f6 293d 1732 0fbd dcac b63c
000000a0: 03c2 2a3d d739 0ebb a6f6 5d3b a490 3ebc
000000b0: 5fd6 7b3c 0b71 b53c 6c74 17bd 5285 77bd
000000c0: de52 673c 5ff5 51bd f4ba 0c3c f476 d13b
000000d0: 3411 8dbc f3ca 93bc fc0c 2c3c c694 a4b9
000000e0: e5d8 393d fe2c 973c 759a 633c 00bf 233d
000000f0: fb9f 4f3d 5a8f 103b 55f1 1d3d 71a0 4d3d
-0.016344411 -0.02949625 -0.011297851 0.017783072 -0.047431115 0.04257449 0.007421711 0.018871017
-0.017847888 -0.024719244 0.046636347 0.033125624 0.021186728 -0.03284635 -0.038672984 0.0547629
0.048801936 0.03361455 0.039604984 0.03380937 -0.040938172 -0.050254982 -0.020438228 0.049909566
0.03174819 -0.025180575 -0.021343311 -0.005771019 0.02105167 -0.00735991 0.04347629 0.02040184
0.029383605 0.055749323 -0.042056456 -0.016075365 -0.03324998 0.041494515 -0.03495988 0.022299223
0.04168893 -0.0021701956 0.0033868938 -0.011631165 0.015370934 0.02214863 -0.036976263 -0.06042988
0.014118878 -0.051259395 0.008589495 0.006392354 -0.017220117 -0.01804111 0.010501143 -0.00031391362
0.045372862 0.018454071 0.013891806 0.039977074 0.05068968 0.00220581 0.03856023 0.050201837

encoder.11.weight f4 [64]
00000000: 8586 5f3f 7782 583f 8bd5 843f 1c0e 693f
00000010: 9ce6 7c3f a12e 733f 656c 463f 1861 6a3f
00000020: a67f 703f 36c1 773f 834f 6d3f e30f 803f
00000030: b879 7b3f 437d 6b3f da33 6a3f 548c 5c3f
00000040: 19ef 723f 169c 5b3f 3043 553f c587 4b3f
00000050: 173c 6d3f 030f 6c3f 6fbd 6f3f dcaa 473f
00000060: eaba 7a3f 0277 663f 4bc2 5a3f ea2d 693f
00000070: 5a83 713f 5b74 7c3f 8c05 813f 03c5 693f
00000080: eb33 693f 283b 5b3f 30d5 683f 7edb 663f
00000090: e840 723f fe92 6a3f 1091 663f 67c1 663f
000000a0: b216 5b3f 5787 633f df89 823f 942f 433f
000000b0: 4e82 5f3f ff55 7b3f 1127 533f 747e 613f
000000c0: d465 413f 894a 793f 4329 563f 5edf 7e3f
000000d0: 930b 783f 108b 693f 4c3f 6f3f f79c 763f
000000e0: e3cc 6e3f d510 6c3f 576e 633f 08e4 793f
000000f0: b173 493f 9f59 6b3f a0ea 683f a0b7 693f
0.87314636 0.84574074 1.0377668 0.91037154 0.9878938 0.94993025 0.77509147 0.91554403
0.93944776 0.9677919 0.9269945 1.0004848 0.98232603 0.9198801 0.9148537 0.86151624
0.94896084 0.85785043 0.83305645 0.7950404 0.92669815 0.92210406 0.9364843 0.77995086
0.9794146 0.9002534 0.8545272 0.91085684 0.9434105 0.98615044 1.0079818 0.9131624
0.91094846 0.8563714 0.909503 0.9017867 0.9463029 0.9163054 0.900651 0.9013886
0.85581505 0.8887839 1.0198325 0.76244473 0.87308204 0.98178095 0.82481486 0.8808358
0.75546 0.97379357 0.8365671 0.9955958 0.9689266 0.9122782 0.9345596 0.9633326
0.9328138 0.92213184 0.8884024 0.97613573 0.78692156 0.91933626 0.9098301 0.91295815

encoder.11.bias f4 [64]
00000000: 4385 ccbe 07b4 6c3c 1316 95be 8e86 4c3d
00000010: b110 acbe a052 acbe d0c1 8dbc ed68 cdbe
00000020: 537b cabe 2a2f babe fe98 5a3d 6965 d8be
00000030: 256f 89be 1f9d b03c 2d0a 58be d9da c9bd
00000040: b787 b1be 9aea 8d3c 764c a73d 0f8a 213c
00000050: 25e6 9e3d a655 e6be ddfa 183e 8793 b1bd
00000060: 9525 00bf 34be eebe 3b75 e63d f780 16bd
00000070: 46b7 6f3d 52aa e1be 268d e1be 8d08 ba3d
00000080: de5e e6be 967e 5f3c dc54 243d 7639 f6be
00000090: 250c d5be 166e f63d 8e45 77bc f20a 02bf
000000a0: fe57 9e3d 13a2 79be a4bb 72be 353a 3abd
000000b0: 6513 87be 681a c4be abf4 e63d e1ac 1f3e
000000c0: c15a 083e 4279 7ebe 2fb5 3f3e b4a4 b7bd
000000d0: 378c d6be 7869 f3be 795b a5be b098 c3be
000000e0: 96ff c8be a3ff 943d 4f1a 9e3d f86a 83bd
000000f0: ae1d 163e b3e8 ebbe db45 e7bc 1d21 debe
-0.3994542 0.014447219 -0.29118404 0.04993301 -0.33606485 -0.33656788 -0.017304331 -0.40119115
-0.39547214 -0.36364108 0.05336856 -0.4226487 -0.2684261 0.021559296 -0.21097632 -0.09856195
-0.34673855 0.01732378 0.08168881 0.009859576 0.0775874 -0.4498722 0.14939447 -0.08670717
-0.50057346 -0.46629488 0.11252829 -0.036744084 0.058524393 -0.44075257 -0.44053 0.09083662
-0.44994253 0.01364102 0.04011999 -0.48090714 -0.41610828 0.12032716 -0.015092267 -0.5079795
0.07731627 -0.24378233 -0.23704392 -0.045465667 -0.26381984 -0.38301396 0.112771355 0.15593292
0.1331587 -0.24850944 0.1872146 -0.089669615 -0.4190385 -0.47541404 -0.3229635 -0.3820243
-0.39257497 0.07275321 0.07719862 -0.06416887 0.1465976 -0.46075973 -0.028231552 -0.43384638

encoder.11.running_mean f4 [64]
00000000: 0d2b c2bf 0b11 803f 5490 1bc0 1c13 223f
00000010: aa35 fdbf 9ffc 9dbf 7ed9 4b3d c4e4 36c0
00000020: 6d33 29c0 bd0a 90bf 43f7 41bc b580 00c0
00000030: ce22 febf eb72 dc3f fac3 15bf cde0 573f
00000040: bf28 c0bf 0e6a bb3f 5570 a8bd 7aad 16be
00000050: 4be4 fc3c 9928 4bc0 f2e9 f23d 8255 bbbe
00000060: 1cf0 d4bf 6c4a 48c0 59ce 1bbe 949e 0c3f
00000070: 9dd6 983d 2dc9 72bf 39bf 09c0 7b16 783e
00000080: acbb 33c0 c8c0 c23f 854b 83be a7fc 86bf
00000090: 44c7 fdbf c295 9b3e f7cc 78bb 9f2d b5bf
000000a0: 4481 2f3f 9d7f 42c0 ae2c 00bf 2776 c43f
000000b0: abbf 91bc b5e1 28c0 53bc 14be 87bf d93e
000000c0: a27a 623e b882 86bf de17 0d3f 4442 783b
000000d0: 352f 24c0 4d90 ddbf d7f5 c5bf 50f3 07c0
000000e0: a44c 58c0 5c4a ab3d 0cbc ef3e e4b0 05be
000000f0: 423e 193e 1923 5ac0 56b1 a03f cceb 0fc0
-1.5169388 1.0005201 -2.430684 0.6331041 -1.9782002 -1.2342719 0.049767964 -2.8577127
-2.6437638 -1.1253277 -0.011838737 -2.0078557 -1.9854372 1.722257 -0.5850216 0.84327394
-1.5012435 1.464174 -0.08224551 -0.14714614 0.030870577 -3.174353 0.11861028 -0.36588675
-1.6635776 -3.1295424 -0.15215434 0.5492947 0.07462809 -0.9483822 -2.1522963 0.24227326
-2.8083296 1.5215082 -0.25643554 -1.0545853 -1.9826436 0.30387694 -0.0037963965 -1.4154547
0.6855662 -3.039039 -0.50068176 1.5348557 -0.01779159 -2.638776 -0.14524965 0.42528936
0.22117093 -1.0508642 0.55114543 0.0037881294 -2.5653813 -1.7309662 -1.5465649 -2.1242256
-3.3796778 0.08363792 0.46823156 -0.1305576 0.14965156 -3.4083922 1.2554119 -2.248767

encoder.11.running_var f4 [64]
00000000: 7d2c 8940 0989 8740 4bba 1041 60a5 8640
00000010: e2da c340 aa88 9340 517a 9240 a7e4 3141
00000020: d497 3641 f3a6 8840 814e 7040 e8b7 8f40
00000030: b709 d240 246f 0741 b779 2f40 6176 b540
00000040: d6f8 9e40 7141 d540 22ad 9240 52ce 7f40
00000050: b203 9040 6426 5541 3b4a ae40 6f43 7340
00000060: 5b74 c440 9ef3 5441 1f8c 6f40 194e b53f
00000070: 5579 9440 4b75 1840 ad23 ce40 f044 ae40
00000080: e948 3841 7993 dd40 1fa2 5c40 ebc3 6d3f
00000090: 0869 0341 ff32 9e40 28f5 8a40 e110 1a40
000000a0: 092a 8140 f5ea 3c41 d5a0 2940 4252 ed40
000000b0: bd66 5e40 4304 1841 4321 9c40 d7f9 9e40
000000c0: 8d2c 8c40 a24f 7f40 5115 2740 fd2b 8240
000000d0: 7751 2041 d7c0 a940 6cb0 f540 e6a7 3d41
000000e0: a422 5641 fcfa 9040 006e 4740 85b8 a140
000000f0: 7557 d540 b206 5241 b83f ac40 805c 1b41
4.2866807 4.235478 9.045482 4.2076874 6.120469 4.6104326 4.577431 11.118323
11.412067 4.2703795 3.7547915 4.4911995 6.563686 8.464634 2.741804 5.6707006
4.9678755 6.6642385 4.5836344 3.9969678 4.500451 13.321873 5.4465613 3.8009908
6.1392035 13.309477 3.7429273 1.4164459 4.639811 2.382159 6.441855 5.445915
11.5178 6.924252 3.447395 0.9287707 8.213142 4.943725 4.3424263 2.4072802
4.0363812 11.807363 2.6504414 7.416291 3.4750206 9.50104 4.8790603 4.967998
4.3804383 3.9892354 2.610676 4.0678697 10.019889 5.30479 7.677786 11.853491
13.383457 4.5306377 3.1160889 5.0537744 6.666926 13.126635 5.382778 9.710083

decoder.0.weight f4 [64, 32, 2, 2]
00000000: f8b6 793e 0465 463e 3dd4 9a3d 55ba 253e
00000010: 734a 16be 90af 33bd 3f6e 41be ac88 a9bd
00000020: 59d8 d7bd 0aa2 56bd 98a3 47be bc45 27bc
00000030: 4370 f1bd 5983 81bd a3e1 24be 7133 fdbd
00000040: 7488 4f3d 3a26 24be 7134 ccbc 009e a2bd
00000050: 8c1d c03d 0db5 24bd cb2b ca3d a83a f83c
00000060: 492a 703d 4ab1 8e3e 0239 88bc 99ed 1b3d
00000070: 96c9 ddbd d834 01be 6b1e 4abc 5858 15be
00000080: dbbb 693e d037 9f3e 46c1 263e ea7d 713e
00000090: ec6e b7bc 7f45 67bd 8d6c 223d 9950 523c
000000a0: 686b 01be f697 05be 1ded a33c 2ffe 10be
000000b0: 5b10 15be 6320 8abd a2eb 5fbe dc01 cdbd
000000c0: 61d8 3bbe 60f4 e2bd 9066 10be 4fab edbd
000000d0: be45 05be 64ba 163d 4c68 523e 34d7 c2bd
000000e0: c12a b73c 14e5 893c a9a2 983c b9ac 8c3c
000000f0: 4dd8 99bd 1e59 14bc 10a4 093d 04b8 8339
00000100: 1a99 053c 6cb4 28bb 4a92 393d 6296 b23d
00000110: 8919 f1bd 8cdd 7ebd ed50 b3bd 48a7 42bb
00000120: d64a 8bbe d1ec c9bd e2ed 1abe 8d73 d3bd
00000130: 2670 d2bd d566 61bd 3957 58bc 2520 0bbe
00000140: f16e 1bbe afaf 95bd e9b6 60bd bb24 4fbe
00000150: d77d af3b 0fbb 1d3e cf1e d93b 1192 0f3d
00000160: 4e57 533d 152f 833d 8c1a cdbd ede7 283e
00000170: 8d74 d4bd 9a51 8bbd 157d 4e3d 9f8c 5dbd
00000180: 503c be3c 1a7e e13d 66a3 093c 4d76 2e3d
00000190: 4aa2 ecbc 462f 82bd 3a72 dcbb 6027 babd
000001a0: e3cf 943b fcad 353e 3545 03be 9b04 c33d
000001b0: 7051 c93d cca8 123d ab45 00be 3c64 5abd
000001c0: 902a 3cbd 6cd5 eebd f9c4 09be 6633 55bd
000001d0: 888e f2bd 83a3 a0bd a259 13be d0d5 8dbd
000001e0: e650 f6bd 2630 acbd b4ee 12be 99b6 79bd
000001f0: 24d4 4cbe 208a c7bd 4275 45be 6611 2dbd
00000200: 885f 95bd 815d 81bc e937 3a3b 413c 773b
00000210: 348c 443d c082 4c3d c714 02be 97c8 1c3d
00000220: c054 0fbe 1435 5f39 1509 8f3c 153b fc3c
00000230: d20d 58bd dbe9 ea3c 066b 6f3c 9414 68bd
00000240: 2365 ab3d 0e1c dbbd 244b beba 1ad1 823d
00000250: e8e5 2cbc 10f1 39bc 7954 79bc 2a6b a9bc
00000260: f501 933d c8bf d03c 568f b53d 11a2 aa3c
00000270: 1a5b dabb 0265 063d 0142 0a3d a837 44bc
00000280: 61c1 ff3c 7e23 843d 29d1 553c e4a8 0a3d
00000290: 589b f9bd 5393 a6bd 93ff b1bd f256 00be
000002a0: 2413 b7bd a762 dfbc 0051 4a3d 5c82 5e3d
000002b0: b27d 253c 7c42 60bd dc64 ebbc db18 e4bc
000002c0: c143 d93c 34a4 c0bc 86be 5dbd 4a6f 4bbc
000002d0: 0c7e 2abd cac6 183d 4349 0b3e 341c 0d3d
000002e0: ff37 29bd db28 f0bc 6dbf 1bbd d742 c7bc
000002f0: 8e2b e0bb 865e 453d 5e06 073d 3114 16bd
00000300: 7bc3 c93b d712 2f3d 7fd9 b33c fbd3 903d
00000310: 2ffe 3dba ed66 0c3d 60f7 5b3c 88b9 073d
00000320: 0d8d 063d 9eda 4c3d c103 26be 45fd ab3d
00000330: 6992 003d 0e09 623d 351f 9dba 4edb 09bc
00000340: 33e1 52bc 1a79 673b cfde 993d 1042 9fbd
00000350: 7c27 b83c 190b 553c bfd2 833c a92d ef3c
00000360: a726 3f3d fd95 2a3d 4040 0fbc 2857 be3d
00000370: ce8a f4bd 0479 ecbc 75d4 263b b3a7 c5bd
00000380: ea8f 033d 23df 653b e5cc d63d 55eb 0c3d
00000390: da47 49bd ecc2 ac3c 8b86 d6bc 0f85 2c3d
000003a0: ee54 483d 4852 fe3c 191d 393d 1f89 c13d
000003b0: dbe1 e33d 4088 ab3d 7819 653c 88cd 973c
000003c0: 96f4 2abd b069 e53c b192 f53c 93c6 7a3d
000003d0: ec17 553d 568c 0dbe 36fd 253d 301b 91bc
000003e0: 750f abbc ee1b 9b3d 1df6 573d 4667 2bbc
000003f0: b7bd f0bc 8303 d8bc 60e8 fa3c fb20 b23b
0.24386203 0.19374472 0.075600125 0.16184361 -0.14676838 -0.0438686 -0.18889712 -0.08278021
-0.10539312 -0.052400626 -0.19496 -0.010209497 -0.1178899 -0.06323881 -0.16101699 -0.12363327
0.05066724 -0.16030207 -0.02492735 -0.07940292 0.093806356 -0.040211726 0.09871634 0.030301407
0.058634076 0.27869636 -0.016628746 0.038068388 -0.10829465 -0.12617815 -0.012336354 -0.14584482
0.22825567 0.3109727 0.16284665 0.23583189 -0.022391759 -0.05646276 0.039654303 0.012836599
-0.12638628 -0.1304625 0.020010525 -0.14159463 -0.1455702 -0.067444585 -0.2186723 -0.1001012
-0.18344261 -0.11081767 -0.14101624 -0.1160494 -0.13014886 0.03679885 0.20547599 -0.09513703
0.022359254 0.016832866 0.01863225 0.017172204 -0.07511959 -0.00905445 0.033603728 0.0002512337
0.008154178 -0.0025742305 0.045305528 0.087200895 -0.117724486 -0.062223002 -0.0875567 -0.0029701758
-0.27205533 -0.09859622 -0.15129808 -0.10324774 -0.10275297 -0.05502971 -0.013204389 -0.13586481
-0.1517904 -0.073088996 -0.054861937 -0.20228855 0.0053555775 0.15403388 0.006625987 0.03505141
0.051596932 0.064054646 -0.10014829 0.16494723 -0.10373793 -0.06802674 0.050412256 -0.054089185
0.023222119 0.1101038 0.008400774 0.04259329 -0.02888598 -0.06356673 -0.006727484 -0.090895414
0.0045413836 0.17742151 -0.12819369 0.09522363 0.09829986 0.03580551 -0.12526576 -0.053318247
-0.04593903 -0.11661801 -0.13454045 -0.05205097 -0.11843592 -0.078436874 -0.14389661 -0.06925547
-0.12027149 -0.08407621 -0.1434887 -0.060965154 -0.200028 -0.09743142 -0.19283012 -0.04225292
-0.07293612 -0.015791656 0.0028414673 0.0037725123 0.04798527 0.04992938 -0.12703238 0.038277235
-0.13997173 0.0002128671 0.017460385 0.030789891 -0.052747555 0.028675964 0.014612919 -0.05666025
0.083689 -0.106987104 -0.0014518243 0.06387539 -0.010552861 -0.011348978 -0.015217894 -0.020680983
0.07178108 0.025482073 0.0886523 0.020829232 -0.006663692 0.032811172 0.033754352 -0.01197616
0.03122014 0.06452082 0.013050356 0.033852473 -0.121878326 -0.081335686 -0.08691325 -0.12533167
-0.08939198 -0.02726872 0.049393654 0.05432354 0.010100769 -0.054750904 -0.028734617 -0.027843883
0.026521565 -0.023515798 -0.054136775 -0.01241667 -0.041624114 0.037298955 0.13602166 0.034450725
-0.041313168 -0.029316356 -0.038024355 -0.024323864 -0.0068411296 0.048185848 0.032965057 -0.03664035
0.0061573363 0.042742576 0.021954296 0.07071682 -0.0007247654 0.034277845 0.013425678 0.03313592
0.03284936 0.050013177 -0.1621237 0.08397917 0.031389628 0.055184416 -0.001198745 -0.008414103
-0.0128710745 0.0035319985 0.075132005 -0.07776272 0.022479765 0.013003134 0.016091703 0.029196577
0.04666772 0.041646946 -0.008743346 0.092939675 -0.119405374 -0.028866298 0.0025456224 -0.09651127
0.03211967 0.0035075627 0.10488299 0.034404118 -0.04914079 0.02108904 -0.026187202 0.042119082
0.04890912 0.031045094 0.045193765 0.09449982 0.11127063 0.08375597 0.013983123 0.018530622
-0.04173716 0.028004497 0.029977174 0.06122453 0.052024767 -0.13823065 0.040524684 -0.01771316
-0.020881394 0.075736865 0.052724946 -0.010461634 -0.029387338 -0.026368862 0.030628383 0.0054360605

decoder.0.bias f4 [32]
00000000: f3ac 67bd db3b a93d 2ad0 933c 6143 abbd
00000010: a652 893d de4a 22bd be9e 45bd 39e3 823d
00000020: 2324 803d 77dd 80bd d0e2 a2bd bc62 1abd
00000030: 5f38 d5bc 30bd d0bc 2c5e 18ba 5f60 76bd
00000040: 36e6 13ba c30d 2d3d d156 f1bc c9f3 893d
00000050: 8895 593d d9af fcbc 0207 8abb 4f9d 3a3a
00000060: 9e62 793c d779 7ebd 7a9b 9abd 9309 a0bc
00000070: 3d57 ca3c 619c 92bd 1828 75bd 0d2a cebb
-0.05656142 0.0826337 0.018043596 -0.08362461 0.06705217 -0.03962218 -0.04824709 0.063909955
0.062568925 -0.06292241 -0.07953417 -0.037691817 -0.026027856 -0.025480837 -0.00058123725 -0.0601505
-0.0005641909 0.042249452 -0.029460343 0.067359515 0.05312112 -0.03084557 -0.004212261 0.0007118778
0.015221266 -0.062127914 -0.07549186 -0.019535815 0.024699802 -0.07158733 -0.05985269 -0.006291634

decoder.1.weight f4 [32]
00000000: c643 543f 224b 8f3f cb7c 633f 7067 8c3f
00000010: fc9d 813f 3fb5 6d3f f3c9 3d3f b607 7e3f
00000020: e6f4 453f 30e5 843f 5657 723f 2e5a 6f3f
00000030: a9d1 903f e6f7 663f bdfa 9c3f e65e 603f
00000040: 3ccf 553f 92c3 643f 4336 5d3f 4048 533f
00000050: 0d99 6f3f f578 563f 4ef9 773f 2f17 653f
00000060: 99e0 643f 8be2 573f 0ef2 353f e92d 773f
00000070: 2849 783f d978 883f f83c 703f f131 8d3f
0.82915914 1.1194804 0.88862294 1.0969067 1.0126338 0.92854685 0.74136275 0.99230516
0.7732681 1.0382442 0.94664514 0.9349698 1.1313983 0.90222013 1.2264019 0.87644804
0.8351934 0.89360917 0.8641092 0.8253212 0.9359291 0.83778316 0.96864784 0.894885
0.8940521 0.8433005 0.7107247 0.9655443 0.9698663 1.066188 0.9384303 1.1030866

decoder.1.bias f4 [32]
00000000: 8e04 16be aa44 c93d 0cba 083e 5c5d febb
00000010: 4cbb b23d 5537 8abe 258d 40be b206 1d3d
00000020: 4209 95bd a9ac 14be 4e65 2abd b050 0fbd
00000030: 9b60 803d 0566 21be 87de e13d c503 f1bd
00000040: ef0a b9bd db56 db3b 19e2 ba3d 5376 d3bc
00000050: e3aa 04bd d554 eb3c dd57 80bd b3ea c0bd
00000060: b93b 2dbe 6346 86bd 446e cdbd f7db 41bd
00000070: 65ed 103d cb39 f63c c9bd b33d d417 7f3d
-0.14650175 0.0982755 0.13352221 -0.007762594 0.0872713 -0.2699534 -0.18803842 0.038336463
-0.072771564 -0.1451899 -0.041600518 -0.03498906 0.06268426 -0.15761574 0.11028772 -0.11768297
-0.090352885 0.0066937036 0.09125156 -0.025813257 -0.032389533 0.028726975 -0.062667586 -0.09419765
-0.16917314 -0.06556394 -0.10030797 -0.047328915 0.035382647 0.030056855 0.08776433 0.062278584

decoder.1.running_mean f4 [32]
00000000: eb4f 90bd d93a fcbe 7607 5dbe 2391 0bbf
00000010: 258c c6be be4e b1bd b919 f33e 2828 67be
00000020: e291 ae3e 4655 5bbf 8861 d6be e42e 02bf
00000030: c51f f8be 40b7 ff3e 8d28 ad3d 38cb 81bd
00000040: 43f3 643e f487 123e 151d 45bd 4080 51be
00000050: 26dd debe b478 76bd 73d3 c23e d632 aebe
00000060: 2111 173f 17b7 bf3d 4b8a 293e 4d83 353f
00000070: e105 f6bd f3d3 15bf f380 42be cefe dabe
-0.07046493 -0.49263647 -0.21584877 -0.54518336 -0.38778797 -0.08657597 0.47480562 -0.22573912
0.34095675 -0.8567699 -0.41871285 -0.508528 -0.48461738 0.49944496 0.08455 -0.06337589
0.22358422 0.14309675 -0.048123438 -0.2045908 -0.43528098 -0.060173705 0.38051948 -0.3402316
0.5901051 0.093610935 0.16556661 0.70903474 -0.1201284 -0.58526534 -0.18994503 -0.42772526

decoder.1.running_var f4 [32]
00000000: 4b4c 7c3f 6909 3440 1b53 3040 253f a63f
00000010: 690b 4640 e435 9f3d 2679 ba3f 0f33 8c3f
00000020: 922f cc3e c5a6 2740 5cd5 6340 f689 9f3f
00000030: 275e 953f d320 963f 4861 b03e 40ff 353f
00000040: de80 893f ec6c 2a3e e20f 2c40 3a61 e13f
00000050: 32c7 4140 4018 1f40 9f92 633f defb a13f
00000060: a8d0 de3f 2c32 8a3f 24e0 a23e 8ce0 1240
00000070: d7d8 c83f e4cf e33f 7d39 903f 7b63 c63f
0.98553914 2.8130744 2.7550724 1.298802 3.0944464 0.07773951 1.4568222 1.0953082
0.39880043 2.6195538 3.5598974 1.2463977 1.1669358 1.1728767 0.3444922 0.71092606
1.0742452 0.16643113 2.6884694 1.7607796 3.027783 2.485855 0.888956 1.2654989
1.7407427 1.0796561 0.3181163 2.2949553 1.5691174 1.7797818 1.1267544 1.5499109

decoder.3.weight f4 [32, 16, 2, 2]
00000000: c4ef 19bc eaa4 a63b 415c c7bd 61a4 9abd
00000010: 8f5b 0ebc cfa7 9cbd b41b 54bc 4039 b43d
00000020: ab0b 47bd 3468 933c b67b 083d 1883 d6bc
00000030: 35a0 a8bd 95de 7cbc cfca 7dbd d77f 27bb
00000040: 774f afbd c3d5 cbbc 4792 763a 3d90 05be
00000050: d607 14be 7e2b 08bc aa81 8d3d d3b5 6e3d
00000060: 5bcd 27bd 0487 953d ac5e 93bd 2562 97bc
00000070: 1f03 113d 2243 293d 7c55 753c 5d80 0bbe
00000080: be41 2ebd 60ba ae3b f42c c03c 23b6 16bd
00000090: c63d b83c bc3c 683c f20a 8c3a e288 7c3d
000000a0: 7f11 52bb e0c4 0fbe 3103 08bd 0f80 23bd
000000b0: 008f 4bbc 7bfd cbbc ff8e 2ab7 8e23 bfbd
000000c0: 3b3f 883c fa65 4f3c 1cd8 313d 7ee8 9e3d
000000d0: 075e 2ebd 8428 023d cc99 9abd cefc 2dbc
000000e0: b8f3 0cbd 8b74 f0bc d738 e03c f30b 74bd
000000f0: 15c2 5bbd 21b2 acbc ceca 0cbd aab7 89bc
00000100: 9acd e2bc 2bd1 09be d436 92bd 6af2 a8bd
00000110: 926c c9bd 4377 2dbe e74a 043e dd60 183e
00000120: 8301 bebd b1f3 d8bd a5e9 3abd b178 b7bd
00000130: 901c f2bd 2e52 b43c 60e3 453e d00a 17be
00000140: 6ff8 1fbd c2c9 75bd ac40 443d 1aae 2abd
00000150: bad6 e2bd 67fe 84bd bf55 abbd 5ed4 5dbd
00000160: 8d59 84be 1460 d33d c345 16bd 4c47 d73d
00000170: 992b 303e 6ecc 93bb 3883 66be 6cdc 81bd
00000180: fdbd 52bc cd48 133e a1a2 80be 360f 6b3d
00000190: fdc6 263d aeca 643d e45f 6c3c 89f5 84bd
000001a0: 0f1d 323e 961b f8bd c557 b3bc ce11 08bd
000001b0: c371 0abe 36f1 1bbe b971 f8bd 8f43 f2bd
000001c0: b9b3 96bd d538 f9bd 0812 c63d 7776 793e
000001d0: 14ee 05be dd63 083e 6386 c53a c652 b53d
000001e0: f2ab ba3d 6e9d a73c 3e98 9a3d a454 8ebe
000001f0: 45a5 ecbd 8232 83bd 382d d33d 3447 8c3d
00000200: 7f21 38bd c37c 40bd 1ac6 e8bd 29dd c6bd
00000210: 842c ee3c 53c3 d6bd 32c5 ffbd 0759 cbbd
00000220: ff11 b3bd dff0 643c d4b2 c3bd 82f7 bbbd
00000230: af09 7bbd 5155 f63b 5140 c43d 23fa d7bc
00000240: b64c 873d d076 3abd 5279 be3b c33e c6bd
00000250: cc02 18bd b64c acbc 4d88 1a3d b594 783d
00000260: 3608 573c e776 0f3c 4731 e4bc b8d5 913d
00000270: 01b2 e3ba 29ce 20bd 137a 86bd d957 aebc
00000280: 7758 aa3d 3932 47bd 9da6 c4bc ce07 7b3d
00000290: c544 3e3c 6617 803d 3d2f d23c feab 5c3d
000002a0: c24f 093d 8e02 90bd 0bdf 8f3c ca30 82bd
000002b0: ee93 7bbd 57cc 2ebd 15c3 95bd ccc9 e1bd
000002c0: ea95 2fbd 4cb1 12bd 77c4 2abd 554d a33c
000002d0: 5966 abbd d627 983d 5c01 02be ce45 883b
000002e0: 8fc3 203e ee66 4dbd c12b 343d 7609 673c
000002f0: 8e37 b5bc 7281 3c3b 9a0d 833c ec4f 903c
00000300: e5d8 82bd edac 1ebe af86 c0bd 2517 73bd
00000310: 1271 dabd 671d fabd d957 23bd 50b4 ef3d
00000320: b62a 8cbd de0d 45bb e71a 16bd fc6c b2bd
00000330: 5954 4bbe 218d e03d 42d0 3d3e ce87 b7bd
00000340: 2963 973b f587 873d b4a7 8fbd 6414 bfbc
00000350: 7a08 05be e76c fabc c155 1b3d 63f3 31bd
00000360: 0e01 5dbe 3660 273e a5eb c53d 5f89 0cbc
00000370: d279 793e 9d83 a43d 0ea2 49bd 1ebc 01bd
00000380: d4e9 aebd d125 2c3e 4c48 10be ca25 83bd
00000390: 0d9c df3c 5d78 27bc 7ee7 27bd 671f 943b
000003a0: a99b 2b3e 83ac 07be 6300 3cbe 50e3 08bd
000003b0: 6b06 d8bd 9bc9 edbd 7037 13be 34b2 dbbd
000003c0: 4839 1ebd c4a8 6dbd 60f3 0a3e 197b 663e
000003d0: a672 4abe a63e c3bd cc68 0ebd 0bd1 253e
000003e0: 7a45 c13d b588 1f3e cf8b c63d 8761 61be
000003f0: 62cf f7bd da08 d2bd b190 1a3e 307e 2d3e
-0.0093955435 0.0050855773 -0.09734393 -0.07550884 -0.008688821 -0.076491944 -0.012946058 0.08799982
-0.04859511 0.017994024 0.033321105 -0.026185557 -0.08233682 -0.015433927 -0.06196099 -0.0025558376
-0.085600786 -0.024882203 0.00094059523 -0.13043304 -0.14456114 -0.008311151 0.06909497 0.05827887
-0.040967327 0.07301143 -0.071957916 -0.018479416 0.035403367 0.04132379 0.014973994 -0.13623185
-0.042543165 0.005332276 0.023458935 -0.036794793 0.022490393 0.014174636 0.0010684414 0.06165398
-0.0032053886 -0.14039946 -0.03320617 -0.039917048 -0.012424231 -0.024901142 -1.01660835e-05 -0.093329534
0.016631713 0.01265859 0.04341899 0.07759188 -0.04257014 0.03177692 -0.07548866 -0.010619355
-0.034412116 -0.029352447 0.027370853 -0.05958171 -0.053651888 -0.021081032 -0.034373097 -0.01681121
-0.02768593 -0.13458697 -0.07139364 -0.08249362 -0.09835161 -0.16940026 0.12919198 0.148807
-0.09277632 -0.105933554 -0.045632977 -0.08958567 -0.11821854 0.022011843 0.19325018 -0.14750218
-0.039055284 -0.060006864 0.04791324 -0.041669942 -0.11076112 -0.06493836 -0.08365964 -0.054157607
-0.25849572 0.1032106 -0.036687624 0.10511646 0.17204131 -0.004510454 -0.22510993 -0.0634087
-0.01286268 0.1438324 -0.25124076 0.057387553 0.040717114 0.055857353 0.014427159 -0.064921446
0.17393897 -0.121146366 -0.021892438 -0.033220105 -0.13519959 -0.15228733 -0.12131066 -0.11829292
-0.07358498 -0.12169043 0.09671408 0.24361597 -0.13079101 0.13319345 0.0015069958 0.088536784
0.09114827 0.02046081 0.07548569 -0.2779895 -0.1155496 -0.06406118 0.10311359 0.068495184
-0.04495382 -0.046993982 -0.1136591 -0.09710152 0.029073961 -0.10486474 -0.12488784 -0.0992909
-0.08743667 0.013973444 -0.09555593 -0.09178068 -0.061288532 0.0075174947 0.0958258 -0.026364392
0.06606428 -0.045523465 0.0058128024 -0.096799396 -0.037112042 -0.021032672 0.037727643 0.060688693
0.013124516 0.008756376 -0.027855529 0.07120842 -0.0017371775 -0.03925911 -0.065662526 -0.021282123
0.083176546 -0.04863188 -0.024005229 0.06128674 0.011613076 0.06254463 0.02565729 0.053874962
0.03352333 -0.07031737 0.01756241 -0.06356962 -0.061420374 -0.042675342 -0.073125996 -0.11024818
-0.04286758 -0.035813615 -0.04169127 0.019934336 -0.08369131 0.07429473 -0.12695831 0.004158712
0.156996 -0.05014699 0.04398704 0.014101377 -0.022121217 0.002876368 0.015997697 0.017616235
-0.063890256 -0.15495653 -0.09400689 -0.059348244 -0.10666098 -0.12212639 -0.0398787 0.11704314
-0.06844084 -0.003006808 -0.03664675 -0.08712193 -0.19856395 0.10964418 0.18536475 -0.089614496
0.004619975 0.066177286 -0.07014409 -0.023325153 -0.12991515 -0.030569507 0.03792358 -0.043445002
-0.21582434 0.16345295 0.09664086 -0.008577674 0.24362877 0.08032916 -0.049226813 -0.031673543
-0.08540693 0.16811301 -0.14090079 -0.06403692 0.02729609 -0.010221568 -0.040992253 0.004520345
0.16758598 -0.13249402 -0.18359523 -0.033419907 -0.10548099 -0.11610719 -0.14376616 -0.10727349
-0.038628846 -0.058022276 0.13569403 0.22507896 -0.19770297 -0.095334336 -0.03476791 0.16193025
0.0943708 0.15579493 0.09694635 -0.2200986 -0.12100102 -0.102555946 0.15094258 0.16942668

decoder.3.bias f4 [16]
00000000: 7b14 d13b d487 ddbd 1ca9 253b 7e22 ee3c
00000010: 5388 f93d 2389 f7bd 9c1a a7bc 2bc4 babd
00000020: 9966 c63d d5ce bf3c 2928 a5bc 0ef0 26bd
00000030: 76d5 9abc 2488 163d 7b73 bebd e5c2 04be
0.0063806153 -0.10816923 0.00252778 0.029069182 0.12184205 -0.12086704 -0.02039843 -0.09119447
0.09687538 0.023414055 -0.020160751 -0.040756278 -0.018900614 0.036750928 -0.0929937 -0.12964971

decoder.4.weight f4 [16]
00000000: ece3 883f c740 9c3f 1a7e 843f 7598 b63f
00000010: 2dba 6a3f 5104 693f f030 ad3f a042 bb3f
00000020: 218d b63f 2b96 cf3f 6df1 b93f 8e87 8b3f
00000030: ec2f c53f 525f c23f a5cc c73f 2827 c63f
1.0694556 1.2207268 1.0350983 1.4265276 0.9169033 0.9102221 1.353056 1.4629707
1.4261819 1.6217703 1.4526802 1.0900743 1.540525 1.518534 1.5609328 1.54807

decoder.4.bias f4 [16]
00000000: 6254 8cbd 62d4 e43d d634 a3bd 8642 8d3e
00000010: f7f2 f1bd 6fa7 f6bd 43c2 813e cc0f b33e
00000020: 8f79 b23e 8bc7 ca3e 2fdf 8d3e 9a81 95bd
00000030: 9964 b63e 6c5c b33e d952 053f fc59 be3e
-0.06852032 0.11173321 -0.07969062 0.27589816 -0.1181392 -0.12043654 0.25343522 0.3497299
0.34858367 0.39605364 0.27709338 -0.0730011 0.35623625 0.3503145 0.5207954 0.37178028

decoder.4.running_mean f4 [16]
00000000: 15c2 9dbd cafc 3cbe 499d 66bd 96dc fabb
00000010: bfa3 8c3d 8a4e 03be c707 fcbd 5272 4ebe
00000020: 697d 5abc d110 7dbc e99d 05be 0a58 00be
00000030: 0e68 a6bd cdb2 cfbc 25ba 93bd 9b9e 5fbe
-0.07703034 -0.18455806 -0.056302343 -0.0076556904 0.068671696 -0.12822929 -0.12306171 -0.20160797
-0.013335564 -0.015445904 -0.13048519 -0.12533584 -0.081253156 -0.025353814 -0.072132386 -0.21837847
