Models/models_GA/flood_cnn_epochs_15.pth (torch, 150547 bytes, 31 tensors)

encoder.0.weight f4 [16, 2, 3, 3]
00000000: 518c 2b3e c7cb d73d efe3 573e c1cb 1dbe
00000010: af13 543e 8593 543e 43d8 7d3e 97dc c33d
00000020: 40ac ac3d 1270 eabd bda3 cf3d 255a eb3d
00000030: 80ac 39be 90da cf3d 357e 433d 241f a83d
00000040: 70f9 bc3c 7158 ae3e 62d4 9e3d 56dc 4abe
00000050: b531 d43d b075 4e3c 325a 573d bc04 1abd
00000060: 9fca 68be 6f23 48be c572 e4be 1be9 d2bc
00000070: 128d 18bd 5b16 dc3d c5e6 0a3d 2cab d4bc
00000080: 3ada eabc 7c8e 503e ecff 3dbe 447f 98be
00000090: ce03 c83d 8e38 3abe 8d2a 3d3e 06d8 c3bd
000000a0: 3741 473e 5f04 1f3e 88a1 a9bc 1795 13bd
000000b0: cb94 8e3e 0592 00bd e852 0a3e ed27 fd3d
000000c0: 9c67 a23b 287a e4bd e032 863e 5a1c e3bd
000000d0: 8215 a23d 172b 113e 1bd9 933d c4e1 0a3d
000000e0: 3342 92bd aa7a 95bd 48b2 81be 51ed 0d3e
000000f0: 4379 7abd 25a7 a7be 9ec4 ccbd 4eef 9a3d
00000100: cbcf 52bd bd11 68bd 1af2 21be f72d 6f3d
00000110: c0c5 a9be 7d81 3b3e dc3e f83d defa c7bc
00000120: b123 52bd e9b0 d03d ba75 10be 4664 5c3d
00000130: d2cf 7c3d 4983 68be 54de 26bd ef78 07bc
00000140: 8e08 9fbe e347 babb 9fe7 e9bd 8b5d cebe
00000150: d44d 8f3c c3bf 343e c4ec f4bd 4557 13bd
00000160: 9ffb c4bc 8044 d63d b178 0abe 7552 a13d
00000170: c33e d73d 2c28 7a3e 2d47 9c3d 56f2 febd
00000180: 5ae4 f7bd 580e 883e 2812 1f3e dcd9 91bd
00000190: e8bf c9bd f5c3 063e d610 89bd ed26 af3c
000001a0: 7c77 983e f64f 24bd 7600 603d 6c1f 163e
000001b0: a5b6 39bd b864 59bd f169 d03d 1a55 32be
000001c0: f8fb b2be d353 79bc b03d 1dbe 61b1 6d3d
000001d0: 87cd 283e 2a49 debd 6dde eb3c 5b8f 88bc
000001e0: f703 99bd c9a5 5d3c c790 763e e0ed 043d
000001f0: b3b4 473e d7a3 1dbe 3fa6 97bd 8b86 093e
00000200: 2a80 cbbd 8b36 c4bc 47af 2bbe df85 a8be
00000210: bab2 713d 291c 28be 11d4 42be 9cb7 c03d
00000220: 3169 a1bd f67b 993c 169c 6b3c 6005 c03d
00000230: d5cb 733e 6154 ecbd ebde 58be 8998 063e
00000240: c620 3cbd 4e34 0d3d af88 b6bc 027c b9bd
00000250: 0cb2 043e 873e d9bd 4bd8 7d3d 6646 54be
00000260: f6e8 cdbe 349f 753d ce5e cfbd 2304 ce3d
00000270: 240a 7e3d 666c e83d bf93 a7bd f5d0 01bc
00000280: 3935 98be c22e 49be c635 aabb a34d 733d
00000290: b4d6 20be aae2 e3bd b5d8 563d 0545 90be
000002a0: 1f10 d93c c17d f73d 7312 36be f67f 143d
000002b0: 685f 0bbe 3a12 c53d 66eb d53d ded2 2e3e
000002c0: decc 963d a644 66be b7ea b1be bd41 0fbe
000002d0: 5572 613d f418 d2bd 388d 1bbe 3e20 a0bd
000002e0: 4279 f93b cb84 52be 04f3 37bd c2dd 6dbe
000002f0: 2755 68bd 67fc 5c3d 0f3f 953c 5e4a 8f3d
00000300: 68e6 fe3c 7a5d 14bd d83e 46be 7f7f bb3c
00000310: 423d febd 28d7 fbbe f8ed b9bc 7809 963c
00000320: 2a39 0dbd 62c3 cb3d 125f 993d 0443 5fbe
00000330: 2c63 10bd 9357 37be 0fd1 61be 6d2c d8bd
00000340: c6a7 403e 8162 9bbd 7379 453d 1d5d 2dbd
00000350: 8a88 ab3c 04ec bc3c de79 19be 63a3 e6be
00000360: 57f5 b13d f593 163e cef9 84be e8fd d0bc
00000370: cff1 cbbd 81f9 c3bd 55e5 01bd b8a6 82be
00000380: 9bb3 ebbe 6f76 db3d a31c d53d 4043 bdbd
00000390: 1746 c13c b376 6cbe 43cc e73d 230f f3bd
000003a0: df3e 93be ac4e 2b3e 214c ccbd 9699 423e
000003b0: ebfc 923d f256 1f3e a247 7b3e 6549 8a3e
000003c0: 2843 77bd 301b 103e a672 f13d 86f9 33be
000003d0: 0eae e63c d41c 70bc a25d 263e 0bff 653e
000003e0: c3e8 4cbd 8bfc ffbc 90b1 983e e930 aa3d
000003f0: b9fc 263e fb54 92bd 082a 7e3d b77d 29be
0.16752745 0.10536914 0.21083044 -0.15409757 0.20710634 0.20759399 0.24789529 0.095635585
0.084312916 -0.11447157 0.101386525 0.11491803 -0.1813221 0.10149109 0.047727782 0.082090646
0.02306816 0.3405185 0.077553526 -0.19810614 0.10361043 0.012601301 0.05257625 -0.03760217
-0.22733544 -0.19544767 -0.44618812 -0.025745919 -0.03724391 0.107464515 0.033911485 -0.025960527
-0.028668512 0.20366853 -0.18554658 -0.29784596 0.09766351 -0.18185636 0.18473263 -0.095626876
0.19458471 0.15529011 -0.020706907 -0.036030855 0.27847895 -0.031389255 0.13508189 0.12361131
0.004956199 -0.11156112 0.2621069 -0.11089392 0.079142585 0.14176594 0.07219144 0.033906713
-0.07141533 -0.07298787 -0.2533133 0.1386006 -0.0611508 -0.3274471 -0.09998439 0.07565175
-0.051467698 -0.05665754 -0.1581501 0.058393445 -0.33158684 0.18311115 0.121213645 -0.024411615
-0.05130357 0.10189993 -0.14107409 0.053806566 0.06172163 -0.22706331 -0.040739372 -0.008268579
-0.31061214 -0.005684839 -0.11421131 -0.40305743 0.017493166 0.17651276 -0.11959222 -0.0359719
-0.024045764 0.10462284 -0.13522603 0.078770556 0.10510018 0.24429387 0.07630763 -0.12448566
-0.121041015 0.26573443 0.1553427 -0.071216315 -0.09851056 0.13160689 -0.06692664 0.021380866
0.2977866 -0.04011532 0.05468794 0.14660424 -0.0453402 -0.05307457 0.10176457 -0.17415276
-0.34957862 -0.015217739 -0.15355563 0.05803049 0.16484652 -0.10853799 0.028792584 -0.01666992
-0.07471459 0.013528296 0.24078666 0.032453418 0.19502525 -0.15394531 -0.07404756 0.1343023
-0.09936555 -0.02395179 -0.16766082 -0.32914636 0.059008338 -0.16416992 -0.1902621 0.09410021
-0.07881392 0.018735867 0.0143804755 0.09376025 0.23808224 -0.115395315 -0.21178786 0.13144125
-0.045929693 0.03447371 -0.022281973 -0.09056856 0.12958544 -0.10607629 0.06197385 -0.2072998
-0.40216798 0.05996628 -0.101255044 0.10059383 0.06202139 0.113488 -0.08182477 -0.007923354
-0.29728106 -0.19646743 -0.0051943986 0.059400212 -0.15706903 -0.11127217 0.05245276 -0.28177658
0.026496945 0.120845325 -0.17780475 0.036254846 -0.13610613 0.09622617 0.10445289 0.17072627
0.07363294 -0.22487125 -0.34749386 -0.13989921 0.055040676 -0.10258666 -0.1519059 -0.0781865
0.007613332 -0.20558469 -0.044909492 -0.23229125 -0.056721833 0.053951647 0.018218545 0.06996606
0.031115726 -0.03622196 -0.1935991 0.022887943 -0.12414028 -0.4918759 -0.02269648 0.018315062
-0.034478344 0.09949376 0.07488836 -0.21802908 -0.035250828 -0.179045 -0.22052406 -0.105553485
0.18814 -0.075871475 0.048211526 -0.042325128 0.02093913 0.02306176 -0.14987895 -0.4504653
0.08689373 0.14704879 -0.25971836 -0.025511697 -0.09958231 -0.095690735 -0.03171285 -0.2551782
-0.46035466 0.10715949 0.10405853 -0.092413425 0.023592992 -0.23092155 0.11318257 -0.118681215
-0.28758904 0.1672923 -0.09975458 0.19003901 0.071771465 0.15560511 0.24539044 0.2700912
-0.06036678 0.14072871 0.117894456 -0.17575654 0.028159168 -0.014655311 0.16246656 0.22460572
-0.050026666 -0.031248352 0.2982297 0.0831011 0.16307344 -0.07145115 0.062051803 -0.16551863

encoder.0.bias f4 [16]
00000000: d8ad 903c 8870 1f3d b2d2 5c3e 3764 04be
00000010: 83f7 b6bd ea86 c8bc 0edd 4dbc 2f65 a43d
00000020: cd26 8e3d 01f7 f3bd 35e4 02be 265b d4bd
00000030: eb4a 16be 380f 0bbe dbbf 053e 7957 54be
0.01766102 0.038925678 0.21564749 -0.12928854 -0.08933928 -0.024478395 -0.012564911 0.08027112
0.069409944 -0.11912347 -0.12782367 -0.10368948 -0.14677016 -0.13580024 0.13061468 -0.20736493

encoder.1.weight f4 [16]
00000000: 063b 803f d3d3 873f e95f 6a3f f19d 893f
00000010: a778 863f 36c4 5b3f 4372 673f 5d54 863f
00000020: 53c7 8b3f 2873 853f 1079 883f d444 893f
00000030: 98da 893f b9ee 723f 594a 803f b69f 643f
1.0018013 1.0611519 0.915526 1.0751325 1.050557 0.8584627 0.90408725 1.0494496
1.0920204 1.0425768 1.0661945 1.072413 1.0769835 0.9489551 1.0022689 0.893062

encoder.1.bias f4 [16]
00000000: ebac fd3d a0ba e8b9 7af3 dc3d 32ac aa3b
00000010: 5ff4 0bb8 3c72 b23d 7575 343b f3c1 2c3a
00000020: 2f06 51ba f71f 853b 3126 8d3a 7403 853b
00000030: e134 c03b 6872 173e b446 013e 6360 cb3a
0.12386497 -0.00044389535 0.10788627 0.0052085156 -3.336777e-05 0.08713195 0.002753583 0.000659018
-0.0007973639 0.0040626484 0.0010768828 0.0040592495 0.0058656787 0.14789736 0.12624627 0.0015516396

encoder.1.running_mean f4 [16]
00000000: 6a71 933c 729a 1e3d 4907 5d3e 273a 05be
00000010: 8551 b7bd 5585 c7bc a8f1 6bbc b33d a53d
00000020: 2546 8e3d 6b68 f3bd bde0 02be bc4f d5bd
00000030: c107 16be 7de6 0abe 2031 053e b8b7 54be
0.017998416 0.03872151 0.2158481 -0.13010465 -0.089510955 -0.02435557 -0.014400877 0.08068409
0.06946973 -0.118851505 -0.12781043 -0.10415599 -0.14651395 -0.13564487 0.13007021 -0.20773208

encoder.1.running_var f4 [16]
00000000: 8828 bc3f 8409 533f f59b 2f3f c770 f53e
00000010: c4af 0d3f 7e93 073f 3419 7b3e 2c6b f63e
00000020: 94ed 213f c551 d53e c52e 983f 21aa 2f3f
00000030: 27f3 803f b1c5 b33f 9465 2d3f 418c ce3e
1.4699869 0.82436395 0.68597347 0.47937605 0.5534632 0.5295943 0.24521333 0.4812864
0.6325314 0.41663948 1.1889273 0.6861897 1.0074204 1.4044706 0.6773312 0.4034138

encoder.5.weight f4 [32, 16, 3, 3]
00000000: 4bfd c03c 13e3 333b b41e 8c3a ee83 f1bc
00000010: 9a9e e43b 9d17 06bb d348 d9bc 94a4 8ebd
00000020: 4111 12be a1f7 123c f1f4 80bd 1c49 a6bc
00000030: 2f94 75bd 47b5 14bd 96ec c4bd 5a5f bcbd
00000040: 6c8b 2bbe 65a4 74be 39b5 99bb c550 133c
00000050: db49 823c 65c4 13bc 178a e63b 72b3 6dbd
00000060: b8cb 3cbd 693a c2bd e87f 77bd 511a 1c3d
00000070: 2f0c ccbc e616 5cbd 46e7 d8bd d65f a8bd
00000080: 7577 01be 6314 08be 03c0 47be 6e15 69be
00000090: 6968 8f3d 4e0c 943d 6765 963c 572c 4abd
000000a0: 336f 80bc 6d08 8abd 50ce f4bd 0a4c 02be
000000b0: cf0d 63be 0a90 523c 481d 92bc d9de b03c
000000c0: 4bac 1cbc 1530 713b 74da 19bd 570c 3ebd
000000d0: 9192 97bd a870 babd bf18 09bd 3eeb 9bbd
000000e0: f759 a7bc afde d5bd bb6b adbd cc0c febd
000000f0: 7fda 06be ed75 11be 0a10 48be fb57 273c
00000100: 4404 c73a 2572 61bb 5844 a4bc 6253 20bd
00000110: 5b93 afbd 0284 d0bd 37b7 b2bd 8e4b 1fbe
00000120: 724b d9bc 93d4 f0bb b4e4 f43b aba5 e73b
00000130: 8137 1f3b d834 bebd e5b9 e3bd 73d8 e6bd
00000140: e004 0cbe 9d22 e9ba a0c7 463c 9a1a 8dbd
00000150: b224 c3bd 5fe3 b1bd 74bf 15be 70dd 69bd
00000160: 34fc 1fbe 8297 2cbe a433 d03c 1d8a 9f3c
00000170: 4413 5cbd 3994 74bd 785e 97bc e2db b3bd
00000180: 2d30 f4bd 07fa d6bd d878 4fbe ab30 c43a
00000190: 4695 963d 0563 e23c 5612 1d3d 5ce1 8cbb
000001a0: 4597 94bd 583f 0dbd 1559 82bd 7a4d f8bd
000001b0: 4c37 ad3b 23bd 96bb 1feb 4abd 3708 32bd
000001c0: c639 13bd 2a58 e1bd 817f abbd 39fb 05be
000001d0: 9870 70be dedf 62bb b561 bd3c 5645 babc
000001e0: 2bc1 5f3c fefe b5bc 0305 b2bc 94fb 8cbd
000001f0: 1fef 46bd ce24 cabd 8304 873a a046 d33a
00000200: 290b 9abb 22eb 6c39 3cff 5bbc 1aff 05bd
00000210: 5608 60bd f54e 38bd a44e c6bd d268 e9bb
00000220: 59f8 d2bc 407b 9fbb 4a4e 64bd 9ecb 38bd
00000230: 45be bfbd 8a3a d9bd 8338 f9bd 817b 32be
00000240: fcb4 1ebe 5ea0 d9bc 1b89 b03d 2fef 43be
00000250: 514f 41bd ffdc a5bd c67b 87bd 8e00 203d
00000260: 56ff e5bd ff90 1f3c 1365 b7bc e8f9 07bd
00000270: 3682 46bd b6ba 81bd 7026 58bc 646a 8939
00000280: f21d c63d 1a45 483e 4528 23be 9677 25bd
00000290: b2b9 3bbd 3e65 11be 3722 7c3d e829 713d
000002a0: 4152 8abd 33c8 c6bd 84b0 4bbd e678 aebd
000002b0: 7e33 6abc 5c0a ed3b 20f1 6a3d 1933 a7bb
000002c0: 31e2 dabc eb94 4dbd cb18 683d dd9f 413e
000002d0: f736 30bd 6d09 3bbd c945 5cbd b515 143b
000002e0: 576a cf3c e19d e73d 5c5f 0cbd 3793 df3c
000002f0: 9a7a 203e 2068 aebd e744 ae3c c870 903d
00000300: 30a3 b7bd 7e2e 413d 1a5f bcbd 4388 77bd
00000310: ae91 aebb b13a 0fbe 78e2 d3bd db7b 313d
00000320: 5c7d 913c 1cfa 733c bdfe afbb 1073 95bc
00000330: 3f9a 2d3d 9167 0f3d 59dc 893d 25bc 103d
00000340: d07c c8ba fb17 9fbd 5b8d 8cbd e987 163d
00000350: affa d23d e191 3fbb db4d 12bd 7466 743e
00000360: bcbf 603c 91d3 a0bd ad40 dcbd a7f9 49bc
00000370: 2da0 6b3d a427 c73c 8137 063b e63a c1bc
00000380: ebe9 323e dce7 f1bc acab fcbc 29aa 97bd
00000390: 52f1 89bd 5320 803b fc59 033e 4c6f 203d
000003a0: e8e3 fc3d 5a5f f83d 9da7 4fbd 90d8 123c
000003b0: 0d95 4ebd 27e7 683d 3535 52bd c32e d33d
000003c0: 942b 82bd f25c 3a3c 231e 3a3e 6c26 503d
000003d0: 7eaf 55bd a2e0 133c 838f 19bd 68ac 1ebd
000003e0: dd11 ce3d 408a 78bd 6d9a a53a 283c 713e
000003f0: 9f6b fb3b 6140 17bd 917d b0bd 56e5 02bd
0.02355828 0.002744858 0.0010690303 -0.029481854 0.0069769146 -0.0020460852 -0.026523983 -0.069649845
-0.14264394 0.008970172 -0.06296719 -0.020298533 -0.059955772 -0.036305692 -0.09615438 -0.09197874
-0.16752404 -0.23890837 -0.004690793 0.008991425 0.015904358 -0.009018992 0.0070355046 -0.05803246
-0.04609272 -0.09483797 -0.060424715 0.038111035 -0.024908153 -0.053732775 -0.10590987 -0.08221404
-0.12643225 -0.13289027 -0.1950684 -0.22762081 0.070023365 0.072289094 0.0183589 -0.049358692
-0.015678024 -0.06739888 -0.119534135 -0.12724319 -0.22173236 0.012851724 -0.017836228 0.021590637
-0.009562562 0.003680234 -0.03756185 -0.046398487 -0.07401002 -0.09103519 -0.033470865 -0.07613228
-0.02042864 -0.10442864 -0.084678136 -0.124047846 -0.13169287 -0.14205141 -0.19537368 0.010213847
0.0015183766 -0.003440031 -0.02005212 -0.03914202 -0.08573028 -0.101814285 -0.08726352 -0.15556166
-0.026525233 -0.0073495596 0.0074735526 0.0070693097 0.0024294558 -0.09287423 -0.11119441 -0.11271753
-0.13673735 -0.0017786805 0.012132555 -0.068898395 -0.095284835 -0.08685946 -0.14623815 -0.057095945
-0.15623552 -0.1685467 0.02541525 0.019475037 -0.05372931 -0.05971167 -0.018477663 -0.08782174
-0.11923251 -0.10496908 -0.20260942 0.0014968117 0.073526904 0.027635107 0.038347565 -0.004299326
-0.07255415 -0.034484237 -0.06364647 -0.121241525 0.005286133 -0.0046001836 -0.049540635 -0.043464866
-0.03594377 -0.11003144 -0.08373929 -0.13084115 -0.23480451 -0.0034618299 0.02311788 -0.02273814
0.013656895 -0.022216316 -0.021730905 -0.06883922 -0.048567887 -0.09870301 0.0010301027 0.001611907
-0.0047010374 0.00022594308 -0.013427552 -0.032713987 -0.05469545 -0.044997174 -0.09682968 -0.0071230913
-0.025753187 -0.0048669875 -0.055738725 -0.04511606 -0.09362463 -0.106068686 -0.12168982 -0.17429926
-0.15498728 -0.026565727 0.08619901 -0.1913421 -0.047194783 -0.08098792 -0.06615405 0.03906303
-0.11230342 0.00973916 -0.022387063 -0.033197314 -0.048464023 -0.063344404 -0.013192758 0.00026209943
0.0967368 0.1955761 -0.1593333 -0.04039725 -0.04583139 -0.14198777 0.061556067 0.058877856
-0.0675397 -0.09706154 -0.049728885 -0.08519153 -0.014294503 0.007233901 0.05735886 -0.005102527
-0.026719185 -0.050190847 0.05666427 0.18908639 -0.04302117 -0.045663286 -0.05377749 0.0022595946
0.025319261 0.1130941 -0.03427063 0.027291877 0.15671769 -0.08515954 0.02127309 0.07052761
-0.089666724 0.04716348 -0.09197827 -0.060432684 -0.005327425 -0.13987233 -0.1034593 0.04333101
0.017759971 0.014891174 -0.0053709433 -0.018243343 0.04238343 0.035010878 0.06731481 0.03533568
-0.0015295986 -0.07768246 -0.06862899 0.036750708 0.1030172 -0.0029231238 -0.03571878 0.23867208
0.013717588 -0.07852853 -0.107545234 -0.012327588 0.057525802 0.024310894 0.002047986 -0.023587655
0.17472045 -0.029529504 -0.030843578 -0.07405502 -0.06735481 0.0039101033 0.12827295 0.03916864
0.12348157 0.12127562 -0.050696958 0.008962765 -0.050435115 0.05686107 -0.051320273 0.103116535
-0.06355968 0.011374699 0.18175559 0.050817892 -0.052169316 0.009025725 -0.03749038 -0.03873864
0.10062001 -0.06067872 0.0012634523 0.23558104 0.0076727415 -0.03692663 -0.086177 -0.031956993

encoder.5.bias f4 [32]
00000000: 93e4 a13d 697c 5bbd 2bef a2bc e240 243b
00000010: cc68 173d f676 73bd 701b 8fbd 0196 25bc
00000020: 1d0c 023d af52 093d 3206 67bd 1149 3f3d
00000030: ca85 973c 0243 9dbc cea2 9c3d b781 113d
00000040: 597b 123c 91fa 3abd a2b9 123d 1ee9 47bc
00000050: 4488 12bb 8f82 93bd 3340 47bd 1b4c 363d
00000060: 68dc 28bd 5bbf 043d 1d3f 59bd 5aad aebd
00000070: dadd 763d 0832 80bd 306d 2b3c 6be0 febc
0.07904925 -0.053585444 -0.019889435 0.0025063087 0.036965176 -0.059439622 -0.06987655 -0.0101065645
0.031749833 0.03352612 -0.056402393 0.04670054 0.018496413 -0.01919699 0.0764824 0.035524096
0.008940541 -0.045649115 0.035821564 -0.012201576 -0.0022359053 -0.072026365 -0.04864521 0.044506174
-0.04122582 0.032409053 -0.053038705 -0.08529158 0.060270168 -0.06259543 0.010463044 -0.03111287

encoder.6.weight f4 [32]
00000000: 59af 6c3f 9acd 7c3f a807 7a3f 31c9 8a3f
00000010: 1a90 703f 8034 463f 5eb8 573f 5b61 4f3f
00000020: c690 6c3f 7451 713f 7385 453f aece 703f
00000030: 6430 473f 5b06 6a3f 3db0 503f 06b1 643f
00000040: 7c1b 6c3f aeb4 3b3f f2fb 703f 0bec 6e3f
00000050: 89cc 623f 5924 583f 89a8 453f acf4 513f
00000060: b277 7f3f bef2 7e3f 6de7 593f 6b3f 5d3f
00000070: 137b 613f 4742 463f 5a92 6d3f ed4e 713f
0.9245506 0.98751223 0.9766793 1.0842649 0.9396988 0.7742386 0.84265697 0.8100793
0.92408407 0.9426491 0.7715675 0.9406537 0.77808213 0.9141595 0.8151892 0.89332616
0.9222944 0.7332257 0.9413444 0.93328923 0.88593346 0.8443046 0.7721029 0.82013965
0.99792016 0.99589145 0.8511875 0.86424893 0.8807842 0.7744488 0.9280144 0.94261056

encoder.6.bias f4 [32]
00000000: f95e febe f33f 193e 7c43 953d b4a9 5e3c
00000010: c3b0 a13d da5c 0bbe 79ae 883d 85de eebe
00000020: 7a37 283e 8127 cc3d d796 1ebf c4e9 91be
00000030: 4014 05bf f465 fcbe d2d0 6d3d e4f4 e23c
00000040: 06ec 703d 15d3 36be 107a c33d 1afe bcbe
00000050: c292 be3d 6e26 e4be a070 0cbf c074 0dbf
00000060: da4b e03d f542 dc3d 9d8d debe 2bb3 cabe
00000070: 586c 053e 179c 3bbe 6e4c a0be 06bf b2be
-0.49681833 0.14965801 0.07288262 0.013590265 0.07895043 -0.13609639 0.06673903 -0.46654144
0.16427413 0.09968472 -0.61948913 -0.28498662 -0.51984024 -0.49296534 0.058060475 0.027704664
0.05881884 -0.17853959 0.09544766 -0.36912614 0.093053356 -0.4456057 -0.5485935 -0.5525627
0.109519675 0.107549585 -0.43467417 -0.3958982 0.13029611 -0.18321262 -0.3130831 -0.34911364

encoder.6.running_mean f4 [32]
00000000: f95d 25c0 a968 0ebe 1838 053d 4dd8 8dbf
00000010: dfc1 8cbd 9fde 0240 24e3 7e3e bfd0 1cc0
00000020: a5f7 493e e386 59be 4f0e 24c0 bd01 b6bf
00000030: 3ef7 26c0 4768 e0bf 32a6 023f 0144 74bd
00000040: e555 91be 03a4 0240 2bec f23d 39c9 ccbf
00000050: efc8 883b 90a4 26c0 6906 4fc0 ea82 c8bf
00000060: 274a 08be 5420 01bf 4308 1ec0 9b17 06c0
00000070: e33c e63d 7afc 903f 31c7 b5bf cf28 d3bf
-2.5838606 -0.13907112 0.0325242 -1.1081635 -0.068729155 2.0448377 0.24891335 -2.4502409
0.19723375 -0.21242861 -2.5633733 -1.421928 -2.6088405 -1.7531823 0.51034844 -0.059635166
-0.28385845 2.0412605 0.11861452 -1.5998908 0.004174344 -2.603794 -3.2347662 -1.5664952
-0.13309537 -0.50439954 -2.4692543 -2.0951908 0.11242082 1.132705 -1.4201413 -1.6496829

encoder.6.running_var f4 [32]
00000000: b3db bc40 3d33 3540 a0e1 0d40 3d6c 9241
00000010: 7bf0 5a40 dfd2 9f40 3bda cd40 a397 1f41
00000020: edd3 a43f 491d 9240 a2d4 b840 829d 2241
00000030: 4802 1841 a27c 7340 2412 be40 7a80 5140
00000040: 9971 6840 6fe4 9740 13b4 7940 3346 fa40
00000050: 3a34 0240 076b 0a41 9187 2a41 428e 3440
00000060: 153b 7e40 8d2f dd40 7b06 2841 f960 0641
00000070: bc19 d13f 53dc 9a40 b096 df40 ee1b 3041
5.9018188 2.8312523 2.216896 18.30285 3.4209278 4.994491 6.4328895 9.974521
1.2877175 4.566075 5.775956 10.163454 9.500557 3.804482 5.9397144 3.2734666
3.6319335 4.746635 3.9016159 7.8210692 2.0344377 8.65113 10.658097 2.8211827
3.972356 6.9120545 10.501582 8.398675 1.6335979 4.839395 6.9871445 11.006819

encoder.10.weight f4 [64, 32, 3, 3]
00000000: 1564 f23d fc61 133d 88c7 2cbd 81d8 0c3d
00000010: 2309 63bd d937 c7bc 2514 aa3c f8c4 ac3c
00000020: a5ba bebc 35aa a2bd 6135 2fbd 8732 d3bc
00000030: d1cf eabc f21c 84bd a9f5 14bc 99c5 ff3c
00000040: 0e8a db3d c12c 6f3e e07e 993d 0eb6 7d3c
00000050: 1fa4 0d3d 955a b0ba d499 923c 180e ce3d
00000060: f7cb a9bb ee56 463d 8e20 b93d 6c57 abbd
00000070: 0107 8fbd ab64 8fbd bc06 56bd 7ade e9bc
00000080: 4fc6 593c 90c3 c7bc 4b3b 073d 337f cc3d
00000090: 6285 5cbc 7f10 4c3b 693b 653d 21b7 383c
000000a0: ac68 7a3d d01c 49bc f608 b2ba bd42 1b3d
000000b0: 2afd 363e 3f86 c7bd 9867 793c 9661 5e3c
000000c0: 5a64 913b 027e 35bd c6d1 21bd f857 10bc
000000d0: da78 18bd f92f ebbc 4ee7 1abd 98d7 ff3c
000000e0: 08a8 7d3d f17f 133d c0f3 55bd a835 75bc
000000f0: 81d6 153c 226d dbbc 93a3 213d e591 ee3c
00000100: d5ef 62bc c053 603d 5ccb 6c3d 3938 0cbe
00000110: 5806 8ebd 0ee3 77bd 64b2 1cbe e99f 02be
00000120: 495a cdbd 5313 d3bd a6c4 5ebd 7a47 b9bd
00000130: b958 15be bbbd d4bd cf54 99bd 9eec a2bc
00000140: aecb 533d a70d d8bc 344e cd3c 2ac5 853d
00000150: e703 e13b f5fc 36bd 4191 9a3d c6ab f83c
00000160: 9de5 cf3d 94a6 463e 469f 0bbc be4e 263d
00000170: f605 ca3c 7654 0abd 7978 4cbd c931 c5bd
00000180: 3823 d0bd ac9a 80bd 8abf 90bd 8935 9ebb
00000190: a834 0f3a b486 88bd 7fd9 4fbc d8a8 78be
000001a0: 84e9 39bb 73b4 62bd 14b2 59be 7bda c0bd
000001b0: 34f2 7b3c 24dd b3bc 8f87 073b 0071 09bd
000001c0: 2483 1bbe 2f19 5e3c b3e8 14bd c466 e7bd
000001d0: 9819 3ebd 6a09 cc3d 95f8 d53b d756 8bbc
000001e0: 3f98 563d b3f2 1dbd 2adb 5e3d 7f3f c6bb
000001f0: 5bd7 533d aab6 173c 4f80 88ba 5a84 473d
00000200: 7fa1 383d e301 d1bc 3923 af3b 57a2 443b
00000210: ff9f 8c3c c895 c5bb 428e 453d a8b5 bc3c
00000220: 9f01 8bbc d008 c53c 8bb1 74bd fa4c 2f3d
00000230: f16f 67ba dd54 45bc fba9 05bd 2e31 743d
00000240: bb60 58bc 8ec5 a13d f9cc 9b3d b993 dd3c
00000250: 4975 d53b cae7 d53d 937c 863d 4499 253d
00000260: d30d 543e beba 8c3c 06ee 113d d18e 8a3c
00000270: e447 fabc b50c b33c 7a9f 4abc 3c03 153d
00000280: 9511 b53c e4f3 9f3c e31d b9bd 5440 a8bd
00000290: e7b7 f0bb 1eb5 a9bc 0182 85bb 6f61 2cbd
000002a0: 2188 6abc 9a4a 00bd 7b2e 5e3d 0268 0f3e
000002b0: 2183 873d 7cfb 1b3e bd2e 2dbd 0b87 04bd
000002c0: ac16 163c 8c01 3fbd 839a 1ebd 3a78 5dbd
000002d0: 02df a3bc ab46 b7bc 7250 433d 7281 963c
000002e0: 3026 42bd 9a5c 4dbb 3c75 843d dfe2 703c
000002f0: cc58 183e 4f15 b83c d3fc 24bd 3bed 5c3d
00000300: 7a03 f83c 3f4a 7fbd 0d45 e6bc 7917 36bc
00000310: 1f3a 25be 4459 40bd dcbf a83d 044e 2ebd
00000320: a148 ba3c d052 33bd 6fa0 1fbe 7e99 a6bd
00000330: 8918 263b 9344 4bbe 2c9d 8ebd 6416 833b
00000340: bfb3 733d 2c72 92bc 4d9c 67bd 2088 70bc
00000350: 7f60 81bc 42c2 d53c 98bb 80bd 85f4 f9bd
00000360: c2a4 43bd cfa6 34bd a0f8 253d 46a4 1bbd
00000370: b7d9 01bd f4c3 8fbd 5fb8 3ebd 3f36 87bc
00000380: 7964 a53d 72df cbbd fc8a 29bd 84ac 0d3d
00000390: 0ba0 0dbd 525e 6abd 1dc3 9d3c 7d81 4f3d
000003a0: e11a 383d 9aa1 c63d 3c75 573d 5642 c53d
000003b0: fdbd ab3d 14d1 02bd 21c8 a0bd b61f 063d
000003c0: fb4c 46bd 1acc 32be cf1b f1bd 8a6a 033e
000003d0: 54c0 9a3d 3a27 f43d 0630 443d ee14 87bd
000003e0: a3a0 3abd 863a ecbc 0c78 11be fcf5 8dbd
000003f0: 2abb d5bb 6124 b5bd 095b 213d ed54 44bd
0.118354954 0.035982117 -0.042182475 0.03438616 -0.055428635 -0.024318622 0.020761559 0.021090016
-0.023282358 -0.07942621 -0.042775515 -0.02578093 -0.028663548 -0.064508334 -0.009091773 0.031222152
0.10719691 0.23356916 0.074949026 0.0154853 0.034580346 -0.001345473 0.017895617 0.10061282
-0.005181785 0.048422746 0.090394124 -0.08366284 -0.06983758 -0.07001623 -0.052252516 -0.028548468
0.013291909 -0.024385244 0.03301553 0.09985199 -0.013459535 0.0031137762 0.05596486 0.01127413
0.06113498 -0.012274936 -0.0013582993 0.037905443 0.17870012 -0.09742402 0.015222453 0.013573071
0.0044370117 -0.044309624 -0.039506696 -0.008810036 -0.037224628 -0.028709399 -0.037818246 0.031230733
0.061927825 0.036010686 -0.05223441 -0.014966406 0.00914538 -0.026785437 0.039462637 0.029122302
-0.013851126 0.05476737 0.057811126 -0.13693322 -0.06934804 -0.06051927 -0.15302426 -0.12756313
-0.10026986 -0.1030642 -0.054386757 -0.09046836 -0.14584626 -0.10387751 -0.07486879 -0.019888218
0.051707916 -0.026373697 0.025061704 0.06531747 0.0068669203 -0.044674832 0.07547236 0.030355345
0.10151217 0.19399482 -0.00852186 0.04060244 0.024661046 -0.033771954 -0.04991958 -0.096286364
-0.101629674 -0.06279501 -0.07067783 -0.004828159 0.00054628635 -0.066663176 -0.012686132 -0.24283159
-0.0028367946 -0.05534787 -0.21259338 -0.09416672 0.01537757 -0.021956034 0.0020680164 -0.03355503
-0.15186745 0.013555809 -0.03635473 -0.11298898 -0.046411127 0.09962733 0.0065298774 -0.017009182
0.052391287 -0.038561534 0.05440823 -0.00605005 0.05171905 0.009259859 -0.0010414216 0.048710205
0.04507589 -0.025513595 0.005344775 0.0030003989 0.017166136 -0.006029818 0.04823137 0.02303584
-0.016968546 0.024052054 -0.05973963 0.04279802 -0.0008828631 -0.012044159 -0.03263281 0.059617214
-0.013206656 0.07899009 0.07607455 0.027047979 0.0065142256 0.10444601 0.065667294 0.04042937
0.20708399 0.01717889 0.035627387 0.016913803 -0.030551858 0.021856645 -0.012367124 0.036380038
0.02210311 0.019525476 -0.090389036 -0.082153946 -0.0073461416 -0.020716246 -0.0040743356 -0.042085107
-0.014314682 -0.031321146 0.054243546 0.1400452 0.06616808 0.15232652 -0.0422809 -0.03235535
0.009160679 -0.046632335 -0.038721573 -0.054069735 -0.0200038 -0.022372564 0.04768414 0.018372271
-0.0473997 -0.0031335712 0.06467673 0.014702528 0.14877623 0.022471098 -0.040280174 0.053937178
0.030275095 -0.062326666 -0.028109098 -0.011113995 -0.16135453 -0.04696013 0.08239719 -0.04255487
0.02273971 -0.043780148 -0.15588544 -0.08134745 0.0025344214 -0.19850378 -0.06963572 0.004000472
0.05949759 -0.017876707 -0.056545544 -0.014680892 -0.015793083 0.026093606 -0.06285781 -0.122048415
-0.047764547 -0.044104394 0.04052031 -0.03799846 -0.03170177 -0.07019797 -0.04656255 -0.016505359
0.08075804 -0.09954728 -0.04139231 0.03458835 -0.034576457 -0.057218857 0.019258076 0.0506606
0.04494751 0.09698792 0.052602038 0.09631793 0.08385847 -0.031937674 -0.078506716 0.032745086
-0.048413258 -0.17460671 -0.11772882 0.1283361 0.07556215 0.119215444 0.04789736 -0.06595789
-0.04556335 -0.0288365 -0.1420595 -0.069316834 -0.006522556 -0.08844829 0.03939346 -0.047932554

encoder.10.bias f4 [64]
00000000: 92e7 6bbc fd62 683b 9c09 a7bc a154 263d
00000010: 6e83 153d ada0 043d 1a6a f6bc e0d3 f63c
00000020: 4d3e 763c adf6 64bc 1f21 de3b 331e 5ebd
00000030: 860f 61bc 5df7 013c 8930 ed3c 36b7 df3c
00000040: 7495 a6bb 5f54 393c 644c 1a3d e017 f1bc
00000050: 3beb 063d e2c4 2abd 989c 10bd bf83 5c3c
00000060: 9aed 0cbd dff4 c83c b81e a43c fc3b 4abd
00000070: cf6a e5bc ea67 f73c 1c81 203d 4783 6d3d
00000080: c96a 283b 3450 113d 63f1 623d 3a14 35bd
00000090: cfdb 4e3b f210 91bc 1032 29bd b57e ebbb
000000a0: b9b3 0cbd aa7e 9f3c 755a 09bc 302b 5a3c
000000b0: b339 24bc e86d c9ba e079 773d bc44 263d
000000c0: e456 febc 58d1 113c 82ec 79bc b590 143d
000000d0: cd2e 443d 4e8b e8bc bd9c 13bc ccdb e5bc
000000e0: 7fa3 a03b 52a1 43bd af6a 20bd b897 f13b
000000f0: ab6a 14bc 24ff 473c 1b39 773d 144f 93bc
-0.014398472 0.0035459392 -0.020390324 0.040608052 0.036502294 0.032379795 -0.03007989 0.030130327
0.015029502 -0.013974828 0.0067788507 -0.05422802 -0.013736611 0.007932511 0.028953807 0.027309041
-0.005083734 0.01131162 0.037670508 -0.02943033 0.032939177 -0.04169167 -0.03530559 0.013459145
-0.034406282 0.024530826 0.02003418 -0.04937361 -0.028005032 0.030200917 0.03918563 0.057986524
0.0025698415 0.03547688 0.055405986 -0.044208743 0.0031564122 -0.017708275 -0.04130751 -0.0071867355
-0.034351084 0.019469578 -0.008383383 0.013315961 -0.010023522 -0.0015367838 0.060418963 0.040592894
-0.031047292 0.008900009 -0.015254142 0.036270816 0.047896195 -0.028386738 -0.009009537 -0.028058909
0.0049023028 -0.04776127 -0.03916424 0.0073728226 -0.009058635 0.012206826 0.060357194 -0.017982043

encoder.11.weight f4 [64]
00000000: 0fae 873f 9a69 663f e0f9 803f eba2 763f
00000010: 37cd 7a3f c3c7 6e3f 54d8 803f b3f7 753f
00000020: 24fb 543f 97cd 6d3f 6ed3 6e3f 60b6 863f
00000030: e30d 873f f110 7e3f 0fbd 7e3f aabc 7f3f
00000040: cd24 813f 1953 703f 55b7 843f e8cf 803f
00000050: 81cf 833f e86f 6f3f 2500 863f 2f86 803f
00000060: 8ef1 7f3f 959d 7c3f 5705 823f 2473 873f
00000070: 4798 803f ae20 563f 524b 883f 11d0 833f
00000080: ae67 843f 4b1e 7f3f 60ce 843f a064 7f3f
00000090: 1323 633f dfee 783f 28d4 773f 1945 723f
000000a0: 4208 863f 7b47 8f3f 9221 853f cdc4 723f
000000b0: dbf9 803f 139a 683f 91cb 7b3f 496e 7d3f
000000c0: 6b3f 843f 9434 6d3f 9885 823f 7453 763f
000000d0: b027 723f 7200 783f 87a9 813f b401 863f
000000e0: 184c 703f f201 8b3f 0376 7a3f 3a51 853f
000000f0: 0b0c 893f 376d 823f 9929 7e3f 3f4e 6d3f
1.0599993 0.90004885 1.0076256 0.96342343 0.97969383 0.9327356 1.0066018 0.96081084
0.8319571 0.9289183 0.93291366 1.0524406 1.0551113 0.992446 0.9950723 0.99897254
1.0089356 0.93876797 1.0368448 1.0063448 1.02977 0.9353013 1.0468794 1.004095
0.9997796 0.9867795 1.015788 1.0582013 1.0046471 0.83643615 1.0647986 1.0297872
1.034414 0.996556 1.0375481 0.99762917 0.88725394 0.9723949 0.968081 0.94636685
1.047127 1.1193689 1.040087 0.94831544 1.007625 0.908601 0.9835749 0.98996407
1.0331854 0.9265835 1.019702 0.9622109 0.9459181 0.9687568 1.0129861 1.046927
0.9386611 1.0859969 0.9783632 1.0415413 1.07068 1.018958 0.99282223 0.9269752

encoder.11.bias f4 [64]
00000000: d884 a33c 13b8 a13d f0f2 363e d140 fe3d
00000010: 384a 123d 8623 283e af22 68bd d60c 323e
00000020: a319 1e3e 0fb6 c63d 07be 98be 23aa dfbc
00000030: 1a2f 01bc eaa2 ee3c 00e2 78bc 9315 b8be
00000040: 710f 63bc 289c 2a3e be6a 46bd 12dc d83c
00000050: 5268 513d 063e e7be 3d3d 383b 283d 89bd
00000060: 54df 8abe e752 c23d 6fd6 0b3d e626 9bbd
00000070: 3376 623a 905e 1b3d c72c c13c 075c 38bd
00000080: fc48 31bd afbb 09bd 7368 5bbd 672d 053e
00000090: 309b 17bf 3573 fe3d 1e31 b3be 56e3 e1be
000000a0: fef3 93bb 7142 0a3e 4bca 01bd 1805 b0be
000000b0: db45 853c 094a 5a3d 44f6 3e3d 240c 783d
000000c0: 8a0e e9bc 1517 dd3d 1408 21bc b44a 9abe
000000d0: dc29 b7be 37f4 f3bb 54c0 86b9 e67b 06bd
000000e0: 82b9 8fbe 0e7d 8bbc 207d fc3d 7475 cfbc
000000f0: 12fa e83a a970 0bbd 6add 8cbe b45d ff3d
0.019960806 0.078964375 0.17866111 0.124147065 0.03571531 0.16419801 -0.0566737 0.17387709
0.15439467 0.09702694 -0.2983248 -0.027302807 -0.007884765 0.029130418 -0.015190601 -0.3595396
-0.013858662 0.16661131 -0.04844164 0.026472125 0.05112488 -0.45164508 0.0028112673 -0.06701118
-0.2712351 0.094884686 0.034140047 -0.07575779 0.0008638829 0.03793198 0.023580922 -0.04500964
-0.043282494 -0.033626255 -0.053566407 0.13005601 -0.5922117 0.12424318 -0.3499841 -0.44118756
-0.00451517 0.13501908 -0.031687062 -0.34378886 0.016268661 0.05329326 0.046621576 0.060558453
-0.028449316 0.10795418 -0.009828586 -0.3013512 -0.35774124 -0.007444884 -0.00025701767 -0.032833003
-0.2807122 -0.017027404 0.12328553 -0.02532456 0.0017774722 -0.034042988 -0.27512676 0.12469044

encoder.11.running_mean f4 [64]
00000000: 62a1 3dbe 1571 c63f bbbf e93e c275 913f
00000010: 53a6 b0bd 47d6 8e3e 22e8 41bf 723c 6c3f
00000020: 5fe8 d33f 04f2 1e3f ffb1 c1bf 3323 65be
00000030: e8b6 a4be 52d0 5dbe 0f30 3dbf 292f 3cbf
00000040: e0cf 80be a08e 8b3f 9168 ddbe 8824 2abf
00000050: 4748 00be aacc 9fbf 264b 4abf 4b66 7abf
00000060: a328 afbf fca9 ae3d 6bd2 12be 6403 92bf
00000070: d9e3 67bf c3fe be3f ddf5 e23d da4b 42bf
00000080: e21e 21bf f14e 0bbf f6d4 29bf 16c6 f33e
00000090: 19cf 61bf a386 5f3f aec0 cebf 9897 9cbf
000000a0: 83be 29bf 9895 253f 0873 56bf f08b 1abf
000000b0: f08d 9cbe f32d 873f f1b4 3b3e 7f77 8d3f
000000c0: 9370 56bf 657f dfbe a9d8 71bf 6b46 e0bf
000000d0: 21ac 283f 98d2 a53e aa52 dbbe bbf3 4abf
000000e0: 5289 aa3d 0c40 51bf dd72 813f 83df 32bd
000000f0: f811 48bf db48 9cbe e58d 90bf c80d 583f
-0.18518594 1.550326 0.4565409 1.1364062 -0.08625474 0.27897856 -0.7574483 0.9227973
1.6555289 0.62088037 -1.5132445 -0.22376709 -0.32170796 -0.21661499 -0.73901457 -0.7350946
-0.25158596 1.0902901 -0.4324384 -0.6646199 -0.12527572 -1.2484334 -0.7902092 -0.97812337
-1.3684276 0.08528516 -0.1433808 -1.1407285 -0.9058204 1.4921497 0.11082051 -0.7589699
-0.6293775 -0.5441733 -0.6634058 0.47612065 -0.8820663 0.87314814 -1.6152551 -1.2233763
-0.6630632 0.64681387 -0.83769274 -0.6036978 -0.3057704 1.0560898 0.18330742 1.1052092
-0.83765525 -0.43651882 -0.9447122 -1.752149 0.6588765 0.32387233 -0.42836505 -0.79278153
0.08326973 -0.8173835 1.0113178 -0.04367019 -0.7815242 -0.30524334 -1.1293303 0.8439603

encoder.11.running_var f4 [64]
00000000: 2d27 6a40 9ed6 2f41 3a1e 1841 beb0 1f41
00000010: 5e3e af40 58e7 8840 59c7 8040 edab 9740
00000020: a86d 1441 0867 0a41 0004 0341 7a20 4b40
00000030: b219 5840 bf45 9640 1d09 be40 417a 743f
00000040: aa28 9740 329a d140 61a8 b440 a3f8 2741
00000050: f1b5 2940 5381 0640 dd4e ac40 9a7e 4040
00000060: d7ec 9f40 9d37 d640 e130 8340 386b a340
00000070: c1af b240 40ae 2641 04ba 5940 2844 d340
00000080: f36d 9240 3d1d bd40 e67c c240 84df 0941
00000090: 3b3f 9d3f b2d2 0841 93db 9b40 8df6 5640
000000a0: caed ad40 5a61 df40 f25d 8440 d1be b73f
000000b0: b159 8140 3dd7 9e40 dc46 8340 e708 ed40
000000c0: 143e d140 957e a840 1318 3841 5fc3 1541
000000d0: 0d9e 793f 5720 a640 1983 8640 dea8 c340
000000e0: 34f3 243f 8c67 a840 ac4c e040 8cec b440
000000f0: cb24 0f41 ef5f 7840 a15d 9e40 e5e7 aa40
3.658641 10.989897 9.50738 9.98065 5.476363 4.27824 4.0243344 4.739737
9.276772 8.650154 8.188477 3.1738572 3.3765683 4.696014 5.9386125 0.95499045
4.723714 6.5500727 5.645554 10.498202 2.6517298 2.1016433 5.384627 3.0077271
4.997661 6.6942887 4.0997167 5.106838 5.5839543 10.4175415 3.4019785 6.60207
4.5759215 5.909819 6.0777464 8.617069 1.2284921 8.551439 4.8705535 3.3587983
5.435277 6.9806337 4.136468 1.4355108 4.0421987 4.963774 4.1024 7.4073367
6.538828 5.265452 11.5058775 9.360198 0.9750679 5.1914477 4.203503 6.1143637
0.644336 5.26264 7.0093594 5.6538754 8.946483 3.8808553 4.9489293 5.3408074

decoder.0.weight f4 [64, 32, 2, 2]
00000000: 9eff 3cbd 4671 ea3d 52ba 77bd c805 4f3c
00000010: 2bee c0bd 7883 18bb 4ee7 633d ba43 4e3c
00000020: 08b6 5cbd 928f 973d 08c0 303d 48bb 553d
00000030: 1a2c b8bb 88e3 b53d d3d8 ebbd d2bd 2abd
00000040: f798 b7bd 3a76 ccbb e6d4 253c 8161 153d
00000050: 5564 763d a794 363d aab7 263d c067 823d
00000060: 4075 09be 1932 bcbc e3ae 37be c299 c4bc
00000070: a81f 0d3d 05fc abbc fee2 5b3c e0df 0bbd
00000080: 4a84 97bd 448f 1c3d a265 093d 959c 873d
00000090: 89a4 383d dd75 11bd 7e43 c0bd dfda 75bd
000000a0: d7f8 083d 1773 e5bd b710 25bd 62ec 0f3d
000000b0: f440 0bbc 1bd1 f3bd ce83 673d 9fcb d83c
000000c0: 458f 663d 7a12 b0bd 8a1d 46bd c86d c3bd
000000d0: 97d9 a6bd ca1d 67bd b069 06be eb36 2ebd
000000e0: 74f1 06bd 6240 f83c e54e 1d3d e7db d03b
000000f0: d5b7 063c c485 0ebd 66a1 043d d014 a83c
00000100: 7c71 0a3e 1410 bdbd 9575 943b b684 d5bd
00000110: b010 9dbc 3b0a 453d ac54 17bd 37f2 e1bd
00000120: 2f38 b9bb b56f a4bd dba6 13be 57ea 9e3d
00000130: 4c0f 693d e7ad d13c 9ac2 523c 52e1 873c
00000140: c077 653c ea5f ddbc 3d46 d13c 5bbb 18be
00000150: 969a 9ebc 6a54 80bc 393f ebbc 3d8b 123c
00000160: 9537 12be 8efb 19be be1d e3bd d197 893d
00000170: b519 e03d 10af 063d 224b 1fbe 6ce7 223c
00000180: ff90 ccbd d4ff b0bd d3da 083d 20ae 7b3c
00000190: 17a1 833c dae2 b5bc 6bd3 d6bc 6f1e 51be
000001a0: 0d89 6a3c 2694 20be 2ff8 52bd 1084 533c
000001b0: f78a e5bd 593e 0ebe 1124 913b ebcc 0fbe
000001c0: 6ec0 8fbc e1fb 63bd b847 41bd 3aea 94bc
000001d0: b906 ddbd 7a29 503d 7518 c0bd 1b0d 25be
000001e0: 591e c83c cc1a adbd 0af6 fbbd 44fb 83bd
000001f0: 5865 c8bc e61c 4ebd 22bd 3abc efed 47bc
00000200: 044e 49bd 58f7 9fba 665c 6bbd fab9 cbbc
00000210: 3982 7cbc f3db 203c 6bd5 7c3d 7247 b83d
00000220: 9656 6ebc f608 83bd b693 ac3d bcbf 2e3c
00000230: 3ab0 8d3d b5b4 353d e4fd 1abe cafb 373d
00000240: 88e9 60bd 9312 02bc 9697 f5bd 07f6 41bc
00000250: 259d b1bd bf0a b83c c3b5 6fbd c6ba 19bc
00000260: 9669 07be 2a04 7c3d 6aa2 54be 0761 5c3c
00000270: 0c72 ed3b 73bb 7c3c f0b4 77bd 538b 23bd
00000280: 754a e8bd a149 12bb 31f7 16bc 2ad4 a03c
00000290: c553 82bc d7f2 87bc 1907 6bbd 8f68 00be
000002a0: 97df c0bc 3e65 a6bd da04 60bd 0025 48bd
000002b0: dd84 f1bb a8d3 d03c 9a5a 443d 19fb 853c
000002c0: 8322 523d f268 d0bd 83e2 bbbd d941 cbbd
000002d0: afe3 2c3d 1d29 6c3d 4142 c2bd 0f3b 583d
000002e0: 2327 b43c 93b3 173d 32d3 023b 73c2 b3bc
000002f0: ad78 d23c a55d 88bd fee7 b5bb b052 763d
00000300: 52e2 c2bc 8154 e1bd 2e0e 50bd bb0b 95bd
00000310: 28af 493b 1f1b 83bd a957 41be 9f42 453d
00000320: 4891 ecbc acc5 533c dc77 e2bd 3d15 c33c
00000330: 5d62 6b3d ed91 9b3d 049f dbba 7cc0 77bd
00000340: cf27 b63d 4479 ae3b 8a33 a83d 49c2 8abd
00000350: 1c70 793b bb41 3cbc 47f4 52bc b19c e3bc
00000360: 7341 87bd f00b 21be 473b ecbd 097d 08bd
00000370: 579d e13c 27a1 8d3d b28d a2bd 77ff f73c
00000380: 5251 ccbd 9780 ddbd 5908 413d df3c f93c
00000390: a8ae 7b3d b1a8 5bbd 4cf5 37bd ed8b 3fbe
000003a0: 6a74 7c3c 9bd0 8ebd c5cf b2bd e7da b03d
000003b0: 98ee 11bc 040d 62bd 1032 babc 1345 95bb
000003c0: 8b33 b63d ae56 563d 9af1 cabc 237c d83d
000003d0: c6ca bdbd 0f00 e0bc 5c63 153c 42c5 c7bd
000003e0: 02fa c83c 6979 a8bc 5cd5 99bd 4a3a 5abd
000003f0: 14c1 abbd a575 0abd 2cef 483c 67f6 05bc
-0.046142213 0.114473864 -0.060480423 0.012635656 -0.09420427 -0.002327172 0.05564051 0.012589389
-0.053884536 0.07400431 0.043151885 0.05218056 -0.0056204917 0.08881289 -0.11515965 -0.041684933
-0.089647226 -0.0062396796 0.01012156 0.03646994 0.060154278 0.04457536 0.0407025 0.06367445
-0.13423634 -0.022973107 -0.17937808 -0.023999099 0.034454018 -0.020994196 0.013420818 -0.03414905
-0.07398279 0.038222566 0.03354419 0.066216625 0.045078788 -0.035512794 -0.09387873 -0.060023185
0.033440437 -0.11203592 -0.040299144 0.03513754 -0.008499373 -0.11905118 0.056522183 0.026464282
0.056288976 -0.08597274 -0.048368014 -0.095424235 -0.08146971 -0.056424893 -0.13126254 -0.042532843
-0.03294511 0.030304138 0.038405318 0.0063738707 0.00822254 -0.034795538 0.032380484 0.020517737
0.13519853 -0.09231582 0.0045306184 -0.10425703 -0.019172996 0.04810546 -0.036945984 -0.11032527
-0.0056524496 -0.08029119 -0.14419119 0.077595405 0.056899354 0.025595618 0.012863779 0.016586933
0.014005601 -0.027023274 0.025546188 -0.1491522 -0.019360822 -0.015665252 -0.02871667 0.00894433
-0.14279015 -0.15037367 -0.11089657 0.0671841 0.10942403 0.032881796 -0.15556005 0.009942871
-0.09988593 -0.08642545 0.033411812 0.015361339 0.016068025 -0.022202898 -0.026223859 -0.20421766
0.014314902 -0.15681514 -0.051506218 0.012909904 -0.11208146 -0.13890971 0.0044293483 -0.14043014
-0.017547812 -0.055660132 -0.047187537 -0.018178094 -0.10792298 0.050820805 -0.09379665 -0.1611828
0.024428533 -0.08452377 -0.123027876 -0.064444095 -0.024462387 -0.05032053 -0.011397632 -0.012202724
-0.049146667 -0.0012204451 -0.057461165 -0.024868954 -0.015411907 0.009818065 0.06172697 0.08998002
-0.014547011 -0.063981935 0.08426611 0.01066583 0.06918378 0.04436179 -0.15135914 0.04491786
-0.054910213 -0.007938999 -0.11991803 -0.011838443 -0.08672551 0.022466062 -0.05852295 -0.009382909
-0.13223872 0.06152741 -0.20765081 0.0134508675 0.0072462615 0.015425551 -0.06047529 -0.03992779
-0.113423266 -0.0022321718 -0.009214208 0.019632418 -0.015909085 -0.016595287 -0.057379816 -0.12539886
-0.023544116 -0.08124779 -0.054692127 -0.04886341 -0.007370575 0.02549155 0.047937967 0.016355084
0.051302444 -0.10176267 -0.09174063 -0.09924669 0.042209323 0.057656396 -0.09485293 0.052790698
0.021991318 0.03703649 0.0019962308 -0.021943307 0.025692308 -0.06658486 -0.0055513373 0.06013745
-0.023789559 -0.11002446 -0.050794773 -0.07277628 0.0030774567 -0.06401657 -0.18881096 0.048159238
-0.02887787 0.012925547 -0.110580176 0.023813838 0.057466853 0.075961925 -0.0016755764 -0.0604863
0.08894312 0.0053245146 0.08212955 -0.06775338 0.0038061207 -0.011490281 -0.012875623 -0.027784677
-0.0660428 -0.1572721 -0.11534744 -0.033322368 0.027540846 0.06915503 -0.079371825 0.030273182
-0.09976448 -0.10815542 0.0471271 0.030424533 0.061445862 -0.053627674 -0.044911668 -0.18705721
0.015408615 -0.06973382 -0.08731035 0.08635502 -0.008906983 -0.055188194 -0.02272895 -0.0045553534
0.0889655 0.052328758 -0.024773408 0.10570552 -0.092671916 -0.027343778 0.009117927 -0.09754421
0.024533276 -0.020565705 -0.07511398 -0.053278245 -0.08386436 -0.0338036 0.012264054 -0.008176423

decoder.0.bias f4 [32]
00000000: 5d4d 493d f156 a5bc b8a6 8f3d 6f31 a2bd
00000010: 0dc0 6ebd 9b25 bc3b 1955 99bd d101 f63c
00000020: 88e1 97bd 4006 b83c 30da 4d3d 41a6 9cbd
00000030: a88c 813d 51f3 c9bc 9943 9bbd daea 883d
00000040: a488 6bbd 07f9 0dbd a0cf 3ebd 1910 2a3d
00000050: 6d2d 73bd 57cd 893d e4da baba 79ad 373d
00000060: 331f a23d 806b 8bbc f862 913b f2f8 a1bc
00000070: efde d6bc 1532 59bd 8e1c 8c3c decf 5cbd
0.049146045 -0.020183058 0.07014221 -0.07919585 -0.058288623 0.0057417876 -0.07486934 0.030030163
-0.074160635 0.022463918 0.050256908 -0.07648898 0.06325656 -0.024652155 -0.075812526 0.066854194
-0.057503358 -0.03466132 -0.046584725 0.04151926 -0.059369493 0.067286186 -0.0014255908 0.04484317
0.07916107 -0.017019033 0.004436847 -0.019772027 -0.02622935 -0.053026278 0.01710346 -0.053909175

decoder.1.weight f4 [32]
00000000: 5414 663f d37c 5c3f ed80 7e3f f394 463f
00000010: eedc 6f3f 0053 763f d94e 913f e018 703f
00000020: 3fe6 783f 99af 923f e658 813f ef8a 853f
00000030: 42e9 913f 55f6 6a3f 2122 5d3f 16c9 443f
00000040: 9de4 633f 5f41 653f f906 4d3f bde2 513f
00000050: 9b7e 6a3f 21d2 793f 6557 863f 710b 6e3f
00000060: 8401 9a3f b72b 453f 1aaf 5e3f 62b0 9b3f
00000070: ced2 543f dab9 943f 8330 753f 65da 7f3f
0.8987477 0.86127967 0.99415475 0.7757103 0.93696487 0.962204 1.1352187 0.93787956
0.9722633 1.1459838 1.0105255 1.0433024 1.139931 0.9178212 0.863802 0.7686933
0.8902071 0.89552873 0.80088764 0.819866 0.91599435 0.97586256 1.0495421 0.9298621
1.2031713 0.7701983 0.86985934 1.2163203 0.8313416 1.1619217 0.9577715 0.9994262

decoder.1.bias f4 [32]
00000000: df43 2cbc 2599 3cbd d7fc 39bd c2ab 49bd
00000010: 857e 3dbd 31ef 44bc 1a80 89bd 8e89 adbd
00000020: 4a0c 133d 1afd b5bd 4e04 13be 02d0 053d
00000030: b5b6 08be 0763 573d 1d69 b8bd 7141 8abc
00000040: cbe4 9dbd 0ac1 c2bc c3f4 8abd cefe c8bd
00000050: 8d3f 0ebc efcc 16bd f30e 1abe 1a99 c93a
00000060: e2a2 15bd 597d 6cbd 2eea e0bd 477e a6bd
00000070: bdc1 12be f5f9 e0bd 30ab b6bd bfb4 febc
-0.010514229 -0.046044488 -0.045407142 -0.049236067 -0.046263237 -0.012019918 -0.067138866 -0.08473502
0.03590039 -0.08886166 -0.14357111 0.032669075 -0.13350947 0.052584674 -0.09004424 -0.016876908
-0.077096544 -0.023773689 -0.06784966 -0.09814225 -0.008682144 -0.036816534 -0.15044765 0.0015380711
-0.03653229 -0.05773673 -0.10982166 -0.08129554 -0.14331718 -0.109851755 -0.0891937 -0.031092046

decoder.1.running_mean f4 [32]
00000000: b09c c4be 8bb2 e43e a4ea 203f 528d 6abe
00000010: a0db 64bf 6a0c 913e 1b30 b8bf f1b2 613e
00000020: 4c22 31bd f628 99bf 410f 38bf 0c60 55bd
00000030: ecad adbf bde3 4dbf 9bb6 4a3e 1ab2 2f3f
00000040: 19b6 dcbe b696 3abf bd5c 05bf b5e2 273f
00000050: d367 19be 6bcb 87be a056 acbf 7737 06bd
00000060: 52d1 82bf b8f1 f6be 2680 aabe e366 aebf
00000070: 0d8f b93d 5910 b6bf 0a3a 77bf 0bad 80bf
-0.38400793 0.44667467 0.62858033 -0.22905472 -0.8939762 0.28329784 -1.4389681 0.22040917
-0.0432456 -1.1965625 -0.71898276 -0.05209355 -1.3568702 -0.80425626 0.19796221 0.68631136
-0.4310768 -0.72886217 -0.5209463 0.655803 -0.14981012 -0.26522383 -1.3463936 -0.03276774
-1.022013 -0.48231292 -0.33300894 -1.3625149 0.09060488 -1.4223739 -0.96572936 -1.0052809

decoder.1.running_var f4 [32]
00000000: 4f9d 9940 5a79 1140 4d6a 1940 fcf1 aa40
00000010: a82c b240 3eb3 6e3f ab7e 5041 ce13 e53e
00000020: c837 5740 eda1 0941 faaa 7f40 af22 ee3f
00000030: 647e 3541 6d01 ea40 53af 1f3f d448 d13f
00000040: b78d 8140 e279 9e40 61ab dc40 cfd9 0f40
00000050: c4f8 f140 058e 0540 3bf6 3241 a966 6b40
00000060: 6d59 1541 fa19 2441 c851 a040 5537 f940
00000070: 0904 aa40 e11c 2441 03de a340 df54 a340
4.8004527 2.2730317 2.397113 5.342039 5.567951 0.9324225 13.030925 0.44741672
3.3627796 8.602033 3.9948106 1.8604335 11.343357 7.312674 0.623769 1.635035
4.048549 4.9523783 6.8959203 2.247669 7.561617 2.0867932 11.185115 3.6781409
9.334332 10.256342 5.009983 7.7880044 5.3129926 10.2570505 5.120851 5.1041102

decoder.3.weight f4 [32, 16, 2, 2]
00000000: e1e5 49bd 2c3d f73c 1695 a0bd cfee f93c
00000010: 72ef 13bd 64aa c93c 30af b8bb 6f29 68bb
00000020: 8d6b d7bc 936e 813a 0ab8 0fbc a74f 26bd
00000030: 0a7e 5abd 10ea a4bd 3a6c a83d 8a5f 623d
00000040: baca 933c 4db7 90bd dcbc cabc 8415 02bd
00000050: 92dd f43c da8a d1bd b8af 033d bcc2 14be
00000060: 3f36 63be 1745 e2bc 9123 50bd fc8c 843c
00000070: 7fb2 ba3d b7e1 a53c b4bf cfbd f40a 4fbd
00000080: eab0 ffbc b1ba b53d 77d3 0ebd 21d3 d73d
00000090: 4de6 0d3e 1d93 2f3d 4bc8 1b3e f2f4 0abe
000000a0: c21d 023e 113e e23d 887c f53d 36c2 f9bd
000000b0: 2df3 13be 1924 723d ad9d a3bd e1c6 953d
000000c0: 8115 043d ece5 97bc c48d 003e 243b 9a3d
000000d0: 76c4 a53d 1554 143d 6a3b 843d a563 09be
000000e0: 3150 a5bb b058 153d df37 aebc 0c0f 40bc
000000f0: 3243 d53d d18f 283e 492f 5fbd 376c 013e
00000100: dc42 4cbd 540f 1dbd e389 35be 43ea bc3c
00000110: 8044 01bd f4b0 193c fb3b 0d3d fd85 993d
00000120: c9be 53bd a826 d13d 7e21 5b3d 4bf7 6b3c
00000130: c0c2 99bd 55f7 943d d99e 17bd c523 c1bc
00000140: a721 313c 867e 9c3a 67ba 07bd b3cf c23c
00000150: 4184 3abe 3201 c4bd 3743 0abe 7036 cebd
00000160: bc71 1cbe dd50 11be 010e 17bc fbdb 42be
00000170: 83c2 74bd 1bd6 82bd f117 d0bd e48f 1cbd
00000180: bc5b 07bc 6ae7 e1bd 5b8f b03d e5ec 28be
00000190: 7d64 dd3c fcfb efbc a356 bfbd 4d76 3f3c
000001a0: b21b dabc 74b8 393d e571 febd a798 463b
000001b0: 7f18 e8bb 165e d8bb ce99 a4bd 00b8 d7bd
000001c0: 6787 5fbe 5cc1 8cb7 0b4e a9bd b36f 683d
000001d0: fb8d 87bd 1b6d 9c3b a774 1bbc 5436 f7bc
000001e0: 7262 89bd e75e a2bd 0ae1 8d3b ec0d 2cbe
000001f0: 2362 34be c49f c1bd a0d3 3f3c ebc9 bbbc
00000200: 844c 273c 63f6 55bd cd25 30be 9ff1 35bc
00000210: 2c14 6f3c 1765 91bc 6fa0 6ebc 261c 83bc
00000220: 5126 4f3d 431c 35bd 4eb2 91bc 7d57 a2bc
00000230: 2a3e 0abe 86d9 9a3d 8510 8a3d 4ce2 b93c
00000240: e1e8 a83c 8967 5e3d 28c9 d13c 11c4 a13b
00000250: 282e f7bd 83fb 6dbd af85 1abe 9a60 e13c
00000260: c09e 94bd 635f 5ebe 7da9 d5bd 7ca6 15be
00000270: a867 b4bd 541e 12be 4768 0fbd c35a e13d
00000280: a9e4 ab3d 7bba d2bd 3797 a83d 28ec 0bbe
00000290: f11b 75bd 826f 863d 0644 f4bd cadd ecbd
000002a0: 57cc 28bd 67b6 1cbc 82d1 92bd 034f e8bd
000002b0: b8a8 3d3e a57a 3cbc 1796 a0bd 8853 14bc
000002c0: 7cc2 0dbe af96 e63d 3ce2 a8bd 9486 0dbd
000002d0: e140 2ebe dfa9 bfbd 83cf 34bb bc47 3abc
000002e0: a134 21bd 4d43 3abe 108e f2bb c6af 3abe
000002f0: 09ee e1bd e2e3 a0bc cdb2 6fbd 4dff e9bd
00000300: 0b8f a73c ba66 a13d 7fa5 f63c a7c5 ca3c
00000310: 406a 5b3d 60d7 62bd bfa9 9cbb 90c5 66bd
00000320: fb4c 81bd 76d5 f73b ee12 b6bc 2168 62bb
00000330: 9132 0f3c f4b3 1abd 83ae 14bd fb36 d0bc
00000340: ad78 b0bd a8f4 2cbd 84fb 053d 0c7c 12bd
00000350: 2389 173e 994c 943d e348 943d 781e 28bd
00000360: 8973 9cbd 632b 533a decf a13b 56dc 48bd
00000370: d040 393d d3a1 063d cfab 0e3d 9a7f e53c
00000380: bb92 0cbc b395 413d 7f75 2dbd 406b 9d3d
00000390: f935 4fbb ff84 90bc 725c c93d f714 923c
000003a0: 2295 b2bc f74e e43b 8828 ab3d 9063 1ebb
000003b0: 7cbc 203c 1889 823d e74c 51bd 5d39 d33d
000003c0: 63e9 1e3c 24be fabb f6e2 a1bd 7f39 a33c
000003d0: 775c 3cbd ad95 6bbd cb45 353d 1dab 303d
000003e0: 31d1 95bd a1f6 b43c 7a5e 343c 2c0e 393d
000003f0: 0b92 a13d 49ac c43d 6c6b e8bd b315 923d
-0.049291495 0.030180536 -0.07840936 0.03050938 -0.036117025 0.024617381 -0.0056361184 -0.0035425087
-0.026296401 0.0009874873 -0.008771906 -0.040603306 -0.053342856 -0.080524564 0.082237676 0.055266894
0.018041003 -0.07066212 -0.024748258 -0.0317588 0.02989081 -0.10231562 0.03215 -0.1452741
-0.22188662 -0.027620835 -0.05081517 0.016180508 0.09116077 0.02024923 -0.10143986 -0.050547555
-0.031212289 0.08873499 -0.034869637 0.105383165 0.13857384 0.042864908 0.15213124 -0.13570002
0.12706664 0.110469945 0.11986643 -0.12195246 -0.14448233 0.059116457 -0.07989059 0.07313324
0.03224707 -0.018542252 0.1255408 0.075308114 0.080941126 0.036213 0.06456645 -0.13416918
-0.00504496 0.036461532 -0.021266876 -0.011722337 0.10413207 0.16461112 -0.054488454 0.12638937
-0.04986845 -0.038344696 -0.17728381 0.023060923 -0.031559467 0.009380568 0.03448103 0.07496259
-0.05169562 0.10212451 0.053498738 0.014402221 -0.07507849 0.07273737 -0.037016723 -0.023576627
0.010811246 0.0011939562 -0.03313675 0.02378068 -0.18214513 -0.095705405 -0.13502203 -0.10068977
-0.15277761 -0.14191003 -0.009219647 -0.19029228 -0.059755813 -0.063884936 -0.101608165 -0.038223162
-0.008261617 -0.11030467 0.08621093 -0.16496618 0.027025456 -0.02929496 -0.093426965 0.01168592
-0.026624534 0.045341924 -0.124240674 0.003030339 -0.0070829983 -0.006603013 -0.080371484 -0.10533142
-0.21828996 -1.677934e-05 -0.08266839 0.05674715 -0.066188775 0.0047737486 -0.009488261 -0.030177273
-0.0670823 -0.079282574 0.0043298053 -0.16802186 -0.17615561 -0.09454301 0.01170817 -0.02292343
0.010211114 -0.052236926 -0.1720192 -0.01110497 0.014592212 -0.017748399 -0.014564618 -0.016004633
0.05057365 -0.044216406 -0.017785218 -0.019817108 -0.13500276 0.075610206 0.06741432 0.022690915
0.020618858 0.054297958 0.025608614 0.004936703 -0.120693505 -0.05810119 -0.15090059 0.027511884
-0.07256842 -0.21716075 -0.10432718 -0.1461429 -0.08808833 -0.14269382 -0.035011556 0.110036395
0.08393223 -0.102894746 0.08231967 -0.13664305 -0.0598411 0.06564237 -0.11927037 -0.115657404
-0.0412105 -0.0095649725 -0.07168867 -0.11343195 0.18521392 -0.01150385 -0.07841127 -0.0090531185
-0.13843721 0.11259209 -0.08246276 -0.03455217 -0.17016937 -0.09358572 -0.0027589507 -0.011369642
-0.03935683 -0.18189736 -0.007402189 -0.18231115 -0.1103173 -0.019639913 -0.058520127 -0.11425648
0.02045395 0.07880922 0.030108212 0.024752451 0.053568125 -0.05538118 -0.0047809775 -0.056340754
-0.06313511 0.0075632883 -0.022225823 -0.003454693 0.008740083 -0.037769273 -0.03629924 -0.025416842
-0.08616767 -0.04222551 0.032710567 -0.03576283 0.14798407 0.07241172 0.072404645 -0.041044682
-0.07639224 0.00080554764 0.00493811 -0.049038254 0.045227826 0.03286917 0.03483182 0.028014947
-0.008579905 0.047261905 -0.04234838 0.07686472 -0.0031617864 -0.017641542 0.09832086 0.017832262
-0.021799628 0.006967421 0.0835734 -0.002416823 0.009810563 0.06373805 -0.05109873 0.103136756
0.009699198 -0.007652061 -0.079046175 0.019924877 -0.04598662 -0.05751579 0.044256013 0.043131936
-0.07315291 0.022090258 0.011008853 0.04517953 0.078891836 0.09603173 -0.11348614 0.07133045

decoder.3.bias f4 [16]
00000000: 76bc 4f3d bf64 fabd cbf1 22be 99d0 623d
00000010: a934 763d 1b63 fe3d c8c9 b63b 4906 083d
00000020: 5fe9 4cbd 7c1c 8a3d d47c 5abd 72f6 9f3d
00000030: 20d8 df3d 7945 9bbd 1bfb 48bd 23e5 f0bd
0.05071684 -0.12226247 -0.15912549 0.055374715 0.060108814 0.124212466 0.0055782534 0.03320912
-0.050027248 0.06743714 -0.0533417 0.078106776 0.109298944 -0.0758161 -0.049067598 -0.11762454

decoder.4.weight f4 [16]
00000000: 25c7 b63f 2f4a 993f a401 a43f 52d2 bb3f
00000010: b3b8 643f cbc4 cd3f 42ce ae3f f7a0 b63f
00000020: af9a af3f d35c bb3f 8963 bd3f 9b4b 823f
00000030: 8a2c 9f3f ca61 5e3f 51e4 cc3f 3de1 9d3f
1.4279524 1.1975764 1.2813001 1.467356 0.8934433 1.6075681 1.3656695 1.4267873
1.3719081 1.4637703 1.4796001 1.0179323 1.2435467 0.86867964 1.6007177 1.2334362

decoder.4.bias f4 [16]
00000000: 478f 9b3e 7b09 10be 4212 dbbd 3728 a63e
00000010: f4bd 2abe 55dc c43e 7e74 843e 9dda 9b3e
00000020: 4d8b 893e 23b9 b83e f671 bb3e 3d04 123c
00000030: d0fa 583d b782 15be bad8 ee3e cde5 003e
0.3038275 -0.14066117 -0.10696842 0.32452556 -0.16674024 0.3844935 0.25870126 0.30440226
0.2686409 0.36078748 0.36610383 0.008912143 0.05297357 -0.14600645 0.46649724 0.12587662

decoder.4.running_mean f4 [16]
00000000: 4a93 b8bd 8c4e 573e ddc5 493e f78e 34be
00000010: cff4 a93e fd42 05bd 5929 7cbe 28ee c33c
00000020: 6a10 21bd cad9 8d3c edbb 32be f543 ad3d
00000030: 76f1 dcbc daaa c5bd 4a48 63be e123 5abe
-0.09012468 0.21026057 0.19704385 -0.17632662 0.33194587 -0.032534588 -0.24625148 0.023917273
-0.039322294 0.017315764 -0.174545 0.084602274 -0.026970606 -0.09651728 -0.22195545 -0.21302749
