Models/model_cnn/flood_cnn_epochs_10.pth (torch, 150547 bytes, 31 tensors)

encoder.0.weight f4 [16, 2, 3, 3]
000000 9b 9b 6c bd da 20 a6 bd f4 51 c5 bc 63 f9 89 bd
       -0.057765584 -0.08111735 -0.02408693 -0.0673702
000010 3b 0e 34 be b6 34 94 3d 0d 72 4c bd 1e 69 68 be
       -0.17583553 0.07236616 -0.049913455 -0.22696349
000020 d8 a2 25 be 99 46 01 3e 92 8c 55 3d 86 0f cd bd
       -0.16175401 0.12624587 0.05213601 -0.100127265
000030 83 5e 2d bd e7 2d 89 bc 0b 8a 77 be 8c 1a e6 3d
       -0.04232646 -0.01674552 -0.24173753 0.11235532
000040 21 77 38 be 10 c5 e5 bd 2b ba d5 3d f3 36 45 3e
       -0.18014194 -0.11219227 0.10435899 0.19259243
000050 f4 e3 8f 3d ee b9 82 3d 64 7a b2 bd c9 00 9c 3e
       0.070259005 0.063831195 -0.087147504 0.3046935
000060 fa 8d 83 3d f4 e9 8f 3d ca c3 a1 3e 43 f0 bd 3d
       0.06423564 0.07027045 0.31594688 0.09274342
000070 ac 87 30 bd c5 b0 07 3e 62 f5 dd bd 72 cc 05 3e
       -0.043098137 0.13251026 -0.10837819 0.13066271
000080 24 c9 39 3e 8c f7 0c 3e 6f d5 75 3d e3 c6 55 3e
       0.18143135 0.13766307 0.060018 0.2087665
000090 15 e1 d1 bd cc 2d 45 bd 26 c6 54 be 02 11 b2 bd
       -0.10248009 -0.04813938 -0.20778713 -0.0869465
0000a0 c9 7d e3 bd fb 11 63 be 3b 91 12 3d d5 f7 d6 bd
       -0.11107976 -0.22174828 0.035783034 -0.10496489
0000b0 96 9a c8 be 09 58 15 3e eb 95 9d 3d 33 5b 44 3e
       -0.3918044 0.14584364 0.0769461 0.19175415
0000c0 a4 5d 7a 3d 25 e2 07 be f8 5e 61 be dd 32 be 3d
       0.06112446 -0.13269861 -0.22008884 0.09287045
0000d0 7e 40 a8 3c 6c 3b 7a be 27 4d 67 bc 15 d3 9f bc
       0.020538565 -0.2443673 -0.014117516 -0.019509831
0000e0 a3 ea 3d 3e 9b 0e 9e bd a7 cd 1a 3c 9b f7 de 3c
       0.18546538 -0.077176295 0.009448445 0.027217677
0000f0 66 df 05 be 3a fa 85 be 2d e7 b3 be 1c 4f 33 3d
       -0.13073501 -0.2616747 -0.3513731 0.043776616
000100 2c 03 9c bd e9 00 81 3d b8 8c d2 3d bb d3 29 3e
       -0.076177925 0.06299002 0.10280746 0.16584675
000110 24 f9 58 be d0 f2 2a 3e 55 f5 dd bd 9b d2 a2 be
       -0.2118879 0.16694188 -0.10837809 -0.31801304
000120 7a c7 84 3c 79 72 37 bd 0e a9 d9 bd 3c 97 0a 3e
       0.0162084 -0.044786904 -0.10627948 0.13534254
000130 68 f6 ab bb a3 e3 50 be 3f 85 73 be 60 37 6c be
       -0.00524788 -0.20399337 -0.23781298 -0.23067999
000140 2c 15 e7 3b a8 c8 c5 bc 8d 8e 21 3e 48 a2 e8 3b
       0.0070520844 -0.024143532 0.15777035 0.0070994236
000150 de d3 53 bd 1a d7 f7 bd 3b 69 c9 3d a1 b1 3f 3e
       -0.051715724 -0.12101574 0.09834524 0.18720104
000160 31 02 39 be f0 db c4 be 4b ff 57 be 1b 0b a1 bd
       -0.18067242 -0.3844905 -0.2109348 -0.07863446
000170 ef db 82 be 91 48 09 3e 05 63 84 3d b5 5b bd be
       -0.2555842 0.13406588 0.06464199 -0.3698403
000180 42 b3 4a 3e 8c 78 92 3c 7d 98 34 be 19 bc 02 be
       0.19794944 0.017879747 -0.17636295 -0.12767066
000190 50 09 8f bd 61 84 b7 bd 9b 2e 50 3e 3c 5b ed bd
       -0.06984198 -0.08960796 0.20330279 -0.11589667
0001a0 56 42 49 be 89 5f 1c 3e 07 79 b6 bc f1 e4 5d be
       -0.19654211 0.15270819 -0.022274507 -0.21669365
0001b0 ff 7a 4d be 44 93 13 3e ca e6 15 3e ba 37 9b 3d
       -0.2006645 0.14411646 0.1463882 0.075789884
0001c0 61 ae 1b be 89 fd 9d be a2 c9 99 be ef 60 24 bc
       -0.15203239 -0.30857494 -0.30036646 -0.010032876
0001d0 6b a0 c1 3d af 59 a0 3d 0c ae c0 3a f2 01 45 bd
       0.094544254 0.07829606 0.0014700308 -0.04809756
0001e0 e4 28 b7 bc 2e 5d 36 be 96 de 01 be d3 7e 02 3e
       -0.022358365 -0.17808983 -0.12682566 0.12743692
0001f0 9d 01 96 be aa 63 eb be e3 84 52 3d c5 84 7f 3d
       -0.29298106 -0.45974475 0.051396262 0.06238248
000200 07 6e bc bd 3a d3 e9 bc a2 3c 05 bc b9 94 7b be
       -0.092006736 -0.028543103 -0.008132132 -0.24568452
000210 8a b6 ce bd d4 70 ae be 97 81 6c bd a8 20 b4 bd
       -0.1009341 -0.34070456 -0.057740774 -0.08795291
000220 b4 94 84 3d f8 25 5a be ba 18 08 bd 04 5b a4 3d
       0.06473675 -0.21303546 -0.033226706 0.08025172
000230 dd 59 80 be 72 ad d8 3d 11 79 18 3d 6c db 64 3d
       -0.2506856 0.10579957 0.037224833 0.05587332
000240 4d a0 ee bc b6 90 41 bd 4d 32 e1 bc 6f 63 6a bd
       -0.029129172 -0.047257148 -0.027489806 -0.057223734
000250 7d 54 bc bd 8a d1 16 3e e1 a7 c1 bd 92 15 0b be
       -0.09195802 0.1472837 -0.094558485 -0.13582447
000260 77 71 24 be f1 2d 18 3e 9b aa 66 3c 49 e0 7f bd
       -0.16058908 0.14861275 0.014078761 -0.062469754
000270 db a3 aa 3c a4 e4 93 3d 26 be 9f be 11 52 27 3d
       0.020830086 0.07221344 -0.3119976 0.04084975
000280 d6 8c a4 bd a6 57 93 be f7 ee b9 bd aa 68 af 3c
       -0.08034675 -0.28777808 -0.09078782 0.021412212
000290 d2 8c 6b be e8 2c c3 bd 26 ff 7e bc a8 bc 8e be
       -0.23002937 -0.095300496 -0.015563762 -0.27878308
0002a0 3c ae c3 3c 24 e5 51 be 2e 64 33 be e9 09 20 3d
       0.023886792 -0.20497566 -0.17518684 0.03907195
0002b0 1a eb ce bd 6f 49 5e 3e d8 53 53 3d 08 7b 0d 3d
       -0.10103436 0.217077 0.05159363 0.03454116
0002c0 ff 46 10 3d 76 e3 3a be a5 ad 03 be ed ae 24 3e
       0.035223957 -0.18250832 -0.12859209 0.16082354
0002d0 0b e6 41 3d 9f d9 ea bd 41 e3 7d 3d 8a 77 16 3d
       0.047338527 -0.11467289 0.061984304 0.036735095
0002e0 12 5c 91 bd d6 34 17 be fd 87 c5 bd e1 02 21 bd
       -0.07097639 -0.14766249 -0.09645078 -0.039309386
0002f0 30 9b c5 be 82 32 c1 3c f7 79 75 3b 2f 52 0d bd
       -0.3859496 0.023583654 0.003745673 -0.034502205
000300 07 8e b8 bc 98 e2 81 3d 27 ae b1 bc f4 ee 2e be
       -0.022528661 0.063420475 -0.021689488 -0.17083341
000310 78 bc c1 3c 05 42 29 3e 5c fc 89 be 62 6a 0e 3e
       0.02364944 0.1652909 -0.26950347 0.1390777
000320 94 27 f0 bd ea 8b 42 3c de 4a 29 3e 1c 6e a1 3e
       -0.11726299 0.011874178 0.16532466 0.3152932
000330 67 70 c7 bd f1 7a 0a be 55 2b 82 3e 49 11 f2 bd
       -0.09738236 -0.13523461 0.25423685 -0.11819703
000340 75 73 79 3b 72 34 c6 3c 69 f0 98 bc 48 17 d2 3d
       0.0038063203 0.02419493 -0.018669324 0.10258347
000350 c6 f0 8a 3d 88 37 ba bd 00 13 3d 3e 56 e7 02 3e
       0.06784205 -0.09092623 0.18464279 0.1278356
000360 ad 9a 5b 3c 5b 8c 8f be 53 ed 91 3d de 70 71 be
       0.013403577 -0.2803677 0.07125344 -0.23578212
000370 01 0b 75 3e b4 4d 2c 3e 4b 3c 83 3d a5 48 f1 3d
       0.23929979 0.16826516 0.06407984 0.11781434
000380 61 3f c6 3e eb 86 9b bd c3 6e 28 be 50 7e 12 3d
       0.3872023 -0.07594093 -0.16448502 0.035764992
000390 1b 26 ca bd 88 2d 16 3e 91 40 c4 bb 1d 7e f3 3d
       -0.09870549 0.14665806 -0.005989142 0.118892886
0003a0 b6 c0 2e be 01 a8 1f 3e 64 ca bb 3c 4a cc 52 bd
       -0.17065701 0.15591432 0.022923656 -0.051464356
0003b0 a1 0a 22 3e 96 de f7 bd a4 ad f9 bd c6 23 34 3e
       0.15824367 -0.12103002 -0.121913224 0.17591771
0003c0 02 f3 8a 3d 8c 47 d0 3c 37 15 b8 3e d0 0f 4a be
       0.06784631 0.025424741 0.35953686 -0.19732594
0003d0 e9 c1 98 bc f7 5c 24 3e 05 80 cc 3b 43 bf 74 3e
       -0.018647151 0.16051088 0.006240847 0.23901086
0003e0 65 dc b3 3d 2a 14 aa 3c 82 c0 d6 3d aa e9 61 3d
       0.08782271 0.020761568 0.10485937 0.05515448
0003f0 c0 a2 10 3e a8 8f 03 3e fb 07 cb bd 8c 3e 08 3e
       0.14124584 0.1284777 -0.099136315 0.1330511

encoder.0.bias f4 [16]
000000 d3 88 79 3e 7d fd 2a be 86 bf a1 3d 29 11 b6 bd
       0.243686 -0.1669826 0.07897858 -0.08889992
000010 ed 63 02 be 0d 9c b3 3d 05 26 38 3d cf d9 ea bb
       -0.12733431 0.08769999 0.044958133 -0.007167078
000020 17 56 0a be ef 47 6e 3c 70 13 44 3e 7c e7 ed 3d
       -0.13509403 0.0145435175 0.1914804 0.11616418
000030 7b 96 01 3e 2e ce 4b be 2c d9 65 be 21 dd 55 be
       0.1265506 -0.1990287 -0.22446126 -0.20885135

encoder.1.weight f4 [16]
000000 aa 73 83 3f 98 d5 85 3f fa 83 84 3f 9c 4a 81 3f
       1.0269673 1.0455809 1.0352776 1.0100894
000010 e6 cb 7a 3f ad be 82 3f 43 79 7e 3f ce bf 7f 3f
       0.97967374 1.021444 0.9940378 0.99902046
000020 28 13 82 3f b0 08 89 3f 41 37 88 3f 13 d1 74 3f
       1.0162096 1.0705776 1.0641862 0.9563152
000030 c2 36 7d 3f d0 c2 6f 3f a6 36 82 3f f6 9a 82 3f
       0.9891168 0.93656635 1.0172927 1.020354

encoder.1.bias f4 [16]
000000 bb 30 d9 ba 62 81 00 3e e3 f5 62 3b ee e8 eb 3b
       -0.0016570309 0.12549356 0.0034631423 0.0071993982
000010 35 6d b7 ba 0a 36 e9 3b 19 63 6f ba 6b bf d8 3a
       -0.0013994338 0.0071170377 -0.0009131893 0.0016536539
000020 d2 04 5e ba 02 a7 60 3a 81 11 6e 3b ba 56 01 bc
       -0.0008469346 0.0008569808 0.003632635 -0.007894212
000030 03 cc 71 bd cf b4 dd 3d 27 92 07 3e 67 d5 31 3c
       -0.05903245 0.10825502 0.13239346 0.010854102

encoder.1.running_mean f4 [16]
000000 1f e8 7b 3e 99 69 2c be 29 b8 a2 3d 8a 4f b9 bd
       0.24600266 -0.16837157 0.07945282 -0.09048374
000010 21 0d 00 be 70 34 a7 3d 94 39 3a 3d ac ea b7 bb
       -0.12505008 0.081642985 0.045465067 -0.005612692
000020 02 ff 09 be d7 71 66 3c 98 c5 43 3e ab bf ed 3d
       -0.13476184 0.0140652275 0.19118345 0.116088234
000030 33 39 01 3e bb 6e 4d be 44 6b 66 be 2c bd 51 be
       0.12619476 -0.20061772 -0.22501856 -0.2048232

encoder.1.running_var f4 [16]
000000 28 12 46 3f 4f 65 d6 3f 66 69 94 3f bc aa 12 3f
       0.77371454 1.6749667 1.1594665 0.5729177
000010 11 e9 18 3f e1 88 70 3f 21 28 99 3f db a1 1b 3f
       0.5973063 0.9395886 1.1965371 0.60793847
000020 b9 74 08 3f d5 25 26 3f c8 cf b5 3e 9f 4a b3 3e
       0.53303105 0.6490148 0.35510087 0.3501787
000030 ff 8b ca 3e c6 b8 18 3f 24 ab b4 3e dd 04 75 3f
       0.39559934 0.5965694 0.3528682 0.95710546

encoder.5.weight f4 [32, 16, 3, 3]
000000 e7 e1 db bc c0 0e e3 bc dd 1b fa bd a3 54 d9 bd
       -0.026841117 -0.027716994 -0.12212346 -0.10611846
000010 9b 7e 09 be 05 90 2c be 2f 57 cc bd 6f cd 12 be
       -0.13427202 -0.16851814 -0.099775665 -0.14336179
000020 71 39 21 be 1e c8 8a 3d 46 71 2f bd f9 4d d1 3c
       -0.15744568 0.067764506 -0.042832635 0.025549876
000030 7f ca b9 bc 63 a3 6f 3d 6d a3 c6 bc 71 33 4d 3a
       -0.022679565 0.058505427 -0.02424785 0.0007827795
000040 60 8b 3f 3b aa 55 ac 3c 36 1f 11 bd 88 0c 17 be
       0.002922736 0.021036942 -0.035430156 -0.14750874
000050 3f 42 2a be c8 1a 02 be b9 41 35 be 3e a7 38 be
       -0.16626833 -0.12705529 -0.17700852 -0.18032548
000060 35 9b ba bd fb 8d 17 be 7b 5f 31 be ad 76 c7 3b
       -0.09111635 -0.14800255 -0.17321579 0.0060871453
000070 5b 3e 2f bd bf 03 ca bc 16 28 1e bd cd 59 8e bd
       -0.042784076 -0.02465999 -0.038612448 -0.06950722
000080 09 a1 ea bd bc 13 86 bd a9 b6 10 be 3a f2 08 be
       -0.11456496 -0.06546733 -0.1413218 -0.13373652
000090 db d8 ea bc 5c 5b d8 bd 4a 61 03 be 33 28 d3 bd
       -0.028667858 -0.105643004 -0.12830082 -0.10310402
0000a0 7a e2 05 be ef c1 0f be bd a9 ea bd 02 0a 1e be
       -0.13074675 -0.14038824 -0.11458156 -0.15433505
0000b0 b5 e4 04 be c5 f1 9c bd d9 ad a8 bd 01 8b 12 be
       -0.1297787 -0.076633014 -0.08236284 -0.14310838
0000c0 f0 c3 be bd 1e ca b7 bd da 46 27 be 32 b7 ef bd
       -0.09314716 -0.08974098 -0.16335621 -0.117048636
0000d0 5d 81 f8 bd fd 98 22 be 77 60 77 bd 2b 6a cd bd
       -0.12134049 -0.15878673 -0.06039473 -0.100300156
0000e0 0b 1d 7b bd 7e 7b a7 bd d4 54 c2 bd 91 fe 79 bd
       -0.061306994 -0.08177851 -0.09488836 -0.06103379
0000f0 74 64 07 be 2f 1a e8 bd cc 9c fe bd ad 0e 9a bd
       -0.13221914 -0.11333119 -0.124322504 -0.075223304
000100 28 08 06 bd ff 4e ce bd d3 71 64 bd c5 b6 ff bd
       -0.032722622 -0.10073661 -0.055772614 -0.124860324
000110 3c 08 d3 bd 4b b7 f1 bc 18 33 11 be b1 a0 f0 bd
       -0.10304305 -0.029506346 -0.14179647 -0.117493995
000120 8d 92 3f bd 99 12 b8 bd eb 26 a9 bd 3a 12 a3 bd
       -0.04677062 -0.08987922 -0.08259376 -0.07962461
000130 23 2b 2b bd 87 ff 50 bd f6 7b e5 bc 36 4d 9c bd
       -0.041789185 -0.05102494 -0.02801321 -0.07631914
000140 8e 32 a7 bd ea 3a 92 bd 1e 58 ae bd c6 d6 ed bd
       -0.081639394 -0.07140143 -0.08512901 -0.116132304
000150 d3 6f ba bd c7 6b 2a be 2e f9 d8 bd 83 c3 da bd
       -0.0910336 -0.16642676 -0.10594402 -0.10681822
000160 20 a8 d2 bd 68 0f 25 be ea 6d a1 bd 94 04 d0 bd
       -0.102859735 -0.16119158 -0.078822926 -0.10157123
000170 da c6 4a be 8c fb 0a be 54 c0 f4 bd 01 6b 63 be
       -0.19802418 -0.1357252 -0.11950746 -0.22208788
000180 b0 67 ce bd 4a f3 5f be 7f 96 86 be 0e af 4b 3c
       -0.100783706 -0.21870151 -0.26286694 0.012431873
000190 3c 2b 92 3c 0e 94 96 3c c8 24 8c 3c c1 9d f5 3c
       0.017842881 0.018381145 0.017107382 0.02998245
0001a0 c6 9d 03 bd a2 16 0f 3d 87 74 82 bc 1e 7f 3a 3d
       -0.032132886 0.034933694 -0.015924705 0.045531385
0001b0 b8 34 13 3c 77 99 4a 3d f5 a0 2a 3d 38 f1 9d bc
       0.008984737 0.04946276 0.041657407 -0.019280061
0001c0 9e 4b b7 bc 04 89 60 3d a1 ae cb 3a 2f 71 d8 3c
       -0.022374924 0.05481817 0.0015539714 0.026421158
0001d0 3c a9 6e 3d 2c 88 ba 3b 18 e1 22 bc 16 dc 9c 3b
       0.058266863 0.0056925025 -0.009941362 0.0047869785
0001e0 ee 46 ac ba 0d c8 9a 3c 72 53 1b 3b 07 0b a1 3c
       -0.0013143697 0.01889422 0.002370086 0.019658579
0001f0 8e 02 e5 3b 34 a6 a6 3c a8 40 74 3c 4b 55 53 3c
       0.00698883 0.020342924 0.014907993 0.012898753
000200 f0 d2 29 bd 9d a0 c8 3c 74 b4 e3 bc a4 5f 03 bd
       -0.04146093 0.024490649 -0.027796008 -0.032073632
000210 97 5d 2c 3c 27 c6 90 3c 0b d2 aa bc 3b 66 8f bd
       0.01052036 0.017672611 -0.02085211 -0.07001921
000220 6a d8 ce bd 91 24 ad bd d7 b5 dc bd d4 d8 dd bd
       -0.100998715 -0.0845424 -0.10776871 -0.10832372
000230 ae 42 11 be 42 e8 0b be 36 a2 07 be 3b 5e 1f be
       -0.14185593 -0.13662818 -0.13245472 -0.1556329
000240 2c 83 b3 3b 2f fc 93 bc f4 2f a0 bd d3 9f 6f bd
       0.0054782834 -0.018064586 -0.07821646 -0.05850203
000250 35 3c 4a bb 39 80 91 bd e6 04 33 bc 7e 6d ad bb
       -0.003085864 -0.07104535 -0.010926461 -0.0052925935
000260 06 69 78 bc fd a1 4e bd 3a 08 f2 bc 9d 01 81 3d
       -0.015161758 -0.050447453 -0.029544938 0.06299136
000270 a8 ac f1 bd 2e 48 1a 3e 67 0b 6b 3e 5a d1 9c bc
       -0.1180051 0.15066597 0.22953568 -0.019142795
000280 61 1d 20 3e d1 54 6c 3e 45 ab 08 3d 3f 13 5d bd
       0.15636207 0.2307923 0.03336646 -0.053973433
000290 98 cf 6a bc 69 0e 59 3b 6a ef 45 bc 19 1a 66 bd
       -0.014331721 0.0033120161 -0.012081007 -0.056177232
0002a0 fb 9d a5 bd 15 10 81 bd e6 ec e2 3b 44 82 b9 bd
       -0.08086773 -0.063018955 0.006925213 -0.09058049
0002b0 79 a3 e1 bd ba 75 12 3d f9 3e 95 bd b2 af 85 3d
       -0.11017508 0.035756804 -0.07287402 0.06527652
0002c0 f6 ef 3e bc 94 1d 60 bd 94 0b 38 3d 5f a7 96 3d
       -0.011653891 -0.054715708 0.044932917 0.07356142
0002d0 81 b4 55 bd 7c 6c 30 3d 31 c8 38 3d dc b3 54 3d
       -0.052174095 0.04307221 0.045112792 0.05192934
0002e0 68 3d c5 bd b4 e5 9e bd 7f 71 4a bc 08 42 cf bb
       -0.09630853 -0.07758656 -0.012356161 -0.00632501
0002f0 65 29 2a 3d 51 c8 b6 bd c0 ff b5 bc 5f 3d 7d bd
       0.041543383 -0.08924926 -0.022216678 -0.061826106
000300 97 59 6b 3d ee 13 3a bd a8 a9 a5 bd 0e 3b 01 3d
       0.057458486 -0.045429163 -0.08089 0.03155046
000310 18 3d f7 bd 3f 48 41 bc cc 87 a6 bc ca 4c 49 bd
       -0.120721996 -0.01179701 -0.020328425 -0.049145497
000320 26 34 50 bd 84 ed 3a bc 1c 9d a4 bd 40 97 fe bb
       -0.050830983 -0.011409167 -0.08037779 -0.0077694952
000330 46 ad b5 3b e8 a3 97 bc cb f7 df 3c 94 e0 04 3d
       0.0055443374 -0.018510774 0.027339837 0.032440737
000340 7d 51 56 3d 6b 6f 9b 3d f5 0f e6 3b a5 d3 99 3c
       0.052323807 0.07589611 0.007020945 0.018777678
000350 02 9b 7c 3d 7a ce af 3d 8c 4a 8d bd d7 d9 3a 3d
       0.061671264 0.08584304 -0.06898984 0.045617905
000360 78 b1 df bd d1 3f 96 bd c5 a0 ac bd 30 49 4b 3d
       -0.10922521 -0.07336391 -0.08429102 0.049630344
000370 7e 06 05 bd 34 9c 8b bd 7f 34 8d bd 80 d9 93 bd
       -0.032476895 -0.06816903 -0.068947785 -0.07219219
000380 b8 1e e3 3d ba 43 31 3c 1e c3 f5 bd 81 33 71 3d
       0.110898435 0.01081937 -0.12000106 0.05888701
000390 cd a0 bc bd bd d3 02 3d 54 80 fd bc 77 39 50 3d
       -0.09210358 0.03194021 -0.03094498 0.050836053
0003a0 a3 b3 aa 3d f1 c5 03 3e 76 9e f1 3c 19 1d a9 bd
       0.08335044 0.12868477 0.029494505 -0.08257503
0003b0 fa 30 bc bd f5 a7 b0 bd 65 f6 5a 3d 89 04 e9 3c
       -0.09189029 -0.08625785 0.053457636 0.028444545
0003c0 b6 15 92 bd 53 73 94 bd 37 05 ba bb 3a 09 46 bb
       -0.07133047 -0.07248559 -0.005676891 -0.0030217902
0003d0 35 3a 11 3d 80 cb 83 3b 14 ad 0a be 7e 1a b9 3d
       0.0354559 0.004022062 -0.13542587 0.09038256
0003e0 c9 41 f9 3c 2e 3e d8 bc b9 be 34 3c 9d ba bc 3d
       0.030426877 -0.026396837 0.0110318 0.09215281
0003f0 35 2d c2 bd 5c d4 f8 bd 73 43 1d 3d d1 fb 21 3d
       -0.09481279 -0.12149879 0.038394403 0.03954679

encoder.5.bias f4 [32]
000000 4f 8e 59 3c c4 6d 44 bd 1d 35 8c bd d0 4c 01 bc
       0.013278558 -0.047956243 -0.06846068 -0.007891849
000010 5b 3c 33 bd ec b0 74 3d e0 52 30 bd 91 74 8f bd
       -0.04375873 0.05973904 -0.043047786 -0.07004655
000020 68 09 39 3d e1 d9 89 3d a7 13 09 bd a8 03 0a 3d
       0.045174986 0.0673101 -0.033466008 0.033694893
000030 ba c6 7a 3c 69 b8 6b 3c 4b df 11 bd ac bb ea 3c
       0.015306169 0.0143872285 -0.03561334 0.028653942
000040 3c 7e 1b bd 53 fc 36 bc 63 b6 91 3d 37 25 58 3a
       -0.037962183 -0.011168557 0.07114866 0.00082452915
000050 45 ed 1a 3d 18 11 0a bc 1f 39 ad 3d 33 87 e9 bd
       0.037823934 -0.008426927 0.084581606 -0.1140274
000060 8a 52 96 bd 96 b2 5f bc 81 d5 40 3d 55 47 1a 3b
       -0.07339962 -0.013653418 0.047078613 0.0023541052
000070 8d 9e 36 bc 84 a3 b7 3c 1f 9c a8 bd 42 cd b7 bc
       -0.0111462 0.022416838 -0.08232903 -0.022436742

encoder.6.weight f4 [32]
000000 d5 67 56 3f cb 79 5a 3f c3 a5 78 3f 91 06 60 3f
       0.83752185 0.8534209 0.9712793 0.8751002
000010 63 d4 78 3f 5a df 61 3f 2b 3c 66 3f 29 f0 80 3f
       0.97199076 0.8823143 0.8993556 1.0073291
000020 19 2f 77 3f 9f 6c 65 3f f3 ff 4d 3f ab 09 6a 3f
       0.9655624 0.8961887 0.8046867 0.91421
000030 8c 68 51 3f 72 92 6b 3f 50 2f 52 3f 33 fa 6a 3f
       0.8180015 0.9202033 0.82103443 0.91788024
000040 f9 3f 6f 3f a8 6f 5c 3f e4 8f 52 3f c0 7e 6f 3f
       0.9345699 0.86107874 0.8225081 0.9355278
000050 bc cb 60 3f 9a 37 64 3f b5 48 7e 3f ff 44 55 3f
       0.87810874 0.8914734 0.9932969 0.83308405
000060 e6 bd 62 3f bf d5 55 3f 69 9c 5e 3f ab 56 67 3f
       0.8857101 0.83529276 0.8695741 0.9036662
000070 a1 f3 52 3f 08 46 58 3f 37 04 5f 3f 58 3c 55 3f
       0.82403 0.8448186 0.87115806 0.832952

encoder.6.bias f4 [32]
000000 3b 30 09 bf c0 73 b4 3d d7 64 fa 3d 4b ad a8 3d
       -0.5358922 0.0881114 0.12226265 0.08236178
000010 6f 52 38 3e ee 55 11 3d 79 c5 10 3e 2f ee d7 3d
       0.18000196 0.03548234 0.1413783 0.10543477
000020 8c 8d 8d 3d f8 c6 3a 3d 62 9c 17 bf 0b 87 3d 3e
       0.069117635 0.045599908 -0.59222996 0.18508546
000030 64 f5 15 bf 9c c4 c0 bd bb 32 0e bf 4a 24 09 3e
       -0.5857756 -0.094125 -0.5554616 0.1339275
000040 d6 73 2a be 66 aa 55 3e a4 19 13 bf 42 d1 a1 3d
       -0.1664575 0.20865783 -0.57461 0.07901241
000050 d4 32 57 3d d4 3b 2a 3e b9 8a c4 3d df cd 08 bf
       0.052538708 0.16624385 0.09596772 -0.53439134
000060 b4 dc 08 3e ca 0d ab be d3 a2 3d 3e 86 88 8f be
       0.13365442 -0.33408958 0.18519144 -0.28033847
000070 b9 01 25 be ac bd be 3d 23 67 f4 be 04 21 ee bd
       -0.16113938 0.09313521 -0.47734937 -0.11627391

encoder.6.running_mean f4 [32]
000000 70 05 4f c0 57 10 5d bd b1 e9 92 bc 50 87 2c 3e
       -3.2347069 -0.05397066 -0.017933698 0.16848493
000010 33 70 22 3e 6e 2b 96 3e 77 1f 02 be b1 05 90 bb
       0.15863113 0.2933001 -0.12707315 -0.0043952097
000020 93 77 00 3d c4 a9 ec 3e ee 7b 61 c0 45 a4 be be
       0.031364035 0.4622327 -3.523189 -0.37234703
000030 19 e8 fa bf 98 94 46 3b e6 02 3b c0 1f 81 22 be
       -1.960208 0.003030097 -2.922052 -0.15869568
000040 7d 4a e3 bf d3 e4 b2 be 90 7f 40 c0 e2 4b 33 bc
       -1.7757107 -0.34940204 -3.0077858 -0.010943385
000050 cd 45 b8 3b a8 6a b9 3c 3e 1d 7b bd 69 96 4f c0
       0.0056235553 0.022633865 -0.061307184 -3.2435553
000060 68 f2 66 bd 45 27 20 c0 af a4 b2 3e 2f df 0c c0
       -0.05638352 -2.5023968 0.3489127 -2.201122
000070 d1 93 f4 3f c9 e0 d9 3e 53 c8 2d c0 30 7b f7 3f
       1.910761 0.4255431 -2.7153518 1.9334469

encoder.6.running_var f4 [32]
000000 37 f5 49 41 d7 b2 73 40 98 f6 13 40 9e 86 e4 3f
       12.622367 3.8077905 2.311926 1.7853582
000010 b5 34 33 40 03 78 d1 40 ba 57 56 40 ce 2d b7 40
       2.800092 6.5459 3.3491044 5.7243414
000020 e0 40 38 40 d0 00 ed 40 b7 ea 41 41 e3 ca 77 40
       2.8789597 7.406349 12.119803 3.8717582
000030 0e fe 8c 40 02 f1 ef 40 bc ca 34 41 c2 37 1b 40
       4.4060125 7.49817 11.299496 2.4252782
000040 83 df 2e 41 c3 37 d3 3f 2d 23 2a 41 06 c0 53 40
       10.929568 1.6501392 10.633588 3.3085952
000050 b1 5d 00 40 df c9 1d 40 dd 08 75 40 7b ed 49 41
       2.0057185 2.4654462 3.828666 12.620479
000060 7e a1 45 40 f1 6c 54 41 03 1e aa 3f 1e d7 4b 41
       3.0879817 13.276597 1.3290409 12.740019
000070 89 b3 b7 40 ec d6 9f 40 a1 90 3c 41 a3 0d d1 40
       5.740666 4.9949856 11.78531 6.5329146

encoder.10.weight f4 [64, 32, 3, 3]
000000 90 53 ba 3d 3f 09 c0 3c 99 dc 02 bd 5c 70 22 bb
       0.090979695 0.023441909 -0.03194866 -0.002478621
000010 44 4f 6b 3c 34 c1 fd bc c4 3b 25 bc fd 66 29 bc
       0.01436216 -0.030975915 -0.01008505 -0.010339496
000020 6b 3d ae 3d aa 39 8e 3d eb c0 72 bd 6f 44 92 3c
       0.08507808 0.06944592 -0.059266012 0.017854897
000030 10 a5 ae bd 26 db e9 3c 36 3a 70 3c 60 ae ac 3c
       -0.08527577 0.02854688 0.014662316 0.021079242
000040 8b 98 ca 3d e1 b6 1b 3e c3 70 40 3c 94 8e c7 bc
       0.098923765 0.15206482 0.0117456345 -0.024359979
000050 65 ee e3 3c 46 dd 90 bd fa 7b 02 be 15 cf 77 3d
       0.027823636 -0.070734546 -0.12742606 0.060500223
000060 a3 3a a0 3a b9 c4 26 3d 1d d9 25 3e 65 ad ba bd
       0.0012224506 0.040714953 0.16196103 -0.09115104
000070 b6 37 05 bc 03 48 eb bc 7a 59 ce bd ed 3d 3e bc
       -0.008130958 -0.028720861 -0.1007566 -0.011611444
000080 bb bc 50 3b e8 60 37 3d 16 10 82 bc 89 67 14 3e
       0.0031850773 0.04477015 -0.015876811 0.1449262
000090 d6 33 a3 3c 0b 16 13 3c 8c d9 81 3d 35 00 d3 3c
       0.019922178 0.008977423 0.06340322 0.025756935
0000a0 a4 da 20 bd 88 1e 4c 3b 35 db 08 3c 68 94 ff ba
       -0.039271012 0.0031146128 0.008353044 -0.0019499185
0000b0 39 04 89 3d c3 90 20 3c 6c 0c 96 bd 83 34 69 bd
       0.066902585 0.009800139 -0.07326588 -0.056934845
0000c0 f7 94 d7 bd 0b 87 21 3c 72 b0 23 3d 29 a1 cc ba
       -0.1052646 0.009858857 0.039963193 -0.0015611994
0000d0 20 3b db 3d a5 94 f1 3d 76 54 77 3a e2 8b f1 bc
       0.107046366 0.1179593 0.0009434888 -0.029485647
0000e0 21 08 05 3e 18 a0 c0 bc e2 59 4b bc 95 42 05 3e
       0.12991382 -0.023513839 -0.012411566 0.1301368
0000f0 16 d7 a8 3d 04 58 c5 3c 07 ff 79 3d 8b cd e5 bc
       0.082441494 0.02408982 0.06103423 -0.028052112
000100 a6 54 9d bd 42 8b 8d 3d 61 a6 6c b9 f6 ed de bd
       -0.07682161 0.06911327 -0.00022568695 -0.10885231
000110 16 1e 06 bd c0 77 70 3d bb 74 95 bc f1 54 d4 bc
       -0.032743536 0.058707952 -0.018244138 -0.02591941
000120 cd 14 19 bd f6 dc b7 bb be 47 7a 3d e8 3d 89 bc
       -0.037373353 -0.0056110574 0.061103575 -0.016753152
000130 fb 5c ed bd 26 8e ca 3d 6c 7b c9 bb 29 0d 59 3d
       -0.1159 0.09890394 -0.0061487462 0.052991066
000140 62 8e 99 3e 41 e3 ba 3c 43 0d 23 bd 28 da 5d 3c
       0.29991442 0.022813441 -0.03980757 0.013540782
000150 35 b1 0c 3c b3 4d 07 3c 5e 26 96 3c 56 90 2c 3d
       0.008587171 0.008258271 0.018328842 0.042129837
000160 eb 45 1d 3d b5 c1 69 3e 40 9c 9d 3c 18 38 04 3d
       0.038396757 0.228278 0.019239545 0.032280058
000170 9a 8c c4 bd 14 1f 24 3c 05 59 80 3d e6 9e 9e bd
       -0.0959713 0.010017175 0.06266979 -0.07745151
000180 9f 49 24 3c 8b 2b 6e 3c fa 94 1e bb 0f 69 40 bd
       0.010027318 0.014536749 -0.0024197684 -0.04697519
000190 47 4e e7 3c 80 e0 1e bc 3b b1 4f bd 1d 18 cc bd
       0.028235568 -0.00969708 -0.05070613 -0.09965537
0001a0 5b cb 65 bd 3d 3c 8a 3d 1f 26 a5 bd e5 c4 a7 3d
       -0.056102138 0.06749771 -0.08063912 0.081918515
0001b0 c2 83 87 3c 58 b4 53 3d 18 03 4a 3c 40 fd bd 3d
       0.01654232 0.05168566 0.012329839 0.09276819
0001c0 6f 50 39 bc 70 b5 8f bd 71 6b 33 bc bc 93 c7 bd
       -0.011310681 -0.07017028 -0.010950909 -0.09744975
0001d0 18 71 9e bd 8e 00 54 bc 4e af 15 bd 27 3e 79 3c
       -0.07736415 -0.012939585 -0.036544137 0.015212572
0001e0 c4 93 b5 bc de b8 df bd 57 95 9d bc fb 4e 57 bd
       -0.022165187 -0.109239325 -0.01923625 -0.052565556
0001f0 c3 54 a6 3d 26 1e 53 3e 6e 25 ac 3d 7b 4f 0a 3d
       0.08121636 0.2061697 0.08405577 0.033767205
000200 d2 14 fb bd 14 8e 0c bd a7 fc 37 3d 80 94 bb bc
       -0.122598305 -0.034315184 0.044918682 -0.022897959
000210 97 05 ae bd 0a 89 d8 3c 99 c5 97 bb 35 5f 20 3d
       -0.0849716 0.026432533 -0.00463171 0.039153297
000220 84 db b1 bd cb 58 ee ba 7d 82 7c bd 66 28 1b bc
       -0.086844474 -0.0018184421 -0.06164788 -0.009470081
000230 ed 8e ff 3c cd fe be bc a4 c2 b2 bc 9b 81 38 3d
       0.031196082 -0.023314858 -0.021821328 0.045045476
000240 a5 70 c2 3b 95 89 50 bd df b3 16 bd f5 64 cf bd
       0.0059338384 -0.05091246 -0.036792632 -0.10126678
000250 46 2e eb b9 57 b0 ae bd fa e5 fe bb 62 40 00 3d
       -0.0004485717 -0.08529728 -0.00777888 0.0313114
000260 10 85 1b 3e ae bb 91 bd 05 13 61 bd 89 29 aa bc
       0.15187478 -0.07115875 -0.05494978 -0.020771759
000270 6c 32 86 bd f0 d9 99 bd f8 cc 1b bc b6 4a 68 bc
       -0.06552586 -0.075122714 -0.009509318 -0.014177969
000280 78 0f 11 3d b8 5a c8 3d e3 d8 c6 3d 56 fb a6 3d
       0.035415143 0.09782928 0.097093366 0.08153407
000290 59 32 97 bd f0 61 23 3d de 07 bc 3d 26 72 55 bb
       -0.0738265 0.039888322 0.09181188 -0.0032569258
0002a0 89 65 a3 bd cf 27 88 3d ea b3 6b 3d f0 02 81 bd
       -0.07978351 0.06648218 0.057544626 -0.062993884
0002b0 fe 31 88 bc 10 1c 60 3d 25 fd e1 bc 4b c0 22 bc
       -0.0166254 0.054714262 -0.027586529 -0.0099335415
0002c0 2b 1d da 3c 20 d9 4f 3d 44 67 76 bd 88 25 1b 3d
       0.026625236 0.050744176 -0.060157076 0.03787759
0002d0 8d 2d 18 bd f9 ba 12 bc 57 59 07 3e 47 5b 9b 3b
       -0.037152816 -0.008955711 0.13217674 0.0047411057
0002e0 56 55 66 bc 6b fd 5b 3c bc e2 2f 3d 42 4a c3 3d
       -0.014058432 0.013427119 0.04294084 0.09535648
0002f0 be f6 21 3e ad 8d ab bc 41 96 bb bd 82 f6 0d bc
       0.15816781 -0.02094158 -0.09159518 -0.008664729
000300 cc e5 10 bd 7f 00 03 be cd 76 0e bd 7b ad 28 bd
       -0.0353754 -0.12793158 -0.034781266 -0.04118107
000310 1f 8c 1f bc 3d cf 27 3e 0d a2 ca bc 9e a0 8a bd
       -0.009737997 0.16387649 -0.024735475 -0.067689165
000320 e5 1f ca bc 22 2b 25 bd 53 ba b2 ba 03 29 bd 3d
       -0.024673412 -0.040324338 -0.0013635851 0.09236338
000330 10 42 11 3d 3b 66 1d 3c 75 8b 92 3c 90 12 95 3c
       0.035463393 0.009606893 0.017888764 0.018197328
000340 cc a7 d3 3c 0d 5d 93 bd 9a af 64 bd af 48 ba 3c
       0.025836848 -0.071954824 -0.05583153 0.022739736
000350 cb 94 a6 bd 1d a1 f3 bd c3 39 f3 bc bf eb e3 3d
       -0.08133849 -0.11895964 -0.029690629 0.111289494
000360 ae 6e c5 bc d3 65 f3 bb cd 1b 90 3d d8 5b 0b 3c
       -0.024100628 -0.00742791 0.070365526 0.008505784
000370 c5 cc a3 bc e2 d2 dc 3d 72 05 eb 3d e7 d2 c8 3d
       -0.019995103 0.1078241 0.11475648 0.098058514
000380 63 53 78 3e 89 01 af bc e1 a7 d7 bc ac d9 e8 bd
       0.2425056 -0.021363037 -0.026325168 -0.113696426
000390 13 f0 fd 3b a7 61 b5 bd a5 07 a2 bc eb 97 9b bd
       0.0077495663 -0.08856516 -0.019779036 -0.075973354
0003a0 bc 81 56 3d 0a 32 21 3e 84 5a 33 bd 37 2d 7e bd
       0.052369818 0.15741745 -0.043787494 -0.06205484
0003b0 e7 ac 8c 3d e4 3a 8c bd 20 33 41 38 d0 28 54 bd
       0.06868916 -0.0684717 4.60624e-05 -0.051796734
0003c0 e4 90 4d 3d 19 64 22 bb 88 a8 fb 3d ec 3b 27 3d
       0.050187007 -0.00247789 0.12288004 0.04082863
0003d0 3c f9 6e bd 38 04 fe bc e4 3f 71 bd 27 f9 56 bd
       -0.058343157 -0.031007871 -0.05889882 -0.052483704
0003e0 41 1e 02 bd 4c 28 26 bd 3e 0b 9d bc 79 0a 40 3e
       -0.031767134 -0.040565774 -0.0191704 0.18753995
0003f0 3c 21 85 bd cd ab 1f 3c 39 45 81 bd 01 00 86 bd
       -0.065004796 0.00974555 -0.06312031 -0.065429695

encoder.10.bias f4 [64]
000000 90 8b 16 bd 29 b2 4b 3d 92 26 8b bc b6 17 d5 bc
       -0.03675419 0.049730454 -0.016986165 -0.026012283
000010 92 fb 5b bc b2 ac 80 3d 79 a8 bd 3c 6c 54 de 3c
       -0.013426678 0.06282939 0.023151623 0.027139865
000020 f3 a5 4b bd 34 3b 16 bd e0 c3 7d 3c 67 ed c9 bc
       -0.04971881 -0.036677554 0.015488595 -0.024649335
000030 12 42 53 3d 4f ae 42 bd 01 b9 33 bd e9 a5 81 3c
       0.05157668 -0.047529515 -0.043877605 0.015826182
000040 9f d4 62 3d ca be 63 3d d0 96 bb bc b5 35 50 3d
       0.055378553 0.055601873 -0.022899061 0.05083247
000050 a9 34 05 3c 0b f0 36 3c 0c 7f 04 bb 0a a7 d3 bb
       0.008130231 0.011165629 -0.0020217327 -0.0064591216
000060 ab b7 ca bb 43 da 36 bc a6 99 5c 3c 02 a0 1d 3d
       -0.0061864457 -0.011160436 0.013464367 0.038482673
000070 04 26 56 3d 9e ff 01 3d 99 67 c6 bb e6 bc c3 bc
       0.05228235 0.031737916 -0.0060548303 -0.023893785
000080 56 75 5e 3d b0 73 09 bd 28 f3 64 bd 21 95 4e 3d
       0.05431112 -0.033557594 -0.055895954 0.05043519
000090 87 10 25 3c ab e4 01 3d a8 12 03 bd 08 e7 05 3d
       0.010074741 0.031712215 -0.032000214 0.03269103
0000a0 7f dd de bc 98 67 fc 3c a4 28 fa 3b a3 39 99 bc
       -0.027205227 0.030811116 0.0076342393 -0.018704241
0000b0 34 1b 47 bd 74 fd 01 bc a5 f3 d0 bc 3f 69 03 3d
       -0.048609927 -0.007933963 -0.025506804 0.032082792
0000c0 de a9 89 3c 1b 78 02 3d 8c 6b 69 bd 2b 6b 2d 3d
       0.016804632 0.031852823 -0.05698733 0.04233853
0000d0 a6 7f 04 3d 8e 76 40 3c 09 18 3e 3d 94 8a ee 3b
       0.032348298 0.011747016 0.04640964 0.0072797034
0000e0 7e 3b 5a 3c fd 26 34 3d 12 c7 6b 3d 66 c5 91 3c
       0.013319848 0.043982495 0.057562895 0.017794322
0000f0 0c 49 53 3d 51 72 03 3d d3 5b 07 3d e2 8b 47 3d
       0.051583335 0.032091442 0.033046555 0.048717387

encoder.11.weight f4 [64]
000000 85 f3 82 3f 02 3c 87 3f fa b8 66 3f 0b 38 80 3f
       1.0230566 1.0565188 0.90126 1.0017103
000010 9e 7d 74 3f 7f 99 85 3f 11 ca 7b 3f b5 dc 7d 3f
       0.95504177 1.0437468 0.98355204 0.991649
000020 01 8c 8e 3f 7b 98 7d 3f eb 0f 87 3f d4 7d 84 3f
       1.1136476 0.9906079 1.0551733 1.03509
000030 81 f6 5f 3f 71 f4 86 3f 7d c4 71 3f 4c b0 7e 3f
       0.8748551 1.0543348 0.9444044 0.9948776
000040 69 53 70 3f 46 67 87 3f 0d 43 86 3f b4 80 67 3f
       0.93877274 1.0578392 1.0489212 0.9043076
000050 1d 0d 62 3f 3d b9 81 3f 77 04 86 3f 33 90 76 3f
       0.8830126 1.0134655 1.0470113 0.9631378
000060 ad ba 78 3f bd 61 73 3f 2f 57 6b 3f fc ba 7e 3f
       0.97159845 0.9507101 0.91929907 0.99504066
000070 89 b4 85 3f 76 d4 72 3f bc b7 66 3f 5c a1 8b 3f
       1.044572 0.9485544 0.90124106 1.0908618
000080 25 68 7a 3f ff 3c 80 3f ec 62 76 3f fe a0 79 3f
       0.9781516 1.0018615 0.9624469 0.9751128
000090 d6 4e 6a 3f c5 9b 64 3f 2f 75 82 3f 74 48 87 3f
       0.91526544 0.89300185 1.0192012 1.0568986
0000a0 ea f9 82 3f f6 50 89 3f 7b c9 5c 3f 6d 94 80 3f
       1.0232518 1.0727832 0.86244935 1.0045296
0000b0 f3 1f 72 3f e8 ae 5c 3f 92 7c 83 3f ac 08 67 3f
       0.9458 0.86204386 1.0272391 0.9024761
0000c0 fe be 83 3f 78 f0 70 3f 52 97 6e 3f db 5b 7e 3f
       1.0292661 0.94116926 0.93199646 0.9935891
0000d0 e1 e5 7a 3f a7 a1 5e 3f f7 a7 72 3f 1d b0 52 3f
       0.9800702 0.8696541 0.94787544 0.8229998
0000e0 a1 2b 71 3f 09 21 63 3f 21 d0 64 3f 80 2a 84 3f
       0.942072 0.8872228 0.8938008 1.032547
0000f0 05 98 8b 3f 3f 2e 66 3f 6f 4b 89 3f f8 53 70 3f
       1.0905768 0.89914316 1.0726146 0.93878126

encoder.11.bias f4 [64]
000000 9f 58 23 3e 48 3c 50 be 7a ff 42 3e 44 6e 94 be
       0.15951775 -0.20335495 0.19042769 -0.28990376
000010 47 00 a9 be a6 9f 36 3d 66 7c 9f be 62 11 9b be
       -0.33008024 0.044585846 -0.31149596 -0.302867
000020 77 eb 12 bd 85 63 d2 3d 95 ec 02 3c 3b ac 68 be
       -0.035869088 0.10272888 0.007990976 -0.2272195
000030 ef b7 13 3e 36 40 0e 3d 4c 31 30 3d 33 ca 7a bc
       0.14425634 0.034729205 0.043015763 -0.015306997
000040 82 87 2a 3d e5 48 8d bc 10 23 e9 bb 00 c4 e5 3d
       0.041633137 -0.017246673 -0.0071147755 0.11219025
000050 bf 6c 0e 3e c7 70 fb bb 75 35 8f 3b bb cd a1 be
       0.13908671 -0.007673356 0.0043703862 -0.31602272
000060 88 c0 b4 be 94 16 1c 3e a0 48 9d be 41 4c a2 3c
       -0.3530314 0.15242988 -0.3071947 0.019811751
000070 b9 c3 de bb 3a ff 00 3e f9 32 23 3e 17 8c 17 bd
       -0.0067982343 0.12597361 0.15937413 -0.036998834
000080 21 b0 ac be 3c 23 71 bc 6c e4 cc bc d8 e7 46 3e
       -0.33728126 -0.014717873 -0.025011264 0.19424379
000090 42 5e e4 3d 5d 08 17 3e 53 5b 2b 3a 45 cc 12 bd
       0.11150791 0.14749284 0.00065367407 -0.035839338
0000a0 75 e8 ac bc 33 6c 0c 3d 51 d8 1b 3e 87 61 97 be
       -0.021106938 0.034282874 0.15219237 -0.29566595
0000b0 51 15 3a 3e 2a 6c 4b 3e ab ff 70 bd df 1e 20 3e
       0.18172194 0.1986548 -0.058837574 0.15636776
0000c0 56 ac c8 3d a6 eb 78 3d 79 48 6a 3d 9c 97 c0 bc
       0.097984955 0.060771607 0.05719802 -0.023509793
0000d0 fd 6d b1 be b9 ef 07 3e 0f f1 b1 be e3 b8 09 bd
       -0.34654227 0.1327504 -0.34754226 -0.033623587
0000e0 ce f4 a6 be f0 9e 20 3e f5 52 1e 3e 12 e7 aa 3b
       -0.32608646 0.1568563 0.15461333 0.005215534
0000f0 fa c7 c6 be e7 a7 1d 3d 32 46 db bc 13 d6 e6 3c
       -0.38824445 0.038490202 -0.02676687 0.02817825

encoder.11.running_mean f4 [64]
000000 ff 4e b8 3c d9 e4 95 3c 91 c0 f7 3f 56 22 c6 bf
       0.022498606 0.0182976 1.9355642 -1.5479228
000010 ab 01 28 c0 c8 f2 86 bf f5 f1 e4 bf 49 77 e9 bf
       -2.6251018 -1.0542841 -1.788634 -1.8239528
000020 b5 de a7 bf c1 5e 00 bf e3 c0 68 bf df 86 25 be
       -1.311484 -0.50144583 -0.9091932 -0.1616473
000030 7e 42 ee 3f d2 67 8f bf 85 8d 9a 3f a4 df 3e bf
       1.8614042 -1.1203558 1.2074438 -0.7456
000040 44 06 d7 3f c8 59 a6 be 2b 78 e3 be 39 86 0f 40
       1.6798787 -0.32490373 -0.44427618 2.2425673
000050 73 a3 03 40 8e c0 04 bf c7 95 95 bd 76 d8 ff bf
       2.0568511 -0.51856315 -0.073039584 -1.9987934
000060 a3 df aa bf 06 e8 6b 3f e9 bd f9 bf c1 ae 95 bf
       -1.3349499 0.92150915 -1.9511081 -1.1693956
000070 b6 56 6d bf c5 6e b8 3f 29 53 49 3f b2 5f af bf
       -0.92710435 1.4408804 0.7864252 -1.3701079
000080 04 72 9a bf b6 97 4d bf f2 0f 65 be d2 50 71 3f
       -1.2066045 -0.8030962 -0.22369364 0.94263947
000090 d2 1c 10 40 0b 47 bd 3f 27 ba 48 bf 2a d7 18 bf
       2.251759 1.4787306 -0.78409046 -0.59703314
0000a0 65 b8 2a bf d4 d6 f3 be f2 2d d3 3f a8 dc ce bf
       -0.66687614 -0.47624838 1.6498396 -1.6161089
0000b0 f8 df d2 3e 90 c0 aa 3f ca 9d 69 bf 69 80 13 3f
       0.411865 1.3340015 -0.9125639 0.57617813
0000c0 10 3e 62 be 09 16 e0 3f 94 02 02 40 36 19 25 bf
       -0.22093987 1.7506725 2.0314074 -0.64491594
0000d0 ef 0e ae bf b6 3b ec 36 cc af 0d c0 3f d5 05 c0
       -1.3598307 7.0402994e-06 -2.2138548 -2.0911405
0000e0 78 01 fc bf d2 6d b7 3f 93 e8 8a 3f d6 23 89 be
       -1.9687948 1.433039 1.0852226 -0.26785153
0000f0 bd 66 a4 bf d8 17 1e 40 5b 8e 32 bf e9 a1 e7 3f
       -1.2843853 2.4702053 -0.6974847 1.8096286

encoder.11.running_var f4 [64]
000000 b9 df 1b 41 86 52 05 41 68 e0 63 41 fa 7a ab 40
       9.74212 8.332647 14.242287 5.358762
000010 63 c1 05 41 fa 86 f7 40 be 20 eb 40 d2 e7 c5 40
       8.359714 7.7352266 7.347747 6.1845484
000020 8a 9f 84 40 db 51 31 40 1a 0c ea 40 d7 40 16 40
       4.144475 2.770621 7.3139772 2.3477075
000030 cf 4a 45 41 aa 5a 01 41 5a 63 82 41 06 92 b4 40
       12.330764 8.084635 16.298512 5.642825
000040 b5 ae f5 40 df ac 9f 40 a2 55 a0 40 5c ee 87 41
       7.6775765 4.9898524 5.010453 16.991386
000050 24 ea 55 41 5a 66 bc 40 95 d4 85 40 8b 53 07 41
       13.369663 5.887494 4.1822 8.457896
000060 39 11 92 40 ad 35 2b 41 5f 0e 24 41 5e 0d fc 40
       4.5646024 10.700604 10.253509 7.8766317
000070 cd a4 b8 40 7b 75 1a 41 c5 73 f3 40 7c 62 cf 40
       5.7701173 9.653682 7.607882 6.480772
000080 3b 25 9b 40 8c d3 72 40 13 bf 86 40 b3 d7 1e 41
       4.8482947 3.7941618 4.2108245 9.927661
000090 a3 b3 49 41 b1 0a 55 41 d5 c1 89 40 89 55 bf 40
       12.606357 13.31511 4.304911 5.9791913
0000a0 2b df 8b 40 0d 29 83 40 db ba 1c 41 e1 19 ff 40
       4.370992 4.098761 9.795619 7.971909
0000b0 46 44 2e 41 af 99 17 41 96 9d 06 41 d4 76 3c 41
       10.891668 9.47502 8.413473 11.779011
0000c0 26 b2 31 41 2f de 33 41 04 00 79 41 0c fb 93 40
       11.105993 11.241744 15.562504 4.6243954
0000d0 1f 7e 16 41 61 b2 a3 40 89 41 fd 40 e0 0d 6c 41
       9.405791 5.115525 7.91425 14.753387
0000e0 53 32 cc 40 c6 a4 34 41 99 d7 2d 41 8f 19 ae 40
       6.381143 11.290228 10.865136 5.44062
0000f0 47 04 b8 40 d3 6d a8 40 2e 49 c2 40 b7 f2 57 41
       5.750522 5.2634063 6.071433 13.496757

decoder.0.weight f4 [64, 32, 2, 2]
000000 83 c4 a5 bd e0 86 a8 3c a8 90 05 bd 44 74 3b 3d
       -0.08094122 0.020572126 -0.032608658 0.045765176
000010 62 98 cb bd 1b 70 23 be 84 2d 11 be 28 a8 b6 bd
       -0.09941174 -0.15960734 -0.14177519 -0.08918792
000020 fe 50 1d be 24 99 7d bd 33 5f 86 bc 49 57 e2 bd
       -0.15362927 -0.061913624 -0.016402816 -0.110518046
000030 b9 15 4a be 06 dc 71 3c da 05 28 3d 27 f2 b7 bc
       -0.19734849 0.01476193 0.041021205 -0.022454334
000040 d4 24 3d be 3f ca d7 3c 3a d8 e9 3d fe 15 98 bc
       -0.1847108 0.026341556 0.11418195 -0.018565174
000050 58 8b 01 be d3 1a 09 3d d7 c0 e2 bd 9f 5f 47 3d
       -0.12650812 0.033472847 -0.110719375 0.048675176
000060 3a dd 12 be 71 2d ad 3c 26 17 48 3d 4d f4 21 3d
       -0.14342204 0.021139832 0.0488502 0.039539624
000070 47 8d 20 3d 9e d1 cb 3b 86 ed 8f bd 38 17 47 3c
       0.039197233 0.0062200567 -0.07027726 0.012151532
000080 40 6d 9d 3a d5 ff cd 3d c8 f1 b5 3c 93 15 f5 3d
       0.0012010708 0.10058562 0.022210017 0.119670056
000090 7b 02 de bd 31 c5 0b 3d fc 31 4b 3d 8f d5 8e 3d
       -0.10840317 0.034123603 0.049608216 0.06974327
0000a0 48 ee d1 bd 1e 06 67 3d e6 ca c1 3d 56 9f a8 3d
       -0.10250527 0.05640232 0.09462528 0.08233516
0000b0 d8 82 58 be 8d 3d e6 3c 86 79 93 3d e7 38 5f 3d
       -0.21143663 0.028105522 0.07200913 0.054497626
0000c0 96 5c 07 be 83 5d 79 3d 3a ca 86 3d 39 bb b3 3d
       -0.13218912 0.060880195 0.065815404 0.08775944
0000d0 4a eb 3c be 88 1c f0 bb 84 6a 93 bd 99 ae 3a 3c
       -0.1844913 -0.00732762 -0.071980506 0.011394166
0000e0 7e 9a e7 bd 27 7b 4c be 6b 0f 1f be b1 81 3e be
       -0.11308764 -0.19968854 -0.15533225 -0.18604161
0000f0 86 0f b2 bd 5e 8c b7 bd a6 5d 97 3c 8f ef 23 bd
       -0.08694367 -0.0896232 0.018477272 -0.040023383
000100 27 cd a0 3c 51 39 ea 3b 4e a8 d7 bc c2 65 36 3c
       0.019629074 0.007147946 -0.026325371 0.011132659
000110 da e8 82 3b 2a f9 9b 3c 66 c7 74 3d 35 16 54 3d
       0.003995043 0.01903971 0.059760474 0.05177899
000120 00 25 30 bc 26 c5 10 bd 1b d9 38 3d 7f c5 0a 3c
       -0.010751009 -0.035344265 0.045128923 0.008469938
000130 ac b0 8f bd a0 ca 8b 3d 21 ce 06 3d 44 b7 29 bd
       -0.07016119 0.06825757 0.032911424 -0.04143454
000140 28 aa 0a bc 0f 4f 6e bc f6 41 d3 3c c0 8e 27 3d
       -0.00846342 -0.014545216 0.025788289 0.04090762
000150 b7 77 7b bd ae 6b 18 bc b5 a7 cf bc 14 14 04 bd
       -0.061393466 -0.009303017 -0.025348524 -0.03224571
000160 fa 42 22 bd 73 db 5e bd 60 b3 14 bd c2 ce a2 3c
       -0.039614655 -0.0544085 -0.036303878 0.01987398
000170 9f 1b b4 bd 78 65 5f 3d 8b 0d 51 3d 65 32 0e bc
       -0.08794331 0.054540128 0.051038306 -0.008679007
000180 13 af 1f be bb c9 21 be c6 d9 45 be 4b 13 2d be
       -0.1559413 -0.1579961 -0.19321355 -0.16901891
000190 c6 24 38 bd 8f 54 d2 bc 59 cd ed bb e7 58 42 bd
       -0.044956945 -0.025675086 -0.0072571454 -0.047448065
0001a0 62 1e f7 bb 35 d9 2f 3d 2d 48 f1 bd d0 57 04 3d
       -0.0075414637 0.042931754 -0.117813446 0.032310307
0001b0 2a 44 b0 bb 61 82 95 bd 63 d6 29 be 62 c0 c0 bd
       -0.0053792195 -0.073002584 -0.16585688 -0.09411694
0001c0 eb eb c4 bc 47 9c 56 bd 86 cc d4 bc f3 f1 a3 bd
       -0.024038276 -0.05239513 -0.02597643 -0.080051325
0001d0 1c 39 ef bc 4b bc 27 3d 7f 93 99 3c a6 73 03 3d
       -0.029202037 0.040951055 0.01874709 0.032092713
0001e0 30 c1 5c bc 01 3c c4 3c 80 43 b4 bd 80 64 93 bc
       -0.013473794 0.023954393 -0.08801937 -0.017992258
0001f0 88 f8 12 bb ca 75 cf bd a7 ed 0b bc 0c e4 88 bd
       -0.0022425968 -0.10129888 -0.008540547 -0.066841215
000200 33 d6 9a bc 0d b3 41 bc 33 7d 8c bd 4c 13 0c bd
       -0.018900966 -0.011822474 -0.06859817 -0.03419809
000210 50 57 a8 3d da 97 03 3e b7 1d 0b 3e f4 21 09 3e
       0.082197785 0.12850896 0.13585554 0.13391858
000220 64 06 99 3d f2 4a 8e bc 35 67 a2 3c 1b 73 be bd
       0.07471922 -0.017369721 0.019824604 -0.092992984
000230 fe 4c c1 bd 90 af bf 3c 00 6b 6e bd 6a b4 94 ba
       -0.09438513 0.023399144 -0.058207512 -0.0011345271
000240 d1 9c 21 be df e1 5c 3d 5e eb d0 3c 23 b6 e7 3c
       -0.15782477 0.053926345 0.025502857 0.028285092
000250 39 73 20 be 78 23 cc bc b3 67 2c bd ba 1c ca bc
       -0.15668954 -0.024919257 -0.042091083 -0.024671901
000260 73 0b 4e bd 40 20 8c 3d 10 54 29 3d a0 38 d5 3a
       -0.050303888 0.06842089 0.041339934 0.0016267486
000270 9a 17 f3 3c 42 3b 41 bd 4f d4 ff bc 70 d4 21 be
       0.02967434 -0.047175653 -0.031229166 -0.15803695
000280 2f b1 64 bc e2 df 0d bc 3a e8 c8 bd e1 a3 28 bc
       -0.0139582595 -0.008659335 -0.09809919 -0.010292978
000290 7f 41 0f be 20 da c4 3c ba 7a 71 3d c8 4e 2e 3d
       -0.13989829 0.024029791 0.05895493 0.0425556
0002a0 dd d4 2e be 0a 96 58 3d 70 06 be 3d d0 05 d5 3c
       -0.17073388 0.052877463 0.092785716 0.026003748
0002b0 e3 4f 0e be 02 c8 ae 3c e3 08 65 3c 55 b7 0b bd
       -0.13897662 0.021335606 0.01397917 -0.034110386
0002c0 ec 18 59 be 44 49 0c bc 8c d4 fa 3c 2e 3b a4 bb
       -0.21200913 -0.00856239 0.030618928 -0.0050119376
0002d0 2b ef 7f be 16 74 5b bd 30 a3 63 3d 2e cf 3a bd
       -0.24993579 -0.053577505 0.05557555 -0.04560774
0002e0 21 22 2b 3d 1d c6 f4 3d 30 f1 15 3e 62 d1 f5 3d
       0.041780595 0.119518496 0.14642787 0.12002827
0002f0 b4 19 d8 bd c8 7f b7 bd 77 e1 bc bd de dc 31 bd
       -0.105517775 -0.08959919 -0.092226915 -0.043423526
000300 d5 cc bc 3c f7 85 15 be f4 be 07 be 30 2c 42 3b
       0.02304689 -0.14601885 -0.13256437 0.0029628389
000310 5a a8 8f 3d a1 60 89 3d 50 42 c9 3d bc 38 fe 3c
       0.070145324 0.067078836 0.09827101 0.031032912
000320 80 30 08 be cd 30 00 be 53 6e 93 bc c6 ec 06 be
       -0.13299751 -0.12518616 -0.017996943 -0.1317626
000330 b6 bf 06 bc 9f bd 9e 3d 54 4e c3 3d 3d da 47 3d
       -0.008224418 0.07751011 0.09536424 0.048792113
000340 83 87 83 bd 23 b2 ae bc fe 89 43 bb 2a 90 d1 bc
       -0.06422331 -0.021325177 -0.0029836888 -0.025581438
000350 6b b0 44 3d 69 89 82 3d 98 de 90 3d 3e a0 85 3d
       0.048019808 0.06373865 0.070737064 0.065247044
000360 a8 42 da bd fe 3e b4 bd 2b 9d f8 bd 3e f4 de bc
       -0.10657245 -0.08801077 -0.121393524 -0.027216073
000370 78 b1 bd bb a1 f0 81 3d 12 40 07 3e 1d 0b 3f 3d
       -0.005788978 0.063447244 0.13208035 0.046641458
000380 76 cb a7 3d 32 82 f0 3d 73 44 d9 3d 84 3a 00 3e
       0.08193104 0.11743583 0.10608759 0.12522322
000390 42 b8 a0 bd 13 20 f7 bd c6 be 59 be d8 d3 e9 bc
       -0.078476444 -0.120666645 -0.2126418 -0.028543398
0003a0 03 57 09 be 4e 74 9e 3c ad 16 b0 bd 6d 26 e6 bc
       -0.13412099 0.019342568 -0.08598075 -0.028094495
0003b0 e0 45 26 bd 4b dc 85 bd 5a 96 00 3c 7e 9d b9 bd
       -0.04059398 -0.06536158 0.007848347 -0.090632424
0003c0 b0 34 14 be 12 7f 49 3d 2e 73 2d 3d b5 5a 9d 3c
       -0.14473224 0.04919345 0.042346172 0.019208292
0003d0 da d3 d1 bd f7 e3 15 3d 1b 65 d1 bc 56 f8 b8 3c
       -0.102454856 0.036594357 -0.025560906 0.022579353
0003e0 8d 94 41 be b0 2a e7 3c 99 2a 87 bd 35 93 2c bb
       -0.18904324 0.028218597 -0.06599922 -0.002633286
0003f0 78 06 f0 bc b6 02 4c 3d f6 a3 a5 bc 37 84 ef 3c
       -0.02929996 0.049807273 -0.020219784 0.02923785

decoder.0.bias f4 [32]
000000 02 b1 87 bd 74 d6 94 bd b5 2e ba 3c a6 48 43 3d
       -0.066255584 -0.07267466 0.02272735 0.047676705
000010 c1 93 33 bc c7 cf 5b 3d 50 c6 11 bd ba af 1f bd
       -0.01096052 0.05366495 -0.035589516 -0.038985945
000020 ac 67 a7 bc 03 53 dd ba b0 cf 79 3c 1c f1 7d bc
       -0.020435177 -0.0016885701 0.01524727 -0.0154993795
000030 4a 8a 40 bd b5 5e 00 3d 52 1f a2 bc de 52 b0 3d
       -0.047006883 0.03134032 -0.019790325 0.08609556
000040 40 3f 34 3d fd f8 45 bd be 06 92 bd 1e 99 88 bc
       0.044005632 -0.048333157 -0.07130192 -0.016674574
000050 39 35 13 bc 63 67 7b 3d 38 58 ac bc 5f 4d 45 bd
       -0.008984857 0.061377894 -0.02103816 -0.04816949
000060 bd b1 67 bd 5f fa 93 bc 73 30 75 bd 3d 5e 6e 3c
       -0.05656599 -0.018063722 -0.059860658 0.014548835
000070 14 e9 6a bd 57 3f a5 3c 77 34 15 3c a6 f6 18 bb
       -0.057351187 0.020171804 0.009106747 -0.0023340373

decoder.1.weight f4 [32]
000000 30 41 61 3f e4 05 91 3f b9 19 84 3f 7c da 5a 3f
       0.87990093 1.1329923 1.032035 0.8548963
000010 cb 09 47 3f d1 08 4f 3f 6a c9 3d 3f bf 36 83 3f
       0.7774932 0.8087283 0.7413546 1.0251082
000020 fc c6 5a 3f 07 7f 57 3f bf 22 4d 3f d8 3c 60 3f
       0.85459876 0.84178203 0.80131143 0.8759284
000030 98 43 58 3f 82 54 68 3f d4 4c 9f 3f 61 2e 75 3f
       0.8447814 0.9075395 1.2445321 0.95773894
000040 32 fb 78 3f af b9 41 3f 43 ec 7d 3f 8c 27 52 3f
       0.97258294 0.75673956 0.9918863 0.82091594
000050 1d e5 63 3f f2 14 94 3f e8 16 81 3f 06 16 59 3f
       0.89021474 1.1568892 1.0085115 0.8479923
000060 dd 63 ad 3f 38 0d 83 3f 12 89 68 3f d0 ae 8a 3f
       1.3546101 1.0238409 0.9083415 1.0834599
000070 fa 65 99 3f 2e 58 45 3f d7 4d 85 3f 14 a9 8d 3f
       1.1984246 0.77087677 1.041438 1.1067224

decoder.1.bias f4 [32]
000000 5a e1 f0 bd 06 bc 4d be 63 84 0d 3c 4d 2b 95 3a
       -0.117617324 -0.20091256 0.0086375205 0.0011380702
000010 39 a8 88 3c 08 d3 65 bd 08 f8 57 bd bd a7 c7 3c
       0.016681777 -0.05610946 -0.052726775 0.024371976
000020 b4 3f 98 bb 35 e2 06 be d6 4e c7 bd e1 8a de bd
       -0.004646266 -0.13172229 -0.09731834 -0.10866333
000030 0f 5f 62 bd 71 45 9a 3d 7c 6f ab bc 95 0f 4a 3d
       -0.055266436 0.07532776 -0.020927183 0.049331266
000040 43 ba 0c bc b7 58 a3 be 49 ce 9b 3d f4 f5 c0 bd
       -0.00858933 -0.31903622 0.07607705 -0.09421912
000050 6e 1b d6 bd 59 5f 9d bd 61 0a 2c bc bd 61 b1 bd
       -0.104544505 -0.07684202 -0.010500521 -0.0866122
000060 e4 8d 60 bd ff b8 3d 3d c4 ea b4 3d c4 8d 23 bd
       -0.054822817 0.046319004 0.088338405 -0.03993012
000070 a0 a0 c5 3d 14 8e 0b be 9a 2d 08 3d f1 77 5e bd
       0.096497774 -0.13628417 0.033246614 -0.054313604

decoder.1.running_mean f4 [32]
000000 0d 2b 8f 3e c0 fe 9d bf ee cd 9d be cc 57 b6 be
       0.27962533 -1.2343369 -0.30821174 -0.3561386
000010 ee 83 a9 bd ec 5c b8 be 7f 4a 00 bd 16 df d3 be
       -0.08277117 -0.36008394 -0.031321045 -0.4138114
000020 77 53 0e be db b7 24 ba 11 11 f9 3d 75 b7 0b be
       -0.13899027 -0.00062835 0.12161458 -0.13644202
000030 32 1e 6c be 27 1c 84 bf df d9 9c bf 0a 03 7c be
       -0.23058394 -1.0321091 -1.2253989 -0.24610534
000040 30 72 f0 be 2c 96 85 3f 9a d8 06 bf 75 bc 03 3e
       -0.46962118 1.0436454 -0.5267426 0.1286486
000050 5a 9d bb 3e 1f b6 6e bf db 9a 05 bf f2 67 85 3e
       0.36643487 -0.93246645 -0.52189416 0.26055866
000060 84 d8 a7 bf b4 ff e4 be e3 f1 b7 be 53 92 23 bf
       -1.311295 -0.44726336 -0.35926732 -0.6389515
000070 7a 08 f8 be fb e5 ac 3d 72 0c 50 bf 43 3e 83 bf
       -0.48443967 0.08442303 -0.8126899 -1.0253376

decoder.1.running_var f4 [32]
000000 ed 14 4f 40 23 3d bb 40 9f d9 1e 40 4f 06 ef 40
       3.2356522 5.851213 2.4820325 7.46952
000010 bb 7c d0 40 1e ef bc 40 56 7d 8b 40 74 a2 8b 3f
       6.515226 5.904189 4.35905 1.0908952
000020 cf 7c b2 40 00 ae 96 40 4b e3 82 40 4b 60 ac 40
       5.5777354 4.70874 4.0902457 5.3867545
000030 a2 50 00 41 7c ee 05 41 7f c3 16 41 d8 97 c8 3f
       8.019686 8.370724 9.422729 1.5671339
000040 91 9d f7 3f 3f 3c f6 3f 9a d6 93 40 6e 7c fe 3f
       1.934496 1.9237136 4.6199465 1.9881723
000050 5f e1 bb 3f af 92 bd 3f 97 35 f8 3f c9 f0 90 3f
       1.4678153 1.4810389 1.9391354 1.1323482
000060 13 99 20 41 87 ac c6 3f c9 48 bb 40 36 b2 89 40
       10.037372 1.5521401 5.852635 4.3030043
000070 35 08 78 3f 82 26 99 40 19 69 97 40 0a dd 83 40
       0.9688752 4.7859507 4.7315793 4.1207323
