Models/model_cnn/flood_cnn_epochs_20.pth (torch, 150547 bytes, 31 tensors)

encoder.0.weight f4 [16, 2, 3, 3]
-0.023658292 0.04199932 0.12154127 -0.053994942 0.026604116 0.1809067 -0.07898072 -0.13784835
-0.12896721 -0.047210168 0.08463683 -0.048889477 0.059159562 -0.117594585 -0.2664833 0.076292366
0.056898348 -0.51898456 -0.046933085 0.043921858 -0.013815054 0.06099225 -0.009395569 -0.11318119
-0.03050391 -0.16473232 -0.42605117 -0.04486061 0.017166862 0.02843528 0.08758416 0.044251446
-0.30887553 -0.030636165 0.032027047 -0.25408855 -0.16638947 -0.24806537 -0.3296126 -0.2626366
-0.29027474 -0.032954358 -0.14371666 -0.020627035 -0.06106257 -0.079136215 0.166429 0.055678982
-0.09913399 0.22215068 -0.15791918 0.14638884 0.024483768 0.22392976 -0.07777552 0.13377757
0.13415095 0.1255557 -0.006307047 0.115221016 -0.02637169 0.20749244 0.30555323 -0.21139616
0.12638511 -0.028946362 0.12832335 -0.10666767 0.24070325 -0.052223586 0.2072444 0.23860896
0.023155287 0.04472389 -0.11146765 -0.05309443 -0.14976516 -0.3184568 -0.10172015 -0.24817292
-0.2902534 -0.033461977 -0.020312088 -0.039283942 0.11861217 0.10162118 0.00048335225 -0.05007077
-0.007605602 -0.42286104 -0.11956739 0.10747757 -0.021257328 -0.00029834718 0.04248446 0.32692403
-0.060939003 -0.077623464 0.2107931 0.04881814 -0.04496397 0.026882712 -0.25583395 -0.028344074
-0.11846484 0.09405669 0.24684688 0.2397148 0.14820918 0.16076213 0.015972983 -0.054250672
-0.0337147 -0.16356024 -0.1458562 -0.14226463 -0.33952132 -0.032497406 -0.1279829 -0.089591235
-0.004592587 0.16361931 0.21039467 0.059657305 0.014851724 0.1400148 -0.02157076 -0.14635088
0.07272906 0.08383379 0.11257961 -0.11573307 -0.00950164 0.051261358 0.31138977 -0.09285916
0.09114577 -0.14903854 -0.08505998 -0.09656827 0.1824583 0.015890716 0.001224724 0.28263688
0.02598471 0.016718272 -0.0035923128 0.12232258 -0.18156026 -0.28085822 -0.16185087 -0.2874117
-0.2401188 -0.013376106 0.03327089 -0.1932929 0.035314266 0.11296179 0.00911317 -0.14646223
0.17217332 0.121451505 0.025387362 -0.10145033 0.10898959 0.00040012575 0.03040478 0.023941582
0.027406352 -0.006121659 -0.45502117 -0.026322002 0.03882122 0.020031923 0.029486798 0.022950104
-0.17657511 -0.011745942 0.11114434 -0.4494462 -0.019804182 0.016665105 -0.0768113 0.085355304
-0.18315916 -0.06627685 -0.1657638 -0.22932285 -0.469874 0.09133704 -0.0560932 -0.0026515797
-0.089618824 0.075430706 0.09979781 0.03413516 -0.049910057 -0.45164105 0.20940408 -0.003942312
0.23589857 0.12610221 0.23224889 0.032811712 0.25875604 0.015410101 0.45966664 -0.021895874
0.16109864 -0.0019113646 0.09000876 -0.08415528 0.08722862 0.12303427 0.15387979 0.20768447
-0.044774234 0.04784063 -0.25791243 0.17647336 0.029350165 -0.39063844 -0.1765 0.089877024
-0.28943816 0.06198784 -0.049582735 0.14508936 -0.01727231 -0.041863125 0.017825386 -0.14017096
-0.15949403 0.28025034 -0.11467597 0.09736109 0.15311629 0.15438879 -0.16313289 -0.14192462
-0.16646414 0.05330673 0.17987172 -0.057074834 0.16370082 -0.01115416 0.046555646 -0.06783772
0.10645567 0.18843237 -0.25199845 -0.604627 -0.0056885215 -0.024619168 -0.06247581 0.135205
00000000: 09cf c1bc 7b07 2c3d a1ea f83d cd29 5dbd
00000010: e0f0 d93c 9b3f 393e a5c0 a1bd 1e28 0dbe
00000020: fb0f 04be 735f 41bd 1356 ad3d 5540 48bd
00000030: 4c51 723d 6ed5 f0bd 8070 88be 2c3f 9c3d
00000040: 3e0e 693d 2cdc 04bf e83c 40bd 68e7 333d
00000050: 8958 62bc 02d3 793d dfef 19bc 8acb e7bd
00000060: 56e3 f9bc 97af 28be 6123 dabe c2bf 37bd
00000070: 85a1 8c3c 1bf1 e83c 535f b33d 0141 353d
00000080: ef24 9ebe b2f8 fabc cb2e 033d e517 82be
00000090: 0062 2abe d904 7ebe fcc2 a8be 4e78 86be
000000a0: e49e 94be 26fb 06bd 762a 13be 07fa a8bc
000000b0: bf1c 7abd 2b12 a2bd 5d6c 2a3e a50f 643d
000000c0: c306 cbbd 787b 633e 91b5 21be f5e6 153e
000000d0: 2f92 c83c d84d 653e c648 9fbd fdfc 083e
000000e0: de5e 093e ac91 003e 58ab cebb fff8 eb3d
000000f0: 7109 d8bc e678 543e 7971 9c3e 3c78 58be
00000100: 196b 013e ec20 edbc 3267 033e 9474 dabd
00000110: ea7a 763e 66e8 55bd e037 543e e855 743e
00000120: 28b0 bd3c 6630 373d 2749 e4bd 8c79 59bd
00000130: 0a5c 19be c50c a3be a752 d0bd 0b21 7ebe
00000140: 189c 94be 6d0f 09bd 8965 a6bc 33e8 20bd
00000150: f0ea f23d c41e d03d 716a fd39 0217 4dbd
00000160: 6a38 f9bb 3e81 d8be bfdf f4bd 331d dc3d
00000170: d923 aebc 7b6b 9cb9 2f04 2e3d 9662 a73e
00000180: 2d9b 79bd 0df9 9ebd 25da 573e 88f5 473d
00000190: 242c 38bd 2239 dc3c abfc 82be d531 e8bc
000001a0: b29d f2bd cba0 c03d 6ec5 7c3e cc77 753e
000001b0: 26c4 173e d49e 243e c6d9 823c f435 5ebd
000001c0: 6d18 0abd 567c 27be 545b 15be d2ad 11be
000001d0: bdd5 adbe 001c 05bd f30d 03be 9c7b b7bd
000001e0: 697d 96bb d28b 273e b371 573e 385b 743d
000001f0: a554 733c 0a60 0f3e 2ab5 b0bc 01dd 15be
00000200: f9f2 943d 0db1 ab3d 2390 e63d 7605 edbd
00000210: c4ac 1bbc 6ef7 513d 7b6e 9f3e f12c bebd
00000220: a2aa ba3d 8f9d 18be ed33 aebd 96c5 c5bd
00000230: 59d6 3a3e 3f2d 823c eb86 a03a c8b5 903e
00000240: e3dd d43c c2f4 883c 026d 6bbb 4384 fa3d
00000250: efea 39be a6cc 8fbe 3cbc 25be a027 93be
00000260: b4e1 75be 7427 5bbc 0f47 083d 93ee 45be
00000270: b1a5 103d 8358 e73d 684f 153c 32fa 15be
00000280: 344e 303e 91bb f83d 28f9 cf3c 31c5 cfbd
00000290: ef35 df3d f8c7 d139 7213 f93c 2321 c43c
000002a0: 4983 e03c 3398 c8bb 89f8 e8be 3da1 d7bc
000002b0: 0003 1f3d fd19 a43c 4c8e f13c db01 bc3c
000002c0: 1bd0 34be 0d72 40bc a59f e33d d01d e6be
000002d0: 613c a2bc 4285 883c 3e4f 9dbd c3ce ae3d
000002e0: 138e 3bbe 28bc 87bd fcbd 29be 9cd3 6abe
000002f0: 5393 f0be ea0e bb3d fcc1 65bd 20c6 2dbb
00000300: 138a b7bd 6a7b 9a3d cb62 cc3d 4fd1 0b3d
00000310: 7d6e 4cbd 7f3d e7be 066e 563e 832e 81bb
00000320: 658f 713e f020 013e a7d2 6d3e 9365 063d
00000330: ac7b 843e a67a 7c3c 6d59 eb3e fa5e b3bc
00000340: 0bf7 243e c186 faba 8356 b83d 9a59 acbd
00000350: eba4 b23d 64f9 fb3d aa92 1d3e 3dab 543e
00000360: 3065 37bd 89f4 433d 190d 84be 6fb5 343e
00000370: c26f f03c c301 c8be 6abc 34be 7211 b83d
00000380: 3d31 94be f6e6 7d3d 4417 4bbd 4e92 143e
00000390: a97e 8dbc ab78 2bbd 8b06 923c fa88 0fbe
000003a0: 6752 23be f97c 8f3e 3cdb eabd 4065 c73d
000003b0: 84ca 1c3e 1818 1e3e 4f0c 27be b054 11be
000003c0: 9375 2abe 2858 5a3d 4b30 383e 4dc7 69bd
000003d0: 30a1 273e f0bf 36bc 22b1 3e3d 81ee 8abd
000003e0: 6e05 da3d 6af4 403e f105 81be d6c8 1abf
000003f0: c766 babb 23ae c9bc a3e6 7fbd 2e73 0a3e

encoder.0.bias f4 [16]
0.16072774 -0.044306405 0.15505244 -0.014842477 0.24113885 0.0041960594 -0.19111948 -0.007084626
0.2452542 0.20254393 0.05047521 -0.14284757 0.042754535 -0.056800593 0.010669244 0.24956065
00000000: d095 243e a27a 35bd 11c6 1e3e dc2d 73bc
00000010: 1aed 763e 197f 893b d3b4 43be 2626 e8bb
00000020: eb23 7b3e ad67 4f3e 18bf 4e3d a246 12be
00000030: 611f 2f3d bda7 68bd 0ece 2e3c d48c 7f3e

encoder.1.weight f4 [16]
0.99035907 1.0349938 0.9920621 1.0809793 1.0516907 0.945418 0.9060731 0.98977757
1.0008278 1.0327129 1.0707313 1.0725253 1.0305414 0.9844677 1.0068679 1.0080394
00000000: 2c88 7d3f ad7a 843f c8f7 7d3f 885d 8a3f
00000010: cd9d 863f ea06 723f 68f4 673f 1062 7d3f
00000020: 201b 803f f02f 843f b90d 893f 8248 893f
00000030: c8e8 833f 1306 7c3f 0ce1 803f 6f07 813f

encoder.1.bias f4 [16]
0.0021411588 0.0009876922 0.0010747814 0.11251381 -5.3096785e-05 0.08729728 0.00031887373 0.12584367
0.0021980861 -0.00011176621 -0.00039696653 0.10283092 0.004148347 0.008349712 -0.0008810952 0.007754616
00000000: af52 0c3b 7375 813a aedf 8c3a a46d e63d
00000010: 3db4 5eb8 ebc8 b23d 822e a739 2add 003e
00000020: c40d 103b 0764 eab8 f21f d0b9 0499 d23d
00000030: dbee 873b 3bcd 083c 4cf9 66ba 6f1a fe3b

encoder.1.running_mean f4 [16]
0.15946537 -0.044138845 0.1547604 -0.015138257 0.24113399 0.002152291 -0.19034338 -0.0072362428
0.24502505 0.20183806 0.050725713 -0.14228624 0.04247289 -0.056696534 0.010945242 0.2503794
00000000: e44a 233e efca 34bd 8379 1e3e 7406 78bc
00000010: d4eb 763e 730d 0d3b 60e9 42be 011e edbb
00000020: d9e7 7a3e a3ae 4e3e c4c5 4f3d 7cb3 11be
00000030: 0ef8 2d3d a03a 68bd ac53 333c bb31 803e

encoder.1.running_var f4 [16]
0.5307452 0.74114573 1.2445302 1.129456 1.374364 0.34174016 0.31318274 0.22668375
0.6721977 0.42002392 1.2071645 2.372002 0.46824086 0.31662548 0.734495 1.0374916
00000000: ebde 073f babb 3d3f c44c 9f3f 0492 903f
00000010: 29eb af3f 91f8 ae3e 7d59 a03e c91f 683e
00000020: 2615 2c3f 600d d73e 5e84 9a3f e1ce 1740
00000030: 44bd ef3e bc1c a23e dd07 3c3f 86cc 843f

encoder.5.weight f4 [32, 16, 3, 3]
-0.13308509 -0.12995553 -0.026254052 0.0128010195 0.031690467 0.121466756 0.036934905 -0.07726382
0.09394515 -0.047489528 -0.0434193 0.14364102 0.013842334 -0.06628104 0.036635716 0.089079484
0.09408845 0.14123933 0.0064251204 0.066066995 0.045829296 -0.009897767 -0.022479856 -0.019112464
0.0053852373 0.09067526 0.11278342 -0.06044624 -0.06871703 -0.20258877 -0.09551777 -0.14434884
-0.15439016 0.035528507 0.04648803 -0.030376414 -0.08998197 0.009885257 -0.023451654 0.055031396
-0.08203378 0.059224587 -0.05360215 -0.0015710779 0.12598605 -0.059134573 -0.15233734 -0.17528571
-0.04685728 0.10924761 0.023562588 0.07798365 0.057677142 0.0808656 -0.13749278 -0.0027657398
0.10159376 -0.060137853 0.056326266 -0.022962587 0.10064743 0.10381496 0.12787683 0.054513574
-0.08092903 -0.09160178 -0.054989602 -0.015112213 0.10358038 0.010157057 -0.13922803 -0.052766964
-0.05935754 -0.061358787 0.10075005 -0.10786804 0.00017502725 0.0270375 -0.024680099 0.16496155
0.16413616 -0.13777205 -0.14475079 0.0675609 -0.07522734 0.009937833 0.07731146 -0.033679605
-0.09895024 0.082756996 -0.076616734 -0.013507642 -0.013789481 0.000377878 -0.09930412 0.06176256
-0.013569679 -0.049084943 0.11966605 0.001443275 -0.07333342 -0.043014575 0.039530046 0.12219417
-0.022288283 0.11381305 0.07889528 0.010736069 0.022451589 -0.041509207 0.052778553 0.022112627
-0.11323243 0.061090373 0.10182719 -0.0035205092 0.04046137 -0.0045253877 0.07258788 0.10519106
0.0032415772 -0.06076786 0.10705348 -0.0147730475 0.075519495 0.18423265 -0.04455552 0.09513447
0.05165996 0.022654913 -0.024091674 -0.01404218 -0.025180086 -0.045828834 0.0774579 -0.07180512
-0.07076248 0.027620684 0.007682937 0.10794578 0.10757728 0.07382424 0.00027518056 -0.0026448672
-0.019703148 -0.08514371 -0.146167 -0.13273415 -0.14933026 -0.16070268 -0.12931062 -0.14300732
-0.20687212 -0.07275965 -0.161946 -0.16239223 -0.16840033 -0.18310991 -0.23920567 -0.19788946
-0.19006193 -0.2227471 0.019736791 -0.10583914 -0.13765214 -0.1291797 -0.11462043 -0.15679078
-0.12161292 -0.1277764 -0.20954 0.010270417 -0.0050659976 -0.021191884 -0.017276224 -0.03348136
-0.013240446 0.0044417623 -0.04347052 -0.049385916 -0.005091725 -0.06451204 -0.030692345 -0.05579278
-0.10290383 -0.088160574 -0.1276923 -0.048898585 -0.17826071 -0.0045289 0.015592915 0.022114519
-0.0019015316 -0.007142508 0.00018921355 -0.014204655 -0.0020654253 -0.014883617 -0.016832516 -0.011132542
-0.033222575 -0.017795492 -0.03554392 -0.056938585 -0.045342233 -0.04125248 -0.095780395 0.00336623
-0.0020177783 -0.017649371 0.0016814051 0.0070141647 -0.020868357 -0.0020715266 -0.017339652 -0.034710586
-0.027057474 -0.046643734 -0.10614558 -0.06712294 -0.10576062 -0.11141339 -0.11362697 -0.11387912
-0.17644154 -0.08937605 -0.09995164 -0.17173077 -0.14492325 -0.20849608 -0.18229681 -0.14964813
-0.25467262 -0.25515518 -0.017710386 -0.058807477 -0.1187148 -0.09458007 -0.12890825 -0.14065602
-0.052161768 -0.16765407 -0.16425228 0.0099090105 0.04604471 -0.009607381 0.03425968 -0.04629169
0.019780815 -0.0071111997 -0.005378023 -0.046837043 0.02042194 -0.03604744 -0.1274158 -0.1013091
00000000: 7547 08be 1013 05be bd12 d7bc 5ebb 513c
00000010: ddcd 013d 90c3 f83d 0e49 173d 7e3c 9ebd
00000020: 5166 c03d 6184 42bd 70d8 31bd a216 133e
00000030: f5ca 623c 5bbe 87bd 550f 163d 4e6f b63d
00000040: 72b1 c03d 0ba1 103e d189 d23b 224e 873d
00000050: 80b7 3b3d 3e2a 22bc ad27 b8bc be91 9cbc
00000060: a576 b03b f3b3 b93d fefa e63d 7a96 77bd
00000070: 84bb 8cbd 6e73 4fbe d29e c3bd 2fd0 13be
00000080: 7418 1ebe 5786 113d 3c6a 3e3d f5d7 f8bc
00000090: 7848 b8bd c6f5 213c af1d c0bc 9a68 613d
000000a0: 5401 a8bd 7b95 723d ee8d 5bbd a0ec cdba
000000b0: 7d02 013e 1837 72bd 52fe 1bbe 197e 33be
000000c0: 6bed 3fbd 36bd df3d 5406 c13c e4b5 9f3d
000000d0: de3e 6c3d dd9c a53d e8ca 0cbe 6a41 35bb
000000e0: 6410 d03d 1c53 76bd 5fb6 663d 091c bcbc
000000f0: 3d20 ce3d f09c d43d 25f2 023e a049 5f3d
00000100: 1fbe a5bd b799 bbbd c73c 61bd 3799 77bc
00000110: f321 d43d c969 263c cb91 0ebe 2c22 58bd
00000120: e420 73bd 5a53 7bbd 0b56 ce3d ebe9 dcbd
00000130: 8587 3739 bf7d dd3c eb2d cabc aeeb 283e
00000140: 4f13 283e 1e14 0dbe 8d39 14be 5e5d 8a3d
00000150: cb10 9abd 4bd2 223c 7955 9e3d a0f3 09bd
00000160: 6ca6 cabd 807c a93d 3ce9 9cbd 284f 5dbc
00000170: 46ed 61bc ed1d c639 f55f cbbd bdfa 7c3d
00000180: 5c53 5ebc 4b0d 49bd 7913 f53d 462c bd3a
00000190: d52f 96bd 0d30 30bd 42ea 213d f040 fa3d
000001a0: eb95 b6bc d116 e93d d993 a13d 56e6 2f3c
000001b0: 65ec b73c 8f05 2abd 532e 583d 8a25 b53c
000001c0: 67e6 e7bd e639 7a3d c68a d03d 58b8 66bb
000001d0: d2ba 253d b449 94bb f4a8 943d 696e d73d
000001e0: a470 543b b8e7 78bd db3e db3d a70a 72bc
000001f0: f7a9 9a3d 7ca7 3c3e d97f 36bd dcd5 c23d
00000200: 6599 533d cc96 b93c e75b c5bc 2c11 66bc
00000210: 7846 cebc 04b7 3bbd 3fa2 9e3d 900e 93bd
00000220: ebeb 90bd c644 e23c 26c1 fb3b ad12 dd3d
00000230: 7a51 dc3d 2a31 973d 1c46 9039 8255 2dbb
00000240: 7f68 a1bc d35f aebd cdac 15be 76eb 07be
00000250: 08ea 18be 3e8f 24be 016a 04be 8370 12be
00000260: 49d6 53be 0303 95bd 2cd5 25be 264a 26be
00000270: 2371 2cbe 2a81 3bbe 55f2 74be 89a3 4abe
00000280: 989f 42be d117 64be 0daf a13c 31c2 d8bd
00000290: aff4 0cbe af47 04be 1ebe eabd c38d 20be
000002a0: 3210 f9bd d1d7 02be a791 56be 4045 283c
000002b0: ab00 a6bb 9a9a adbc de86 8dbc c023 09bd
000002c0: 75ee 58bc 348c 913b 250e 32bd e348 4abd
000002d0: 7cd8 a6bb e31e 84bd 836e fbbc f886 64bd
000002e0: 3ebf d2bd 888d b4bd c5c1 02be e249 48bd
000002f0: fa89 36be 2b67 94bb 6d79 7f3c 8229 b53c
00000300: d03c f9ba b30b eabb a067 4639 a4ba 68bc
00000310: 165c 07bb 6ada 73bc 58e4 89bc 4465 36bc
00000320: 6514 08bd dac7 91bc 8096 11bd 6f38 69bd
00000330: c7b8 39bd 5cf8 28bd 8328 c4bd f89b 5c3b
00000340: b43c 04bb 6a95 90bc 9862 dc3a 14d7 e53b
00000350: 1ef4 aabc 73c2 07bb e30b 8ebc b02c 0ebd
00000360: a3a7 ddbc 800d 3fbd db62 d9bd c177 89bd
00000370: 0699 d8bd b42c e4bd 42b5 e8bd 7539 e9bd
00000380: 17ad 34be ca0a b7bd 72b3 ccbd 31da 2fbe
00000390: c366 14be ff7f 55be 04ac 3abe 5c3d 19be
000003a0: 7364 82be b3a3 82be 5f15 91bc 1ce0 70bd
000003b0: bf20 f3bd 32b3 c1bd 8600 04be 2208 10be
000003c0: 94a7 55bd 82ad 2bbe c031 28be 6759 223c
000003d0: 6199 3c3d 4768 1dbc e153 0c3d 5b9c 3dbd
000003e0: 600b a23c 1105 e9bb 203a b0bb 33d8 3fbd
000003f0: ea4b a73c 7ba6 13bd 4a79 02be 257b cfbd

encoder.5.bias f4 [32]
0.11218637 -0.022459034 -0.099643484 0.014795804 0.06781008 0.0125131095 -0.028567014 -0.054275576
-0.064714536 0.047553264 0.08227715 0.073411316 -0.038082477 -0.066009775 0.032515634 0.027458614
0.0007668342 -0.052946143 0.05401889 0.033715166 -0.069113396 0.064502485 -0.024970863 0.04438799
0.04370077 -0.06795238 0.032440268 -0.0925132 0.07477842 0.057827085 -0.041247405 0.08794656
00000000: f8c1 e53d 02fc b7bc e211 ccbd 1a6a 723c
00000010: 03e0 8a3d c903 4d3c 5f05 eabc 1150 5ebd
00000020: 0e89 84bd 36c7 423d ec80 a83d ac58 963d
00000030: 5ffc 1bbd 2230 87bd 1d2f 053d e3f0 e03c
00000040: 5f05 493a 0ede 58bd e942 5d3d ea18 0a3d
00000050: 538b 8dbd e119 843d b28f ccbc 2ed0 353d
00000060: 94ff 323d 9e2a 8bbd 16e0 043d 9077 bdbd
00000070: 6e25 993d 18dc 6c3d 0af3 28bd 531d b43d

encoder.6.weight f4 [32]
0.8409507 0.74266756 0.9160256 0.7424005 0.93094134 0.7808529 0.86387396 0.95294094
0.9717828 0.83024246 0.81892735 0.9067484 0.7653182 0.82521987 0.9046772 0.91966444
0.8560443 0.8949947 0.94562507 0.777007 0.8177682 0.79990864 0.9362071 0.81195724
0.8673322 1.0191534 0.93170714 0.91823906 1.0203674 0.9459833 0.9011949 0.88689506
00000000: 8c48 573f 761f 3e3f a780 6a3f f60d 3e3f
00000010: 2c52 6e3f fae5 473f d826 5d3f f0f3 733f
00000020: c2c6 783f c58a 543f 39a5 513f aa20 683f
00000030: e5eb 433f 9c41 533f ed98 673f 216f 6b3f
00000040: b825 5b3f 5f1e 653f 7c14 723f eee9 463f
00000050: 4259 513f d0c6 4c3f 45ab 6f3f 6edc 4f3f
00000060: 7c09 5e3f 9e73 823f 5c84 6e3f b711 6b3f
00000070: 669b 823f f62b 723f b5b4 663f 8e0b 633f

encoder.6.bias f4 [32]
0.23595832 -0.60886 -0.3604549 -0.610731 0.13589136 -0.5232497 -0.38206458 0.07711245
0.08364443 -0.40673122 -0.15384714 0.1005943 -0.62828994 -0.49148393 -0.036849514 0.12621187
0.07060562 0.1834148 0.09708423 -0.60034627 -0.44283265 0.21063878 0.21350987 0.19894356
0.21000338 -0.06098922 0.17516093 0.13114521 0.10073723 0.18710226 0.085819855 0.16486079
00000000: 0f9f 713e 40de 1bbf 8b8d b8be de58 1cbf
00000010: 1b27 0b3e b1f3 05bf f89d c3be 22ed 9d3d
00000020: c54d ab3d 133f d0be 1b8a 1dbe 6204 ce3d
00000030: 9cd7 20bf c8a3 fbbe 84ef 16bd af3d 013e
00000040: ae99 903d 17d1 3b3e 19d4 c63d 4bb0 19bf
00000050: f6ba e2be b1b1 573e 55a2 5a3e dcb7 4b3e
00000060: 200b 573e d5cf 79bd 635d 333e ee4a 063e
00000070: 524f ce3d bc97 3f3e 52c2 af3d 44d1 283e

encoder.6.running_mean f4 [32]
0.22675069 -3.5467021 -2.4913077 -3.826683 0.29815376 -3.0660167 -2.8109617 -0.67164594
-0.56978714 -2.3272786 1.4496737 -0.08880515 -2.6136398 -2.8714905 -0.3061758 -0.24636197
0.21193363 0.09000482 0.09682353 -3.422086 -2.4648366 0.61994785 0.27904084 0.36160174
0.037097108 -1.9672159 0.0740243 -0.2435501 0.10054387 -0.31252813 0.09525375 0.2696783
00000000: 5531 683e 2bfd 62c0 9671 1fc0 60e8 74c0
00000010: 9ca7 983e 9e39 44c0 cce6 33c0 fdf0 2bbf
00000020: 92dd 11bf 22f2 14c0 e88e b93f 79df b5bd
00000030: e045 27c0 80c6 37c0 13c3 9cbe 5046 7cbe
00000040: 2105 593e 7254 b83d 6a4b c63d 7503 5bc0
00000050: e2bf 1dc0 e7b4 1e3f 71de 8e3e dd23 b93e
00000060: 23f3 173d bbcd fbbf 0d9a 973d 3365 79be
00000070: f2e9 cd3d b003 a0be 6614 c33d 4613 8a3e

encoder.6.running_var f4 [32]
2.449135 10.578085 13.193786 13.671756 3.084193 10.685684 14.059239 12.281616
6.551823 11.695001 2.677878 6.7592454 6.20098 9.93388 11.614334 5.594704
2.561725 1.556975 4.044065 10.056118 10.793426 2.605265 1.5357114 3.4890664
2.9722335 19.802538 5.726707 2.5311272 4.029548 4.1230884 3.0357935 2.422673
00000000: a1be 1c40 d63f 2941 bf19 5341 83bf 5a41
00000010: 6b63 4540 90f8 2a41 a5f2 6041 8081 4441
00000020: 89a8 d140 b91e 3b41 5a62 2b40 bd4b d840
00000030: 6e6e c640 2cf1 1e41 50d4 3941 d107 b340
00000040: 4df3 2340 f54a c73f fb68 8140 dce5 2041
00000050: dfb1 2c41 a9bc 2640 3192 c43f dd4c 5f40
00000060: 1339 3e40 996b 9e41 2f41 b740 fdfd 2140
00000070: 0ff2 8040 57f0 8340 714a 4240 130d 1b40

encoder.10.weight f4 [64, 32, 3, 3]
-0.06789828 -0.08389175 -0.060656205 -0.11414271 -0.087288074 -0.0972594 -0.027335968 -0.11815731
-0.01344985 0.029700316 -0.019161662 -0.16686338 -0.010650014 0.0007311345 -0.10737958 -0.06429416
0.004797209 -0.03389904 0.04466406 -0.013218021 -0.040039644 -0.023620768 -0.054427776 0.06588162
-0.048485287 0.1171172 0.12907535 0.026355745 0.0515881 -0.034274466 0.02904802 0.038260315
0.017780354 0.010052458 -0.002762154 -0.03852076 -0.06534782 -0.064979434 0.061955303 -0.04982232
-0.06970809 0.016504439 -0.009323433 0.068991706 0.25871968 0.06301439 -0.060784664 -0.13106649
0.040814247 0.06603191 -0.0482247 -0.09323631 0.08409024 0.09527389 -0.021795454 -0.08508491
-0.028563675 -0.05781584 -0.019118022 -0.029116448 -0.035736963 0.035382222 0.12435041 0.0041482784
-0.035815075 0.042766366 0.047341436 -0.0617894 -0.06256568 -0.0045925435 -0.10356596 -0.104189
0.0031728551 -0.0019095798 -0.05331264 -0.07150071 -0.0866088 -0.0011533555 0.011852584 -0.028978067
-0.049254794 0.01947937 -0.06457167 -0.08257643 -0.0034125987 -0.004946568 0.03776069 -0.074889414
0.099437684 0.07076246 0.0022128862 0.06160192 -0.037432455 -0.040270563 0.030393027 0.0013355556
0.01746629 0.0063243513 0.009760953 -0.013353193 0.06694922 0.0087415315 0.040918533 -0.012239499
-0.02630127 0.052396238 -0.049931362 0.06759366 0.1008643 0.041065805 -0.08946152 0.021415671
0.03694433 -0.06653029 -0.10579811 -0.027130788 -0.14045753 0.020035898 -0.023705848 -0.09376999
-0.034559194 -0.025219342 -0.010143954 -0.09727593 0.07695813 0.087677784 0.044746593 -0.009535947
-0.015446764 0.025304882 -0.07461236 0.008234081 0.025039855 0.03557168 0.261333 0.040465653
-0.0401279 0.0045937267 0.010843954 -0.027351638 0.04756394 0.023968738 -0.06203793 -0.040359136
-0.03301811 0.011240592 -0.050319802 -0.002655048 -0.018424766 0.0464329 -0.05925309 -0.04770965
0.10002495 -0.041742623 -0.04427223 0.08429795 0.049056306 0.0437942 0.017833095 0.03811236
0.027737414 0.09330816 0.020471413 0.06706106 0.019540912 0.0558988 -0.05009981 0.06523924
0.030210398 0.24694 0.38336462 0.014350014 0.042949215 -0.06747901 0.030763563 0.020495772
-0.065876506 -0.10635761 -0.052303933 -0.093274094 -0.016117295 -0.031279575 -0.025176099 -0.0646154
-0.041261625 0.04439356 0.0020182142 0.13055855 0.06760082 -0.061450683 -0.04659531 -0.017720247
0.0030082064 -0.11673517 -0.07091126 -0.070277594 0.04128093 0.17423953 -0.12086158 -0.10416507
0.07905915 -0.018000226 -0.04354472 -0.0233845 -0.017083954 0.14179164 0.19292003 -0.05962444
-0.02166737 -0.048287924 -0.0319083 -0.051085647 0.029976726 -0.004662354 0.12919995 0.20964871
0.013946794 0.011128273 0.06178757 -0.07544166 -0.074908204 -0.010049494 0.07053042 -0.014311441
0.09617307 0.027332772 0.046768717 0.050943933 -0.019588588 -0.07157835 -0.06798864 -0.0046559144
-0.24397084 -0.2606231 -0.011979738 0.016249215 0.15506522 0.094346814 0.010775351 0.078697085
0.030000098 -0.023924459 0.0071303393 -0.09809838 0.024879465 0.031327512 0.011592686 -0.051045965
0.042933248 0.081002064 0.08135443 0.32700154 -0.073911734 -0.14368805 -0.0033836495 -0.108503744
00000000: 410e 8bbd 70cf abbd a472 78bd a7c3 e9bd
00000010: 17c4 b2bd f02f c7bd aeef dfbc 76fc f1bd
00000020: c25c 5cbc 144e f33c ebf8 9cbc 3cde 2abe
00000030: 657d 2ebc 9ba9 3f3a d3e9 dbbd a8ac 83bd
00000040: e831 9d3b b8d9 0abd a9f1 363d 6690 58bc
00000050: 9c00 24bd 5780 c1bc a9ef 5ebd f1ec 863d
00000060: 8298 46bd 24db ef3d 542c 043e 01e8 d73c
00000070: 0b4e 533d 6263 0cbd 1df6 ed3c d9b6 1c3d
00000080: 1ba8 913c 11b3 243c 4105 35bb f2c7 1dbd
00000090: 14d5 85bd f013 85bd d8c4 7d3d 7d12 4cbd
000000a0: 1dc3 8ebd 5134 873c 50c1 18bc 864b 8d3d
000000b0: e876 843e b00d 813d 57f9 78bd 4b36 06be
000000c0: d72c 273d bd3b 873d 4387 45bd aef2 bebd
000000d0: 8137 ac3d f51e c33d 618c b2bc ff40 aebd
000000e0: 5efe e9bc 4dd0 6cbd 669d 9cbc 9e85 eebc
000000f0: ec60 12bd f3ec 103d 6eab fe3d 48ee 873b
00000100: d4b2 12bd c92b 2f3d 18e9 413d e216 7dbd
00000110: 6f22 80bd 0c7d 96bb 641a d4bd 0b61 d5bd
00000120: adef 4f3b de4a faba 5b5e 5abd f76e 92bd
00000130: f45f b1bd 302c 97ba 5731 423c 6963 edbc
00000140: 65bf 49bd 3393 9f3c 273e 84bd d51d a9bd
00000150: e8a5 5fbb d216 a2bb f4aa 1a3d 9f5f 99bd
00000160: fca5 cb3d e9eb 903d 1206 113b 4b52 7c3d
00000170: c652 19bd bff2 24bd ccfa f83c cf0d af3a
00000180: 7715 8f3c 813c cf3b 67ec 1f3c 5ac7 5abc
00000190: ac1c 893d a438 0f3c 319a 273d 2e88 48bc
000001a0: c375 d7bc 709d 563d d484 4cbd 8b6e 8a3d
000001b0: f191 ce3d 9e34 283d 9a37 b7bd eb6f af3c
000001c0: f052 173d 0841 88bd aeac d8bd 6341 debc
000001d0: 19d4 0fbe 5322 a43c c432 c2bc 7b0a c0bd
000001e0: f18d 0dbd cb98 cebc d432 26bc 9a38 c7bd
000001f0: 399c 9d3d 6990 b33d 3448 373d a93c 1cbc
00000200: 6d14 7dbc 2f4c cf3c 5dce 98bd 3de8 063c
00000210: 6220 cd3c 9cb3 113d 70cd 853e 50bf 253d
00000220: 275d 24bd f986 963b d7aa 313c 8b10 e0bc
00000230: 68d2 423d 165a c43c 7c1b 7ebd 9f4f 25bd
00000240: ff3d 07bd 762a 383c 231c 4ebd 5000 2ebb
00000250: 89ef 96bc 6d30 3e3d 5eb3 72bd 326b 43bd
00000260: e2d9 cc3d 50fa 2abd cc56 35bd 67a4 ac3d
00000270: 44ef 483d 8c61 333d b616 923c b51b 1c3d
00000280: 9339 e33c 5918 bf3d aab3 a73c 4f57 893d
00000290: 4314 a03c 24f6 643d 7535 4dbd 279c 853d
000002a0: cc7b f73c d7dd 7c3e 5e48 c43e 521c 6b3c
000002b0: 84eb 2f3d 6f32 8abd de03 fc3c c0e6 a73c
000002c0: 43ea 86bd 05d2 d9bd a63c 56bd 7d06 bfbd
000002d0: 6b08 84bc 031f 00bd 1b3e cebc 1455 84bd
000002e0: f301 29bd 06d6 353d 0444 043b 24b1 053e
000002f0: 4c72 8a3d b6b3 7bbd b9da 3ebd 0d2a 91bc
00000300: 5425 453b d912 efbd ec39 91bd b3ed 8fbd
00000310: 3116 293d d96b 323e 4786 f7bd 7f54 d5bd
00000320: c3e9 a13d 3675 93bc f35b 32bd da90 bfbc
00000330: a6f3 8bbc d431 113e d48c 453e c238 74bd
00000340: c57f b1bc 8fc9 45bd 47b2 02bd 2f3f 51bd
00000350: c091 f53c a9c6 98bb fe4c 043e 27ae 563e
00000360: 1881 643c 5c53 363c f714 7d3d 2881 9abd
00000370: 7969 99bd a2a6 24bc 4172 903d 897a 6abc
00000380: 63f6 c43d fae8 df3c 8e90 3f3d 96aa 503d
00000390: 3f78 a0bc ac97 92bd a13d 8bbd a490 98bb
000003a0: 7ed3 79be 6470 85be aa46 44bc 131d 853c
000003b0: 6bc9 1e3e e738 c13d 198b 303c f02b a13d
000003c0: c4c2 f53c 3afd c3bc 9fa5 e93b cee7 c8bd
000003d0: 05d0 cb3c 4751 003d 40ef 3d3c 9315 51bd
000003e0: c6da 2f3d 69e4 a53d 279d a63d bf6c a73e
000003f0: 095f 97bd f622 13be 38c0 5dbb 3637 debd

encoder.10.bias f4 [64]
0.020176208 0.0029329916 -0.030929012 -0.0232108 -0.05490264 0.028707478 0.0422602 0.050507203
0.01356675 0.04285962 -0.03719788 0.005423341 -0.05067083 0.016700236 -0.06595867 0.020756584
0.0170606 -0.032494266 0.036845446 0.016136838 -0.052432656 0.050330315 0.038574543 0.014567533
-0.02471388 -0.0440283 0.030629132 -0.00045471132 0.027378688 -0.049122706 0.06039014 0.011271161
-0.024575235 0.023327136 0.042344082 -0.038203783 -0.025081372 -0.011959182 0.01194312 -0.009914495
0.018490216 -0.05324651 0.03641982 0.015061782 -0.056768402 0.03150849 -0.04514339 0.05603763
-0.036473073 -0.05439805 -0.058408942 -0.0015527469 -0.00069061865 0.04030999 -0.014080014 -0.01785275
-0.0271055 0.015489977 0.0036317697 0.028491108 -0.009876572 -0.046884812 0.040826246 0.031602167
00000000: 9348 a53c 6f37 403b d75e fdbc 9324 bebc
00000010: 97e1 60bd f22b eb3c 0819 2d3d a4e0 4e3d
00000020: 1347 5e3c 928d 2f3d ce5c 18bd 48b6 b13b
00000030: 378c 4fbd efce 883c 5715 87bd b609 aa3c
00000040: acc2 8b3c b518 05bd 40eb 163d 6731 843c
00000050: a0c3 56bd 2927 4e3d 5700 1e3d a9ac 6e3c
00000060: c374 cabc 0557 34bd f2e9 fa3c 5266 eeb9
00000070: 4549 e03c e434 49bd a75b 773d adaa 383c
00000080: 0152 c9bc 8d18 bf3c fd70 2d3d 927b 1cbd
00000090: 7377 cdbc 72f0 43bc 13ad 433c 6870 22bc
000000a0: cb78 973c 0319 5abd f32c 153d b1c5 763c
000000b0: fc85 68bd 0c0f 013d 46e8 38bd b787 653d
000000c0: ca64 15bd 7dd0 5ebd 373e 6fbd 8a85 cbba
000000d0: a20a 35ba 171c 253d dcaf 66bc ee3f 92bc
000000e0: 5b0c debc acc9 7d3c fc02 6e3b 2f66 e93c
000000f0: 58d1 21bc 4a0a 40bd 6c39 273d 4671 013d

encoder.11.weight f4 [64]
1.0350329 1.0411419 1.0070332 0.99293834 0.93350714 0.96686786 1.0214541 1.0015236
1.0229373 0.96019775 1.0278231 0.91783506 0.9268512 0.9169394 0.9664391 0.9513942
0.98929745 0.8782131 0.980858 1.0319654 0.9249527 0.90326315 0.96734977 1.0078282
0.9167404 0.9562878 0.9044216 0.8441826 1.0324533 1.0259606 1.002492 0.9165945
1.015951 0.93062013 0.98594093 0.861433 1.0647491 0.9786364 1.0234917 1.0605278
0.96687305 0.8411072 0.91653216 1.0331897 0.92388535 0.9835683 0.9868552 0.99333006
0.8835968 0.9309147 0.99833816 0.9150286 0.93120325 0.9058126 0.94991726 1.0294318
0.92515165 1.0293573 0.98348075 0.97616225 0.9363975 1.0338742 0.9368271 1.081992
00000000: f57b 843f 2344 853f 77e6 803f 3531 7e3f
00000010: 53fa 6e3f a784 773f 02bf 823f ed31 803f
00000020: 9cef 823f 85cf 753f b58f 833f 3df7 6a3f
00000030: 1f46 6d3f 8abc 6a3f 8e68 773f 928e 733f
00000040: 9942 7d3f 93d2 603f 8319 7b3f 7117 843f
00000050: b3c9 6c3f 413c 673f 3ca4 773f 8400 813f
00000060: 80af 6a3f 47cf 743f 2d88 673f 5a1c 583f
00000070: 6e27 843f ad52 833f a851 803f f0a5 6a3f
00000080: af0a 823f 1f3d 6e3f a066 7c3f e086 5c3f
00000090: b349 883f ea87 7a3f c701 833f 60bf 873f
000000a0: fe84 773f cd52 573f daa1 6a3f 8f3f 843f
000000b0: c083 6c3f 22cb 7b3f 8ba2 7c3f e14a 7e3f
000000c0: 6633 623f 6d50 6e3f 1793 7f3f 503f 6a3f
000000d0: 5663 6e3f 56e3 673f c72d 733f 6cc4 833f
000000e0: bdd6 6c3f fbc1 833f 65c5 7b3f c5e5 793f
000000f0: bfb7 6f3f fd55 843f e7d3 6f3f b77e 8a3f

encoder.11.bias f4 [64]
0.10427513 0.012562692 0.016402684 0.05490718 -0.011268454 -0.041366026 0.06470144 -0.009453968
0.10280996 0.007358999 0.013443451 0.0325665 -0.4096279 -0.35473406 0.06879572 0.038707353
0.06945878 -0.47505027 -0.021410441 0.04288234 0.13793327 0.11389447 0.13034292 0.00754583
-0.41400373 0.0016737812 0.020633483 0.03333353 -0.003507169 0.12656729 -0.021173185 -0.51206565
-0.045026053 0.017737517 -0.118945576 0.08551205 -0.043908626 -0.032589428 0.032345153 -0.04927779
0.06827936 0.091692515 -0.5845222 0.06131153 0.19315122 0.008503866 0.102404244 0.00057315803
-0.5262638 -0.34051985 0.006103138 0.11704632 0.11097881 -0.39571115 -0.4559607 -0.04713132
0.16193445 -0.02116852 0.08994098 -0.3716703 0.15276809 0.002671809 -0.37012932 -0.08404856
00000000: 338e d53d c0d3 4d3c ec5e 863c 5ae6 603d
00000010: 529f 38bc 6c6f 29bd 3082 843d d1e4 1abc
00000020: 078e d23d c223 f13b ec41 5c3c 7364 053d
00000030: c0ba d1be b49f b5be c5e4 8c3d 9a8b 1e3d
00000040: 6840 8e3d ca39 f3be f364 afbc 64a5 2f3d
00000050: 613e 0d3e 8141 e93d 9d78 053e 0343 f73b
00000060: 4cf8 d3be c762 db3a 8d07 a93c bd88 083d
00000070: 88d8 65bb db9a 013e 6373 adbc bc16 03bf
00000080: 3d6d 38bd 454e 913c bd99 f3bd f120 af3d
00000090: 88d9 33bd 7e7c 05bd 5a7c 043d 82d7 49bd
000000a0: 0dd6 8b3d 49c9 bb3d 3fa3 15bf cd21 7b3d
000000b0: 6fc9 453e cd53 0b3c 51b9 d13d fc3f 163a
000000c0: 39b9 06bf 9e58 aebe d5fc c73b fbb5 ef3d
000000d0: dc48 e33d a79a cabe ae73 e9be c50c 41bd
000000e0: 25d2 253e 9b69 adbc fa32 b83d 924b bebe
000000f0: 3d6f 1c3e 8419 2f3b 9781 bdbe a721 acbd

encoder.11.running_mean f4 [64]
0.40250695 -0.6697774 -0.25061852 -0.5140349 -0.36096758 -0.55888623 -0.11347399 -0.23787892
1.0333414 -0.5246657 -0.9510162 -0.2062526 -1.906571 -1.0068868 -0.22193141 1.3742993
0.25641677 -1.5322987 -0.5595835 -0.42539313 0.77234286 0.6870995 0.21026973 -0.72318393
-3.3320463 0.42720696 0.88901067 1.567346 -0.31524244 0.5663916 0.39474455 -1.3731546
-0.66950953 -0.5520753 -0.67786753 1.0959784 -0.51378983 0.47808614 -0.32129222 -0.39011046
0.75280535 0.96282816 -1.8154955 0.32558826 0.7444377 -0.50356567 -0.26294243 -0.04608261
-1.6742904 -3.0397916 -0.67289376 0.9025171 0.32191345 -1.5741678 -1.8064866 -0.3237256
0.5215711 -0.8350895 -0.16557115 -1.3091639 0.9638505 -0.41523433 -1.6284052 -1.7837236
00000000: 6415 ce3e 8876 2bbf 1251 80be cb97 03bf
00000010: bed0 b8be 2b13 0fbf 0d65 e8bd 8896 73be
00000020: 8844 843f 7e50 06bf cc75 73bf e233 53be
00000030: 850a f4bf abe1 80bf fd41 63be 0ae9 af3f
00000040: 0f49 833e 5d22 c4bf dd40 0fbf 21cd d9be
00000050: 43b8 453f c1e5 2f3f f350 573e 9522 39bf
00000060: 3f40 55c0 dfba da3e 3496 633f cb9e c83f
00000070: 7567 a1be 0aff 103f f51b ca3e 88c3 afbf
00000080: fa64 2bbf cf54 0dbf ba88 2dbf 0549 8c3f
00000090: bb87 03bf b5c7 f43e 6a80 a4be 8fbc c7be
000000a0: dab7 403f e87b 763f 2862 e8bf 81b3 a63e
000000b0: 7893 3e3f aee9 00bf 64a0 86be 1ec1 3cbd
000000c0: 264f d6bf f28b 42c0 c442 2cbf 5c0b 673f
000000d0: d7d1 a43e 557e c9bf f43a e7bf 5dbf a5be
000000e0: af85 053f 6dc8 55bf 7c8b 29be af92 a7bf
000000f0: e8be 763f 9899 d4be 956f d0bf 0e51 e4bf

encoder.11.running_var f4 [64]
11.022987 8.042003 2.9461222 7.001695 4.238881 4.6973786 5.6064115 3.3589678
9.5558815 6.234855 4.221217 3.7594495 3.3479917 3.291542 3.6651056 9.372891
3.886043 2.4691029 4.6100745 6.3036165 4.983412 10.453203 7.547309 5.5512104
12.946388 4.9670753 12.58147 15.535312 4.4581733 11.07547 4.955748 3.0078351
7.3792453 3.341554 5.1878986 11.051486 3.7705848 3.9833832 2.8240833 3.8784595
8.878945 13.731457 3.500393 11.029935 4.2717905 6.18462 5.8127785 3.7559106
4.971496 14.203869 4.551717 9.009933 10.186928 7.13329 4.803289 2.9621582
6.460864 6.359292 4.6268554 5.5560327 6.447169 5.1835413 8.39757 5.542758
00000000: 285e 3041 0bac 0041 448d 3c40 e30d e040
00000010: eaa4 8740 ed50 9640 b967 b340 54f9 5640
00000020: e4e4 1841 ef83 c740 3614 8740 d29a 7040
00000030: 7f45 5640 a0a8 5240 1791 6a40 5df7 1541
00000040: eeb4 7840 c805 1e40 bb85 9340 3ab7 c940
00000050: 1c78 9f40 5240 2741 8e83 f140 84a3 b140
00000060: 6824 4f41 48f2 9e40 b34d 4941 a390 7841
00000070: 5ba9 8e40 2035 3141 7d95 9e40 5f80 4040
00000080: c722 ec40 05dc 5540 4403 a640 e3d2 3041
00000090: 4351 7140 c0ef 7e40 c8bd 3440 ae38 7840
000000a0: 2910 0e41 0cb4 5b41 7006 6040 9d7a 3041
000000b0: 82b2 8840 68e8 c540 4802 ba40 d760 7040
000000c0: 7f16 9f40 0c43 6341 aaa7 9140 b028 1041
000000d0: a8fd 2241 e943 e440 8bb4 9940 0094 3d40
000000e0: 66bf ce40 527f cb40 330f 9440 05cb b140
000000f0: 354f ce40 92df a540 725c 0641 465e b140

decoder.0.weight f4 [64, 32, 2, 2]
-0.09562733 0.0018170555 -0.046791192 -0.14669631 0.020490162 -0.0837221 -0.0821525 0.005816754
-0.2163073 -0.09971063 0.0068525425 -0.17817704 -0.14420393 -0.17462568 -0.018118074 -0.14971393
-0.11459828 0.028340258 0.005690586 -0.0027918797 -0.2525891 -0.042736817 0.019052673 0.04914939
-0.15581882 -0.19817919 -0.20276059 0.041677482 -0.07979225 0.02269635 0.017314354 0.0031895405
0.017478518 0.029508393 0.016790913 0.02906276 0.09869683 0.00791956 0.08971936 -0.048072856
-0.011910485 -0.038242146 -0.05163478 0.019062683 0.059725773 -0.021218669 -0.03183416 -0.044031743
0.005509031 0.025810864 -0.24128152 0.067004405 -0.1868089 -0.0050585093 -0.17356703 -0.19302213
0.08219526 0.014910769 0.026332123 -0.078729495 0.013801101 -0.15208463 -0.20001294 -0.029755479
-0.06382162 -0.2341674 -0.22938354 -0.0029266747 0.111665145 0.06538902 0.080492124 0.05733994
-0.09239015 -0.10690809 0.09916749 -0.13014953 -0.1379876 -0.14565985 -0.12620114 0.04540256
-0.19365555 -0.0076231565 0.007466853 0.023613272 -0.0086374385 -0.030543327 -0.073091164 -0.011883191
-0.24524862 -0.1004365 0.035716698 0.048001822 -0.17562203 -0.16509584 -0.19053139 -0.14536862
0.038327288 0.022555111 -0.2975213 0.03936082 0.0037224237 0.028934687 -0.19983493 0.035318088
0.023784753 0.010348925 -0.20573193 -0.02019706 0.01498819 0.0012151282 0.059265263 0.034413803
-0.013276893 0.013102569 0.010596706 -0.06521095 0.022729274 0.021722117 0.0067089237 -0.046262756
0.022301778 0.02766276 -0.09928237 -0.13954249 -0.15133403 -0.027122889 0.021226523 -0.14957322
-0.04316387 -0.00038669648 -0.097482026 -0.07169543 -0.012430929 0.043871347 -0.08275534 -0.020187503
-0.097526304 -0.1401954 0.015550046 -0.19981858 -0.124591924 -0.090470605 -0.010640766 -0.15342648
-0.12506884 -0.006768914 -0.002388974 -0.016403576 -0.09749908 -0.005749261 -0.0023269567 -0.012879281
-0.16744488 -0.20609054 -0.13816717 0.020401616 0.029146455 0.0013041112 -0.046962567 -0.04224518
0.03181225 0.038644996 0.049113467 0.047386542 0.043666977 -0.10056944 -0.0010055251 -0.043336995
0.07174383 0.04303603 0.03802275 0.052276816 -0.09092297 -0.044949125 0.028099762 -0.015076048
0.036647853 -0.021686582 -0.17731561 0.004428098 -0.14436185 -0.005981512 -0.046367507 -0.059208293
0.028630922 0.029971983 0.0059581315 -0.013513112 -0.0028495311 -0.11789137 -0.15414146 -0.06947106
0.02066311 -0.14378138 -0.1612951 -0.009122911 0.106974155 0.08526863 0.04463861 0.024364982
-0.13517876 -0.12831183 0.0281505 -0.11987277 0.0026604754 0.014862361 0.034798227 -0.047690976
-0.16494733 -0.048388608 -0.033899914 -0.074756235 -0.006258129 -0.06333264 -0.09587808 0.018939964
-0.19904226 -0.16278726 0.008098849 0.0022371444 -0.17348263 -0.07417301 -0.14982986 -0.08718039
-0.018762996 -0.03597338 -0.16419859 0.0028155553 -0.008052322 -0.0113613065 -0.22314884 0.037100516
-0.009820389 0.05210679 -0.22555321 -0.04272094 -0.016946668 -0.027308214 0.017440967 -0.033519164
0.004466912 -0.009484345 0.011523454 0.0026244665 0.03445824 0.024349619 0.08370803 0.030962635
-0.01028959 -0.023758672 -0.0908123 0.001304197 -0.20938519 -0.033587262 0.0018625959 -0.17873137
00000000: 43d8 c3bd 442a ee3a 1fa8 3fbd 8f37 16be
00000010: fcda a73c 7e76 abbd 923f a8bd 789a be3b
00000020: a97f 5dbe 1635 ccbd 4b8b e03b 0b74 36be
00000030: 32aa 13be 13d1 32be 5b6c 94bc 9c4e 19be
00000040: 81b2 eabd d429 e83c 1878 ba3b f8f7 36bb
00000050: 5c53 81be cd0c 2fbd 5a14 9c3c df50 493d
00000060: f88e 1fbe 7cef 4abe 79a0 4fbe 02b6 2a3d
00000070: 1f6a a3bd b2ed b93c d5d6 8d3c 9c07 513b
00000080: 1c2f 8f3c 96bb f13c 198d 893c 0615 ee3c
00000090: 9021 ca3d 0bc1 013c c9be b73d 0be8 44bd
000000a0: 3224 43bc cca3 1cbd fe7e 53bd 5829 9c3c
000000b0: 03a3 743d c6d2 adbc 8964 02bd a15a 34bd
000000c0: 1a85 b43b 4e71 d33c 8112 77be 9b39 893d
000000d0: d54a 3fbe dac1 a5bb 8ebb 31be 98a7 45be
000000e0: fd55 a83d 4c4c 743c 77b6 d73c ee3c a1bd
000000f0: 031e 623c 13bc 1bbe 31d0 4cbe c3c1 f3bc
00000100: e9b4 82bd 94c9 6fbe 85e3 6abe 74cd 3fbb
00000110: b2b0 e43d aeea 853d 0ed9 a43d 49dd 6a3d
00000120: 0c37 bdbd a1f2 dabd 5318 cb3d eb45 05be
00000130: 9f4c 0dbe db27 15be df3a 01be 09f8 393d
00000140: a44d 46be accb f9bb 81ac f43b 9f70 c13c
00000150: 0b84 0dbc 0036 fabc d2b0 95bd b7b1 42bc
00000160: 7422 7bbe a7b1 cdbd ac4b 123d 8f9d 443d
00000170: 43d6 33be e20e 29be a91a 43be 83db 14be
00000180: 13fd 1c3d 7fc5 b83c b654 98be d038 213d
00000190: e8f3 733b 7008 ed3c 87a1 4cbe b3a9 103d
000001a0: 3ed8 c23c 8a8e 293c 64ab 52be 4e74 a5bc
000001b0: 0691 753c f044 9f3a 22c0 723d 7df5 0c3d
000001c0: 5387 59bc 28ac 563c ce9d 2d3c 528d 85bd
000001d0: be32 ba3c 95f2 b13c 88d6 db3b 047e 3dbd
000001e0: 38b2 b63c 039d e23c 8e54 cbbd 3ae4 0ebe
000001f0: 4ff7 1abe d230 debc 3fe3 ad3c b929 19be
00000200: 99cc 30bd 86bd cab9 a8a4 c7bd 0ed5 92bd
00000210: 18ab 4bbc 71b2 333d a27b a9bd 4360 a5bc
00000220: dfbb c7bd 628f 0fbe 9fc5 7e3c 3e9d 4cbe
00000230: 0d2a ffbd a748 b9bd 9b56 2ebc d51b 1dbe
00000240: 0c12 00be c4cd ddbb 5590 1cbb cb60 86bc
00000250: 99ad c7bd 4c64 bcbb db7f 18bb 9f03 53bc
00000260: ac76 2bbe 6609 53be b27b 0dbe 4a21 a73c
00000270: 8cc4 ee3c b6ee aa3a d25b 40bd 4809 2dbd
00000280: 904d 023d 374a 1e3d 342b 493d 6418 423d
00000290: 25dc 323d 5af7 cdbd d3cb 83ba 2282 31bd
000002a0: 6eee 923d 8c46 303d bebd 1b3d 3720 563d
000002b0: d235 babd 931c 38bd 7931 e63c 8701 77bc
000002c0: 0f1c 163d 0fa8 b1bc 3992 35be 9419 913b
000002d0: 98d3 13be 8f00 c4bb dbeb 3dbd 6584 72bd
000002e0: 658b ea3c ce87 f53c 6e3c c33b 1a66 5dbc
000002f0: 33bf 3abb 0871 f1bd 42d7 1dbe d846 8ebd
00000300: af45 a93c 6d3b 13be 8b2a 25be 4378 15bc
00000310: 4415 db3d 52a1 ae3d fad6 363d 1299 c73c
00000320: 4d6c 0abe 2d64 03be e19b e63c db7f f5bd
00000330: 5f5b 2e3b 4381 733c 9688 0e3d 9d57 43bd
00000340: f4e7 28be 2233 46bd a3da 0abd cc19 99bd
00000350: fe10 cdbb 8bb4 81bd ba5b c4bd fc27 9b3c
00000360: bcd1 4bbe b4b1 26be 09b1 043c 0e9d 123b
00000370: 6ea5 31be 05e8 97bd 006d 19be a28b b2bd
00000380: dbb4 99bc d358 13bd ad23 28be 2e85 383b
00000390: e3ed 03bc c624 3abc 2181 64be b6f6 173d
000003a0: b2e5 20bc ee6d 553d 6cf7 66be 27fc 2ebd
000003b0: bdd3 8abc 7ab5 dfbc 5ce0 8e3c 644b 09bd
000003c0: 2c5f 923b 3a64 1bbc dfcc 3c3c 3eff 2b3b
000003d0: 1524 0d3d da78 c73c 1e6f ab3d 5aa5 fd3c
000003e0: ab95 28bc 8ca1 c2bc cdfb b9bd 97f1 aa3a
000003f0: 1269 56be cc92 09bd 5922 f43a 5b05 37be

decoder.0.bias f4 [32]
-0.07204573 0.058692086 -0.027166106 0.065526865 0.05153659 -0.035883512 -6.271451e-05 -0.04717261
0.04177621 0.048551347 0.07465239 -0.027569098 -0.025439199 -0.012892514 0.034245897 -0.024098152
-0.04295589 -0.025613597 -0.0564298 -0.029631577 0.014151715 0.032255787 0.0025313215 -0.07312124
0.022470184 0.037951365 0.06825441 -0.073621206 0.010151696 0.04465062 0.06388587 -0.0301784
00000000: b68c 93bd 1d67 703d 748b debc f332 863d
00000010: 0818 533d 97fa 12bd 9985 83b8 1138 41bd
00000020: 881d 2b3d c7dd 463d 5ae3 983d 97d8 e1bc
00000030: de65 d0bc 1f3b 53bc 6d45 0c3d 7d69 c5bc
00000040: 84f2 2fbd 9bd3 d1bc ef22 67bd ecbd f2bc
00000050: 98dc 673c a51e 043d 87e4 253b 97c0 95bd
00000060: 6413 b83c e472 1b3d f8c8 8b3d b7c6 96bd
00000070: 4d53 263c 92e3 363d 98d6 823d b138 f7bc

decoder.1.weight f4 [32]
1.108574 1.0196129 1.0766519 1.1403477 0.92533785 0.8489449 0.9547376 0.83950204
0.97253305 0.8518611 0.96361434 0.840296 0.89538604 1.1030288 0.86154103 1.1297033
1.218 0.87847906 0.950605 0.8604039 1.0010264 0.9891799 0.78636605 0.99631244
0.98335487 0.84574544 0.8863349 0.8800135 0.95504034 0.9408885 0.8886881 1.0363103
00000000: c1e5 8d3f ad82 823f bbcf 893f eaf6 913f
00000010: f1e2 6c3f 7454 593f af69 743f 9be9 563f
00000020: edf7 783f 9213 5a3f 6eaf 763f a31d 573f
00000030: 0538 653f 0c30 8d3f f48d 5c3f 1e9a 903f
00000040: 6de7 9b3f 01e4 603f d95a 733f 6e43 5c3f
00000050: a221 803f e53a 7d3f 494f 493f 550e 7f3f
00000060: 25bd 7b3f c682 583f d8e6 623f 9148 613f
00000070: 867d 743f 12de 703f 1081 633f d1a5 843f

decoder.1.bias f4 [32]
-0.09818935 -0.095036365 -0.13898577 -0.1145524 -0.05985601 -0.10847084 -0.26769716 0.04015259
0.09617881 -0.05617083 -0.018460158 -0.08350296 -0.10894313 -0.10606593 -0.0054660663 -0.102309145
-0.033294443 -0.029038312 -0.1636937 -0.1572635 -0.023330202 -0.11859385 -0.13881648 -0.14681773
-0.03277955 -0.0948287 -0.09882416 -0.04408157 0.021929635 -0.025976919 -0.12435264 -0.2636012
00000000: 7f17 c9bd 6da2 c2bd 4952 0ebe 739a eabd
00000010: 932b 75bd f625 debd 9a0f 89be 0b77 243d
00000020: 65f9 c43d 6213 66bd c239 97bc 9a03 abbd
00000030: 931d dfbd 1839 d9bd b01c b3bb 7587 d1bd
00000040: c15f 08bd c1e1 edbc 529f 27be af09 21be
00000050: fb1e bfbc 55e1 f2bd e825 0ebe 6357 16be
00000060: d943 06bd 8d35 c2bd 5264 cabd e08e 34bd
00000070: c7a5 b33c 8ccd d4bc 99ac febd bdf6 86be

decoder.1.running_mean f4 [32]
-1.5295856 -0.81592745 -1.6313179 -1.5348545 -0.4735189 -0.88902754 -1.720681 0.007612967
0.19144857 -0.2514843 0.5696068 -0.22823945 -0.8853004 -1.5968876 -0.33365032 -1.5416766
-1.5770702 0.5897148 -1.3519425 -0.048717525 -0.560162 -0.7994067 -0.5682303 -1.5184474
-1.0105238 -1.0633619 -0.81692314 0.80820936 0.04794041 0.33502996 -0.17010818 -1.7954756
00000000: 76c9 c3bf 9fe0 50bf 06cf d0bf 1d76 c4bf
00000010: 1271 f2be 4f97 63bf 463f dcbf 3276 f93b
00000020: 180b 443e 8dc2 80be c0d1 113f 9ab7 69be
00000030: 0ca3 62bf d066 ccbf 37d4 aabe a955 c5bf
00000040: 70dd c9bf 8df7 163f 740c adbf 078c 47bd
00000050: c766 0fbf eba5 4cbf 8a77 11bf 7c5c c2bf
00000060: d858 81bf 3e1c 88bf e021 51bf cfe6 4e3f
00000070: 2a5d 443d 0c89 ab3e d730 2ebe 25d2 e5bf

decoder.1.running_var f4 [32]
6.3146224 4.429298 17.430702 12.333707 4.100135 14.522261 17.896095 1.0582838
2.257734 4.4572716 1.0076115 1.2824069 7.553074 13.359556 6.54223 12.073872
17.41225 5.1513114 13.336546 2.559302 3.4672604 4.9868293 7.5626965 14.217926
12.840446 10.910962 13.114692 2.0181108 2.584731 0.48647064 0.92220753 14.913811
00000000: 6311 ca40 cfbc 8d40 1472 8b41 dd56 4541
00000010: 4e34 8340 2e5b 6841 342b 8f41 d875 873f
00000020: b77e 1040 f8a1 8e40 6af9 803f e925 a43f
00000030: c8b2 f140 bec0 5541 f359 d140 942e 4141
00000040: 4a4c 8b41 8bd7 a440 7e62 5541 9bcb 2340
00000050: 98e7 5d40 1b94 9f40 9c01 f240 a07c 6341
00000060: 7872 4d41 4d93 2e41 c7d5 5141 ba28 0140
00000070: 3c6c 2540 ae12 f93e cb15 6c3f f89e 6e41

decoder.3.weight f4 [32, 16, 2, 2]
0.16078196 0.16940752 0.20226614 0.17644426 -0.20783222 0.032818884 -0.0058121895 0.15156339
0.16413938 0.15796965 0.2111844 0.21688384 -0.08475964 -0.09040596 -0.107347175 -0.1354996
-0.20538314 0.0514581 0.21697383 0.091126844 -0.031213349 -0.13785762 0.006258132 0.017688164
-0.047466055 -0.054891597 0.09404435 -0.029065728 0.1784676 0.17454451 0.19739078 0.19287552
0.010123005 -0.031918664 -0.12956063 -0.20504698 0.034555413 -0.123618335 -0.06954556 -0.06601926
0.101344995 0.21370775 0.19357699 0.12669747 -0.106676474 -0.16431467 -0.19375601 -0.11577391
-0.142908 -0.019507673 -0.018008295 -0.14260226 0.14992368 0.17868163 0.15071724 0.16582346
0.1339941 0.13091151 0.21162657 0.14711311 -0.021958275 -0.051728655 -0.12003703 -0.17245051
-0.007451015 0.037545696 -0.020456444 0.028484497 -0.16732435 -0.018017098 0.059473056 -0.023430347
-0.013974169 0.08809349 -0.040867783 -0.017301964 -0.16236997 -0.10954804 0.03767408 0.093425274
-0.22868346 0.06991776 -0.24022178 0.10890111 0.05706563 -0.15535797 0.07943873 -0.19591798
-0.026266627 0.027824696 -0.17089415 -0.2493691 0.056897666 0.049016748 -0.04366931 -0.004741522
0.04208122 0.07724549 -0.09410526 -0.20687225 -0.08302174 0.03532966 -0.20829113 0.096165136
0.121411726 -0.03729828 -0.019542605 0.085803606 0.0642937 -0.13566282 0.030866485 -0.057061955
-0.17425798 -0.027520506 0.035751496 -0.14378768 0.09992317 0.05541683 -0.019630544 0.0047322838
0.02573722 0.012039077 -0.018053118 -9.089364e-05 -0.122619525 -0.09223089 -0.12783824 0.04710635
0.21068579 0.13530801 0.16471693 0.17480116 -0.23201513 -0.21105121 -0.01667646 -0.16728388
0.15852475 0.17629512 0.13817267 0.11391231 -0.16597359 -0.17170064 -0.15854324 0.12130788
-0.13219583 0.039219223 -0.20970297 0.08579529 -0.19942361 -0.073512726 -0.019727526 -0.076675944
0.047376413 0.08220722 -0.024083402 -0.056693833 0.14203657 0.17443304 0.1334242 0.11782211
0.10062583 0.07704564 0.03343409 -0.10307004 0.08950484 -0.1362204 -0.19153138 -0.13889155
0.12006535 0.2396802 0.11685326 0.14861216 0.04693973 0.030627586 0.0052608727 -0.1630628
-0.21762647 0.015411595 0.023994206 -0.23018165 0.18854336 0.18347599 0.124086596 0.17809972
0.151404 0.089736775 0.17165029 0.12115793 0.11710677 0.114574045 0.0156201 -0.13150045
0.21773297 0.18922418 0.1487952 0.26580045 -0.1501885 -0.06150824 -0.05498647 0.024180623
0.23103844 0.106192246 0.34280178 0.24761309 -0.08220867 -0.15575722 0.0056695556 0.019049361
-0.11018451 -0.0007206474 -0.09824287 -0.030517207 -0.12555043 -0.15232746 0.052515384 -0.014649961
-0.06751804 -0.08862406 0.009215512 -0.15847364 0.30996436 0.25682974 0.28384677 0.30043504
0.06430216 0.04009411 0.038522247 -0.23065954 -0.09535798 -0.07850635 -0.14924401 -0.09952757
0.046019062 0.23798752 0.19531438 0.16443853 -0.14825752 -0.2195823 -0.20158085 -0.16077355
-0.15043572 0.012077585 -0.009905771 -0.09129725 0.12699518 0.2133432 0.15427877 0.2391402
0.2110982 0.29172188 0.25514576 0.2280376 -0.0555898 0.054058295 -0.11668335 -0.26328292
00000000: 07a4 243e 2a79 2d3e db1e 4f3e cead 343e
00000010: f8d1 54be 186d 063d 2e74 bebb 6f33 1b3e
00000020: 2714 283e ccc2 213e b940 583e cc16 5e3e
00000030: 7696 adbd c326 b9bd d6d8 dbbd 68c0 0abe
00000040: f54f 52be bbc5 523d 632e 5e3e b6a0 ba3d
00000050: 23b3 ffbc 8c2a 0dbe 0411 cd3b c5e6 903c
00000060: c46b 42bd 03d6 60bd 539a c03d 401b eebc
00000070: 36c0 363e ccbb 323e cf20 4a3e 2981 453e
00000080: f6da 253c 25bd 02bd 8bab 04be d6f7 51be
00000090: fa89 0d3d 9c2b fdbd e76d 8ebd 1b35 87bd
000000a0: f78d cf3d 34d6 5a3e 0c39 463e fbbc 013e
000000b0: 3279 dabd 1b42 28be fa67 46be df1a edbd
000000c0: 7a56 12be 8ece 9fbc 2286 93bc 5406 12be
000000d0: 9885 193e 51f8 363e 9f55 1a3e a0cd 293e
000000e0: c035 093e ab0d 063e a3b4 583e d2a4 163e
000000f0: d7e1 b3bc 6de1 53bd f9d5 f5bd de96 30be
00000100: a527 f4bb 84c9 193d 4694 a7bc 5258 e93c
00000110: 1357 2bbe 9898 93bc 059a 733d 00f1 bfbc
00000120: eaf3 64bc 5c6a b43d fa64 27bd d9bc 8dbc
00000130: 5044 26be b95a e0bd 2350 1a3d c055 bf3d
00000140: ff2b 6abe 0b31 8f3d b3fc 75be 8c07 df3d
00000150: a6bd 693d 2916 1fbe c6b0 a23d b99e 48be
00000160: 1c2d d7bc 9ef0 e33c e0fe 2ebe 9d5a 7fbe
00000170: 870d 693d c9c5 483d 97de 32bd c55e 9bbb
00000180: 5b5d 2c3d e232 9e3d 42ba c0bd 52d6 53be
00000190: 4d07 aabd d5b5 103d 454a 55be 3af2 c43d
000001a0: b6a6 f83d 15c6 18bd d017 a0bc cdb9 af3d
000001b0: 6aac 833d 32eb 0abe b6db fc3c ccb9 69bd
000001c0: af70 32be af72 e1bc 2970 123d 143d 13be
000001d0: 85a4 cc3d c2fc 623d 3cd0 a0bc 4611 9b3b
000001e0: ddd6 d23c 8c3f 453c 22e4 93bc 279e beb8
000001f0: f21f fbbd 8de3 bcbd 07e8 02be 97f2 403d
00000200: 04be 573e 2f8e 0a3e 8eab 283e 13ff 323e
00000210: 6095 6dbe cf1d 58be 129d 88bc 774c 2bbe
00000220: 5054 223e b586 343e 237d 0d3e db4a e93d
00000230: fbf4 29be 4bd2 2fbe 2959 22be 4470 f83d
00000240: 585e 07be 56a4 203d 60bc 56be 71b5 af3d
00000250: b435 4cbe d78d 96bd 9f9b a1bc 4708 9dbd
00000260: c50d 423d 425c a83d 8e4a c5bc cb37 68bd
00000270: 0972 113e 939e 323e 5aa0 083e b84c f13d
00000280: ea14 ce3d 1bca 9d3d 2ff2 083d 6316 d3bd
00000290: 504e b73d 5c7d 0bbe cd20 44be 9639 0ebe
000002a0: d2e4 f53d ba6e 753e c350 ef3d c92d 183e
000002b0: e043 403d b4e6 fa3c 6663 ac3b eff9 26be
000002c0: 79d9 5ebe ea80 7c3c 7f8f c43c bdb4 6bbe
000002d0: 8311 413e 21e1 3b3e 1d21 fe3d c65f 363e
000002e0: a609 1b3e eac7 b73d 18c5 2f3e a621 f83d
000002f0: add5 ef3d cca5 ea3d 73eb 7f3c 0ea8 06be
00000300: 64f5 5e3e fcc3 413e c55d 183e ff16 883e
00000310: 04cb 19be 10f0 7bbd 7e39 61bd 7116 c63c
00000320: 5795 6c3e 527b d93d b783 af3e 498e 7d3e
00000330: 055d a8bd d27e 1fbe aec7 b93b 680d 9c3c
00000340: 6ba8 e1bd d4e9 3cba 8f33 c9bd 39ff f9bc
00000350: 4b90 00be bbfb 1bbe 5f1a 573d 6406 70bc
00000360: e646 8abd 8880 b5bd a9fc 163c ea46 22be
00000370: a6b3 9e3e 307f 833e 5d54 913e 9fd2 993e
00000380: dab0 833d b939 243d 81c9 1d3d 0432 6cbe
00000390: 0b4b c3bd f0c7 a0bd 6cd3 18be 1cd5 cbbd
000003a0: 7c7e 3c3d 00b3 733e 7e00 483e 9362 283e
000003b0: d2d0 17be 2fda 60be 366b 4ebe d2a1 24be
000003c0: d20b 1abe 10e1 453c d14b 22bc 0dfa babd
000003d0: 060b 023e a476 5a3e 41fb 1d3e 2be1 743e
000003e0: 202a 583e 925c 953e 77a2 823e b082 693e
000003f0: 21b2 63bd 3b6c 5d3d aef7 eebd 05cd 86be

decoder.3.bias f4 [16]
-0.11713018 -0.028687645 -0.0058673285 0.066538155 0.0009845488 -0.0047327518 0.03655857 -0.061008696
0.102091864 0.04966344 -0.04795953 -0.014545392 0.061386134 -0.036522403 -0.12037257 0.05257468
00000000: f3e1 efbd 5a02 ebbc b842 c0bb 2845 883d
00000010: fa0b 813a 3315 9bbb 70be 153d 41e4 79bd
00000020: 8a15 d13d e46b 4b3d 3671 44bd cc4f 6ebc
00000030: 0770 7b3d 8498 15bd e585 f6bd 8c58 573d

decoder.4.weight f4 [16]
1.0242387 1.5788745 1.203234 1.5856091 1.6311456 1.4905487 0.96680564 1.0021731
1.4736629 1.4695445 0.98619795 1.5604854 1.3708957 1.2579558 1.1516831 1.431721
00000000: 411a 833f 8f18 ca3f 9203 9a3f 3df5 ca3f
00000010: 61c9 d03f 4dca be3f 9380 773f 3547 803f
00000020: fca0 bc3f 091a bc3f 7877 7c3f fcbd c73f
00000030: 8379 af3f b204 a13f 5a6a 933f a242 b73f

decoder.4.bias f4 [16]
-0.20341094 0.46039146 -0.046644498 0.34408948 0.46531445 0.33313733 0.041049026 -0.20845135
0.2988969 0.36115348 -0.20324981 0.39692435 0.180181 -0.051632408 -0.18239163 0.14828075
00000000: f54a 50be 6eb8 eb3e 4d0e 3fbd 7f2c b03e
00000010: b23d ee3e fa90 aa3e 0623 283d 4574 55be
00000020: 0409 993e 1ce9 b83e b820 50be ab39 cb3e
00000030: 5e81 383e 817c 53bd dfc4 3abe e9d6 173e

decoder.4.running_mean f4 [16]
0.1774517 -0.17766732 0.23051736 0.060448963 -0.20025063 -0.1843092 -0.030510707 0.23218128
-0.13933808 -0.027622197 0.25123242 -0.10400396 -0.19284649 0.26160187 0.16785745 0.039495524
00000000: e6b5 353e 6cee 35be be0c 6c3e 5599 773d
00000010: 800e 4dbe 8dbb 3cbe 97f1 f9bc eec0 6d3e
00000020: a4ae 0ebe f247 e2bc 89a1 803e 0700 d5bd
00000030: 8d79 45be aef0 853e d3e2 2b3e 0fc6 213d
