models_GA/flood_cnn_epochs_5.pth (torch, 150506 bytes, 31 tensors)

encoder.0.weight f4 [16, 2, 3, 3]
000000 46 96 45 be 00 aa f1 3d e4 61 0e 3e 6e 09 41 be
       -0.19295606 0.11800003 0.1390453 -0.18851253
000010 94 14 9e bd b0 2f 6e 3e 4a f5 bd 3d 7e c7 f3 bd
       -0.07718769 0.23260379 0.09275301 -0.119032845
000020 78 d9 11 3e c8 52 fd bd 3b 40 0d 3e 96 7c 37 3d
       0.14243114 -0.12369305 0.13794033 0.04479655
000030 7f 0e 0e bd f0 0c 22 be 06 f4 b3 3d ee 55 96 bc
       -0.034681793 -0.15825248 0.08786778 -0.018351521
000040 31 4e 46 bd d8 d7 05 bd f5 23 ce 3d ac 57 2d be
       -0.048414413 -0.032676548 0.10065452 -0.16927975
000050 8a c6 61 be c3 02 46 be 7a de 72 3d 0b 05 3a 3e
       -0.22048393 -0.19336991 0.0592942 0.18165986
000060 e6 bf 0c be c3 f3 96 3e 28 88 9a 3e a3 83 c4 bd
       -0.13745078 0.2948285 0.30182004 -0.0959542
000070 09 98 88 bd 82 3f de bc 19 ab 8b 3d ef 69 c6 bd
       -0.066696234 -0.027129892 0.06819744 -0.09688174
000080 06 29 a3 bd 68 f7 14 3e 3f b1 43 3e 3d 80 3b 3e
       -0.07966809 0.14547503 0.19110583 0.18310638
000090 25 64 d5 3d 7a a2 00 be a1 b8 6c be f2 de 10 3d
       0.10419492 -0.1256198 -0.23117305 0.035368867
0000a0 46 dc 17 be e1 8f 10 3d 59 e7 cb 3c e2 6f f0 3c
       -0.14830121 0.035293464 0.024890589 0.029350225
0000b0 71 1e 4a be ab 60 e8 bc a5 30 21 3e be 5a 95 bd
       -0.19738175 -0.028366407 0.15741213 -0.07292698
0000c0 aa 27 3c be fc d0 74 bc 7e 91 1e be e9 c9 a2 3d
       -0.18374506 -0.014942404 -0.15485188 0.079486676
0000d0 55 ed e1 3b b3 e8 56 be 68 eb d5 3d 88 68 52 3d
       0.0068947473 -0.20987205 0.10445291 0.05136922
0000e0 7a fc 06 be 79 17 15 bd 8f f1 81 bd c5 78 37 be
       -0.1318225 -0.03639934 -0.06344902 -0.17917164
0000f0 15 dd ee bd 8f f3 c8 bd 80 9e 2b be 20 d7 ba bd
       -0.11663262 -0.0981208 -0.16759682 -0.09123063
000100 a4 c9 a4 b9 bc 3d 43 be 1e 83 12 bd f4 71 e6 3d
       -0.00031430752 -0.19066519 -0.035769574 0.112522036
000110 6b ee 6c be 08 53 16 3e 45 f4 a0 3d a1 65 27 3d
       -0.23137824 0.14680111 0.07859091 0.040868405
000120 60 96 14 3e a1 db 60 3e 55 c8 53 3e 02 16 9d 3c
       0.14510489 0.21958782 0.2068189 0.019175533
000130 50 38 61 3d 40 d8 f9 3c a9 b0 bb bd 92 18 26 be
       0.054985344 0.030498624 -0.091645546 -0.1622031
000140 a8 98 97 bd 67 81 c0 bd 0e 27 bb 3d f6 10 16 3e
       -0.07402164 -0.093996815 0.091383085 0.14654908
000150 5f 5a 31 3d 2c 2c f3 3c f2 8c d1 3d f3 e2 7f bd
       0.043299075 0.029684149 0.10231961 -0.062472295
000160 05 a4 09 bd 91 8d 92 3d cc c1 f9 3d ca 9a 43 be
       -0.033603687 0.07155908 0.12195167 -0.19102016
000170 64 1e fe 3d ff 23 af 3d 18 ba 17 3d 75 47 96 bd
       0.1240814 0.085517876 0.037042707 -0.07337848
000180 04 28 7d bc 31 a5 7b 3d dd e5 f2 3d e6 cc 9c 3c
       -0.015451435 0.061436836 0.11860249 0.019140672
000190 47 2e de 3d b6 1a 19 bd 2f 97 e7 3c d3 07 f9 bd
       0.108486705 -0.03737899 0.028270332 -0.121596955
0001a0 d1 36 6d 3d e3 4a 17 be 11 d0 8a be a4 20 c8 be
       0.057913605 -0.14774661 -0.27111867 -0.39087403
0001b0 26 57 df bd c6 07 04 3e aa f3 ca 3d 72 08 02 bd
       -0.10905294 0.1289359 0.099097565 -0.031746335
0001c0 fe e9 6f 3e ee b1 5d 3d c0 ba a7 bd 53 64 3f 3e
       0.23429105 0.054124765 -0.081899166 0.18690614
0001d0 33 5b b1 3e 40 bd bc bb f4 d7 f1 3d 21 d9 97 bd
       0.34639892 -0.005759865 0.11808768 -0.07414461
0001e0 37 b3 44 bd 5f 84 51 3e c2 97 dd bd e9 6a 66 3d
       -0.048022475 0.20460652 -0.10819961 0.0562543
0001f0 89 a0 49 bb 79 d4 1a 3e 52 42 16 3e 15 1a 88 bd
       -0.0030765852 0.15120114 0.14673737 -0.066456
000200 87 a3 6a be d8 cb 8c be 01 06 87 3b ef 05 26 be
       -0.22913943 -0.2749927 0.004120589 -0.16213201
000210 ba 1c e6 3d 25 2f 91 be 24 34 af be 34 81 06 be
       0.11235948 -0.2835628 -0.34219468 -0.13135225
000220 4a 5d 31 3e b8 dd 9b 3c 58 6e 03 3e e8 10 d0 bd
       0.17320743 0.019026622 0.12835062 -0.101594746
000230 b6 7c ad 3c 41 97 29 3e 64 9c 56 be 32 b1 b5 bc
       0.02117763 0.16561605 -0.20958096 -0.02217922
000240 16 88 11 bc 4f 6f 3c be 42 c1 ab bc 33 77 e3 bd
       -0.008882543 -0.18401836 -0.020966176 -0.1110672
000250 bd c8 1a 3e b5 9b 27 be 9d 27 71 bd 00 6d 74 be
       0.15115638 -0.16367991 -0.05887567 -0.23869705
000260 68 84 84 3d f5 0b 68 bc 2c 98 37 3e c0 e1 4d 3d
       0.06470567 -0.014163007 0.17929143 0.05026412
000270 75 f7 6f bc d3 1c 64 3d 10 a8 92 bc 56 e9 b9 bd
       -0.014646401 0.05569155 -0.017902404 -0.090777084
000280 b8 13 66 be 37 05 a1 be 99 1f 8c 3d b3 10 5f 3c
       -0.2246846 -0.3144929 0.06841964 0.013614821
000290 0d 1c 80 bd 38 55 ff 3d 57 74 fa 3d 6e 6c 9b be
       -0.0625535 0.12467426 0.12229221 -0.30356163
0002a0 02 29 5b be 17 72 93 be 32 fe 57 be 64 e2 49 be
       -0.21402362 -0.2879798 -0.21093062 -0.19715267
0002b0 d1 9e 11 3d 2e 13 ec 3d fc 2d c4 3d f3 6c dc b9
       0.03555185 0.11527096 0.09579083 -0.00042042843
0002c0 05 68 0c 3e 1f 7a 2f be b4 0c 18 bd 40 21 41 3e
       0.13711555 -0.17136429 -0.03712149 0.1886034
0002d0 0d 33 0e be fb e6 84 bd dc 10 43 be ad 34 c2 3d
       -0.13886662 -0.064893685 -0.190494 0.09482703
0002e0 2d ba 5e be 00 68 cc 3d 78 68 4a 3e 19 bf 28 bd
       -0.21750708 0.09980774 0.19766414 -0.04119787
0002f0 4e 8b 60 3e 5d 6c 71 be fd 08 05 be 4e 27 71 be
       0.2192814 -0.23576494 -0.1299171 -0.2355015
000300 4f d9 4e 3d 76 9a 18 3d 73 fe b7 bc 08 db 26 be
       0.05050021 0.03725668 -0.022460198 -0.16294491
000310 64 dc 51 3e ce 80 9a 3d 83 41 a0 3d c2 6e 73 be
       0.20494229 0.07544099 0.07824995 -0.2377272
000320 f1 f0 83 be 6d 0c 34 be 18 98 d2 3c f8 0b a7 be
       -0.2576976 -0.17582865 0.02570729 -0.3262632
000330 ae 9e 82 be 2c b2 87 be f7 40 f5 bd 9f 3c 44 be
       -0.25511688 -0.26503122 -0.11975282 -0.1916375
000340 ee 7e d8 3d 68 0d b8 3d f8 51 c8 bd 64 db ee bd
       0.10571085 0.08986932 -0.09781259 -0.11662939
000350 b0 4b 38 3e 45 83 f0 3d aa 54 d3 3a f8 1d 12 3e
       0.17997622 0.11743788 0.0016123254 0.14269245
000360 d0 53 46 3e 61 3b 44 3d 6b 12 02 be 15 de 0d 3b
       0.1936791 0.04790819 -0.12702338 0.0021647264
000370 04 4b f2 bd 57 72 5e bd d9 7a 2c bd 4d 79 0a 3e
       -0.11830714 -0.05430826 -0.042109344 0.13522835
000380 2b 22 95 be 3d b3 fb 3c 2b bf df 3d 2c 17 38 be
       -0.2912763 0.030725116 0.10925134 -0.1797759
000390 33 7f b0 3d 09 aa 07 be 55 e7 51 be fc b1 e7 bd
       0.08618011 -0.13248457 -0.20498402 -0.11313245
0003a0 4c 7e 2f be f1 50 18 3e e3 86 84 bd 0e 31 07 3e
       -0.17138022 0.14874627 -0.0647104 0.13202307
0003b0 64 b1 83 be 6f 32 14 be ac a3 0c be 34 21 34 be
       -0.25721276 -0.14472364 -0.13734311 -0.17590791
0003c0 23 26 f9 3c 73 41 86 be 2d 3e 80 be 79 06 63 3e
       0.030413693 -0.2622181 -0.25047436 0.22170438
0003d0 c6 ff 0e 3e 12 1e 73 be d3 99 2f bd 15 eb 46 be
       0.13964757 -0.2374194 -0.042871308 -0.19425614
0003e0 e1 f2 57 be 5e 96 0f 3c 6a 3c 26 3e a8 32 4d 3d
       -0.21088745 0.008763878 0.16233984 0.050097138
0003f0 88 65 c8 3d cc ea 65 3d b4 91 8a 3e 1e 90 d9 3c
       0.097849905 0.056132123 0.27064288 0.026557978

encoder.0.bias f4 [16]
000000 ec 1d d5 3d 00 91 32 be b4 55 aa 3d 17 8e b8 3c
       0.10406098 -0.17438126 0.08317128 0.022528691
000010 44 f1 94 3b c9 97 2a be 65 bf 8f 3d 0b e8 02 3e
       0.0045453627 -0.16659464 0.070189275 0.1278383
000020 26 d6 8f 3c 9c de f9 bd 52 82 f4 bd 6d e4 f1 3d
       0.017558169 -0.122006625 -0.11938919 0.11811147
000030 09 5a 27 3e 1b dc ff 3d 97 fc a4 3d 34 79 4b 3e
       0.1634294 0.12493154 0.0805599 0.19870454

encoder.1.weight f4 [16]
000000 36 fe 76 3f 3f 98 73 3f c3 58 88 3f f7 59 85 3f
       0.96481645 0.95154184 1.0652088 1.041808
000010 36 67 76 3f c9 44 7d 3f be 5b 86 3f 38 e5 80 3f
       0.9625124 0.9893308 1.0496747 1.0069952
000020 6e 13 85 3f e7 04 84 3f 8f fe 7b 3f f7 03 7f 3f
       1.0396554 1.0313996 0.984353 0.99615425
000030 ad d3 7a 3f d4 11 87 3f 69 d6 75 3f e1 c2 7b 3f
       0.9797924 1.0552316 0.9603029 0.98344237

encoder.1.bias f4 [16]
000000 14 f0 71 3b 8a 6b 0a ba d9 6a bd 39 fd 96 18 3c
       0.003691678 -0.0005280307 0.00036128497 0.009313342
000010 00 a7 ad b9 9c d0 e2 ba 5d a3 fa 3d 54 69 0c 3c
       -0.00033121556 -0.0017304602 0.1223819 0.008570034
000020 ea 20 e0 b8 43 38 45 3b 93 60 4d ba b4 5a ca 3b
       -0.00010687283 0.003009335 -0.000783452 0.0061753634
000030 77 64 1f 3c 4f 67 c8 3b 99 ff ec 3d b9 b4 16 3b
       0.0097285425 0.006115831 0.11572189 0.0022995903

encoder.1.running_mean f4 [16]
000000 d3 40 cf 3d d4 82 32 be 2b 79 a9 3d 94 5f a4 3c
       0.10119786 -0.1743272 0.08275064 0.020065106
000010 7e 28 a8 3b d9 3b 2b be e8 0b 8f 3d 71 3c 01 3e
       0.00513178 -0.16722049 0.06984693 0.12620713
000020 64 66 8e 3c 35 1f fa bd 54 4b f5 bd 91 79 f2 3d
       0.017382808 -0.122129835 -0.11977258 0.11839593
000030 90 c7 26 3e 2e b4 01 3e 1d 0c a5 3d 45 20 46 3e
       0.16287065 0.1266639 0.08058951 0.19348247

encoder.1.running_var f4 [16]
000000 bb d2 23 3e 9b 93 bb 3e 6b 42 e9 3e bb 49 ec 3e
       0.15998356 0.36636052 0.45558485 0.46150002
000010 09 1b b8 3e 0d 43 c1 3e 1e 33 4b 3f 02 28 5e 3f
       0.35958126 0.37746468 0.79374874 0.867798
000020 43 67 0a 3f a4 1a df 3e 2b 4b ad 3e 24 f9 a9 3f
       0.54063815 0.43575013 0.3384641 1.3279157
000030 3d 94 b3 3e c7 47 84 3f d4 25 c9 3f fb 95 0b 3f
       0.35074034 1.0334405 1.5714669 0.5452573

encoder.5.weight f4 [32, 16, 3, 3]
000000 72 36 cf bd b2 14 11 3d df 01 c7 bd 92 6c f5 bd
       -0.101178065 0.035420127 -0.09717154 -0.11983599
000010 28 51 c0 3c 27 e0 c1 bd 89 55 6b bd d1 eb 64 bd
       0.023476198 -0.09466582 -0.05745462 -0.055888955
000020 ff f9 88 bd 6c 4c 09 bd ae 6b 31 bd 60 b7 68 3d
       -0.06688308 -0.033520147 -0.043315582 0.056815505
000030 9a 97 e6 ba 54 06 1c bc 31 46 1b be 67 a6 8f 3c
       -0.0017592788 -0.009522993 -0.15163495 0.017535402
000040 b6 fd eb bd 0f 0d 2a bd 06 18 96 ba 68 3e b3 bc
       -0.11523001 -0.04151636 -0.0011451251 -0.021880344
000050 36 0b 6c bd 8d 3b b9 bd c7 83 46 bc 86 41 ce 3b
       -0.05762788 -0.090445615 -0.012116379 0.006294432
000060 67 eb a7 bd 60 7e c0 bd 58 b2 92 bd c3 8e 24 bb
       -0.08199196 -0.09399104 -0.071629226 -0.0025109507
000070 44 58 1a 3d 93 6a 7d 3d f0 5b ab 3c 84 b2 36 3b
       0.037681833 0.061869215 0.020917863 0.00278774
000080 04 ce 8e bc 93 36 92 3d e2 a9 15 3e b4 f2 0c 3e
       -0.01743222 0.071393155 0.14615586 0.13764459
000090 51 92 b6 3d 9e 98 d4 3d 0d c7 3e 3d 12 ef c9 bc
       0.089146264 0.10380672 0.04657655 -0.02465013
0000a0 b1 82 a4 3d 6b 79 b6 3b 97 3b ae bd 17 70 0e bd
       0.0803274 0.0055686734 -0.085074596 -0.034774866
0000b0 1f 22 30 3d 7e 24 9a 3c f2 71 ac 3c bd af ec 3a
       0.04300129 0.018816229 0.021050427 0.0018057745
0000c0 88 42 d3 bd 30 70 a2 3c 6c 61 f6 3c 24 d1 61 3d
       -0.10315424 0.019828886 0.030075751 0.055131093
0000d0 06 ce f1 3d e4 7d 10 3e 21 4c e7 bd d3 84 f5 3d
       0.11806874 0.14110523 -0.11293817 0.11988225
0000e0 ae dd de 3d 04 63 d0 bd 13 56 f7 3c 0f 62 cd bd
       0.10882126 -0.10175136 0.03019241 -0.10028469
0000f0 5d 1a de 3d 02 d5 f1 bd 2b 3d fc bd 09 e4 6d bd
       0.10844872 -0.11808206 -0.12316354 -0.0580788
000100 a8 82 0a 3d 18 59 ee bc 59 e7 a8 3c 18 6d 12 3d
       0.03381601 -0.029095218 0.020618128 0.03574857
000110 37 47 e4 3d 38 41 88 3d 10 f6 e1 3d 7f 4d b1 3d
       0.11146396 0.066530645 0.11033261 0.08657359
000120 7b 3a 50 bd 30 d0 b1 bd bd b1 99 3d ad a1 9e bd
       -0.05083702 -0.08682287 0.07504604 -0.07745681
000130 10 dd 67 3c a8 4c 69 3d 0c 6c d6 3d 18 a0 69 3d
       0.0141518265 0.05695787 0.10469827 0.057037443
000140 32 72 93 3d 38 6e a2 bd 9d 99 6e 3d 98 aa cb bd
       0.071995154 -0.07931179 0.058251966 -0.099446476
000150 14 75 8d 3c 42 9e 12 bc 3d 28 9d bd 04 e0 80 3d
       0.017267741 -0.008948864 -0.076736905 0.062927276
000160 5d ed 8a bd ac e4 a0 bd 4b 76 d6 bd 9f 8a 8a 3c
       -0.06783555 -0.07856116 -0.10471781 0.016911803
000170 c6 8b 93 3d 7e 04 9d bd bf db 18 3d b0 f2 1f 3d
       0.07204394 -0.076668724 0.03731894 0.039049804
000180 86 60 11 3d 03 90 39 bc 1b fe ea 3d f7 b5 9f 3c
       0.035492443 -0.011325839 0.11474248 0.019495947
000190 b2 96 55 bd 4b 58 60 bd 42 6f 8e 3d 7e 4b 8a 3c
       -0.052145667 -0.054771703 0.069548145 0.0168817
0001a0 35 2d fb bc 90 6b d4 3c d5 e6 78 3c 0a 0e 0d 3e
       -0.030661205 0.025930196 0.015191753 0.13774887
0001b0 06 b5 f1 bd fd 01 ce bd bc 85 9c bd 83 70 c4 bd
       -0.118021056 -0.10058973 -0.07642695 -0.095917724
0001c0 d4 82 dc 3c 6e 7e 1c 3d 67 95 c6 bd 65 27 33 3d
       0.026917852 0.03820651 -0.09696465 0.04373874
0001d0 78 7a 01 3d fe 84 64 3d ed 5d c1 bc 48 35 24 bc
       0.031610936 0.055790894 -0.023604358 -0.010022469
0001e0 08 7a 86 3c 20 51 b5 3d d8 4a 32 3d 65 ae 3c 3c
       0.01641561 0.08853364 0.043528408 0.011516188
0001f0 59 c9 fe 3d eb c8 8c 3d cd 8d 0f be 24 50 cf bc
       0.12440748 0.068742596 -0.14018936 -0.025306769
000200 e8 01 40 3d 66 80 29 be 5b 46 88 bc b4 a6 08 bd
       0.046876818 -0.16552886 -0.01663511 -0.033362105
000210 60 32 cd bd da 5e 93 3c b1 f4 13 be 6b 89 88 3b
       -0.10019374 0.017989565 -0.14448811 0.004166772
000220 49 85 40 bd b1 0f 79 3d 47 d7 73 bc ae 5e 2d bd
       -0.04700211 0.06080598 -0.014882869 -0.04232662
000230 99 16 fa 3c 5d 2c 11 3d 23 de a2 bc 8e d5 d9 3d
       0.030528354 0.0354427 -0.019881314 0.106364354
000240 87 89 7e 3b 4e 4f 86 bc d6 fb 2b bd 49 d9 58 bd
       0.0038839297 -0.016395237 -0.041988216 -0.052941594
000250 66 7f b7 bd 77 0e a9 bc f0 63 8b bd 07 0d 99 bd
       -0.08959846 -0.02063678 -0.06806171 -0.07473188
000260 19 1c d6 bd d1 02 86 bd 87 be a0 bc b5 88 c9 bd
       -0.10454578 -0.06543506 -0.0196221 -0.09840528
000270 27 15 8f bd f2 db a6 bd 6b 95 92 bd 63 37 90 bd
       -0.06986456 -0.0814742 -0.071574055 -0.07041814
000280 91 54 71 bd 0d 33 ae bd 70 38 a9 3c d3 5c 98 bc
       -0.05891854 -0.08505831 0.020656794 -0.01859895
000290 0d 9c 24 bd 08 b1 6d bc 95 85 b5 bd 2d 08 66 bd
       -0.040187884 -0.01450754 -0.088633694 -0.05616014
0002a0 49 de 9f bd b9 63 74 bd 9d 62 eb bd 4c db 43 bd
       -0.078060694 -0.059665415 -0.11493418 -0.04781656
0002b0 fa c8 48 bb 66 77 6c bd c3 47 6b bd be 3c df bd
       -0.003063737 -0.057731055 -0.057441484 -0.109002575
0002c0 72 61 19 be 6c cc 99 bd d8 4d ee bd 7e 32 c9 bd
       -0.14978579 -0.075096935 -0.11635941 -0.09824084
0002d0 1f 98 65 bd 45 47 f0 bc fe a5 56 bd 22 e0 e4 bd
       -0.056053277 -0.029330859 -0.052404396 -0.111755624
0002e0 ce 52 d3 bd fc a0 ea bd 09 b3 0d be 12 1f 0f be
       -0.10318528 -0.114564866 -0.13837828 -0.13976696
0002f0 d6 5a 09 be 34 f4 0c 3d 7f 22 54 3c 6d c6 8f bd
       -0.13413557 0.034412578 0.012947678 -0.070202686
000300 e2 5c 92 bb 10 1b 81 3c 9d 1a 48 bd eb 02 96 bc
       -0.004466639 0.015759975 -0.048853505 -0.018311938
000310 76 c9 a5 bd ec c1 92 bd 2e 78 57 bc 26 90 81 3a
       -0.08095066 -0.07165894 -0.013151212 0.0009884879
000320 af bf 9c bc b9 46 f5 ba 0f 7b 1c bd 9d f7 3f bc
       -0.01913437 -0.0018713094 -0.038203295 -0.01171675
000330 f2 8d eb bc 4a 42 c8 bc ed a7 30 bd b5 c7 5f 3c
       -0.028754208 -0.024445672 -0.043128897 0.013658454
000340 37 28 72 3d 6a 95 59 bd aa b2 89 bd 14 96 c3 bb
       0.059120383 -0.053121008 -0.067235306 -0.0059688184
000350 85 d5 fa bc 29 99 65 bc 4d aa b9 bd 92 30 88 bd
       -0.030619392 -0.014013567 -0.090656854 -0.06649889
000360 cd 65 1a bd e3 11 cb bc f1 49 e1 bc eb f4 f9 bc
       -0.03769474 -0.024788802 -0.027501078 -0.030512294
000370 f0 4f 81 bd 65 6b 29 bd 31 4a e1 bc e9 72 0e bd
       -0.06314075 -0.041362185 -0.027501198 -0.034777556
000380 cc 55 bf bd b5 5c 6c bd 7a 2b ca bd 85 c2 b1 bd
       -0.09342536 -0.0577056 -0.09871574 -0.0867968
000390 95 e2 98 bd a0 90 84 bd 22 40 ee bd 13 9b bd bd
       -0.07465092 -0.064728975 -0.11633326 -0.09258094
0003a0 8c 4f 17 be 66 b6 07 be 22 8a 48 bc c5 55 4e bb
       -0.14776438 -0.13253173 -0.012239965 -0.0031484228
0003b0 d6 0b 24 bd f9 5b 50 bd f9 b7 b4 bd c0 db 6b bd
       -0.04005035 -0.050868962 -0.088241525 -0.057582617
0003c0 a1 d2 a0 bc 36 71 ad bd 7c 79 a9 bd bf c0 88 ba
       -0.019631686 -0.08468859 -0.082751244 -0.0010433419
0003d0 e7 f6 5a bc 63 a2 94 bd e2 6a 7c bc b5 5c 0d bc
       -0.01336453 -0.07257535 -0.015406342 -0.00862806
0003e0 c0 91 56 bd c7 1f 8e bd 74 77 52 bd cc 0a 3e bd
       -0.05238509 -0.06939655 -0.05138345 -0.046397015
0003f0 6f c5 88 bc 52 57 1c bb 22 69 65 3b ed cd 3a bd
       -0.016695706 -0.0023855758 0.003500529 -0.045606542

encoder.5.bias f4 [32]
000000 e6 98 6d 3d cf 54 78 bd ed ec be ba 21 d8 98 3b
       0.058007143 -0.060627755 -0.0014566459 0.0046644364
000010 2f 97 8f 3d 01 8b a2 bd 5c b0 c9 3c f0 a6 7c bd
       0.07011258 -0.07936669 0.024620228 -0.06168264
000020 64 8c 82 3d 8a 26 7a 3d 2e f1 a3 bd 6b 72 99 bd
       0.06374434 0.06107191 -0.08004986 -0.074925266
000030 b6 06 de 3c ca 82 15 3d ac 98 25 bd 20 35 3d 3d
       0.02710281 0.036501683 -0.040428802 0.046193242
000040 3d f0 90 bc de c0 21 3d df 66 bb bd 2f 2c 54 bd
       -0.01769268 0.039490573 -0.091504805 -0.05179995
000050 87 be 84 bd 9d 7d 24 3d f8 b2 f7 bc ec 46 85 3d
       -0.06481653 0.040158857 -0.030236706 0.06507668
000060 d5 81 81 3c c5 10 37 3d c9 63 b5 bc 6d b6 ab bb
       0.015808979 0.044693727 -0.022142308 -0.0052402527
000070 d0 4f ab bd 4b 69 81 bd e2 3f 13 bd f4 a3 b6 3d
       -0.083648324 -0.06318911 -0.035949595 0.0891799

encoder.6.weight f4 [32]
000000 cd 5d 74 3f 25 0f 5f 3f dc d3 7d 3f 1f 8c 77 3f
       0.9545563 0.87132484 0.99151397 0.9669818
000010 4f 3a 66 3f e0 fd 71 3f 78 83 75 3f 44 21 75 3f
       0.8993272 0.9452801 0.9590373 0.95753884
000020 88 06 7d 3f ea 95 7c 3f d5 91 64 3f 4a e4 6b 3f
       0.9883809 0.9866625 0.8928502 0.92145216
000030 80 7d 6d 3f ff cc 81 3f eb 77 61 3f 92 51 60 3f
       0.9276962 1.0140685 0.88073605 0.87624466
000040 7e da 5e 3f 9f 60 56 3f b2 75 59 3f ee 26 61 3f
       0.8705214 0.8374118 0.84945214 0.87950027
000050 84 0e 61 3f 1b 2a 80 3f ed ec 6a 3f 3a 22 5e 3f
       0.87912774 1.001285 0.9176777 0.86770976
000060 c2 ae 5c 3f 6d a5 7b 3f 64 6c 6e 3f 3a 4f 59 3f
       0.8620416 0.98299295 0.9313414 0.84886515
000070 16 2d 79 3f 75 ad 74 3f d0 e1 6a 3f b2 9a 82 3f
       0.9733442 0.95577174 0.9175081 1.0203459

encoder.6.bias f4 [32]
000000 04 76 95 3d 3d 78 ee be 7c e6 d1 3d 1d 15 d6 3d
       0.072979 -0.4657611 0.102490395 0.10453246
000010 db 4c eb be d5 77 da be b9 2d 98 3d ca 43 ad 3d
       -0.45957074 -0.4266955 0.07430596 0.08460195
000020 41 fd c2 3d 09 51 0a 3e f7 58 db be 68 2a dd be
       0.095209606 0.13507475 -0.42841312 -0.43196416
000030 ca 68 ce bc df fd 8f 3d 32 f7 e8 be 93 bc f8 be
       -0.025196452 0.07030844 -0.45501095 -0.4858137
000040 d3 dd f6 be 4e b4 0c bf 12 47 08 bf 38 79 5f bd
       -0.48216113 -0.54962623 -0.53233445 -0.054558963
000050 07 42 e4 3c 00 c4 ca 3d 56 36 7c bc df 11 6e 3d
       0.027863516 0.09900665 -0.015393814 0.058122512
000060 b1 ce ec be 5f 59 70 3d 97 7b ca bd 7d 53 08 bf
       -0.46251443 0.05867898 -0.09886854 -0.53252393
000070 26 39 8a 3b 8e e0 a2 bd b0 60 3c 3d 1c b1 0f 3e
       0.0042182384 -0.07952987 0.045990646 0.14032406

encoder.6.running_mean f4 [32]
000000 9a 91 23 be e7 05 2c c0 18 ee e4 bd a9 3a 27 bc
       -0.15973511 -2.6878603 -0.11178225 -0.010206857
000010 62 7f 20 c0 66 c3 27 c0 88 5c 13 bd 33 4c 0e be
       -2.5077748 -2.6213012 -0.035976917 -0.13896255
000020 6f f2 8d 3c 9d 22 fc 3b b0 7c 24 c0 a9 33 38 c0
       0.017327515 0.007694556 -2.5701103 -2.878153
000030 ad 1e 3f 3f 74 ce 38 be da 27 29 c0 98 0f 29 c0
       0.7465618 -0.18047506 -2.6430573 -2.6415768
000040 bb 93 15 c0 4a 23 25 c0 db ad 35 c0 89 6c d3 3f
       -2.3371418 -2.5802789 -2.8387363 1.6517497
000050 28 48 af bd 84 31 11 be bf 0c bb 3f 91 63 a8 3e
       -0.085586846 -0.14179045 1.4613265 0.32888463
000060 e5 84 27 c0 bf ba ba bd 10 a4 a8 3e a9 68 1e c0
       -2.6174862 -0.0911765 0.3293767 -2.475138
000070 84 a1 e5 3f 65 e4 8a 3d 19 73 e0 bb c4 88 86 3c
       1.7939916 0.06781844 -0.006849658 0.016422637

encoder.6.running_var f4 [32]
000000 19 45 1b 40 37 72 d7 40 8e 8f 43 40 98 c3 8b 3f
       2.4260924 6.7326922 3.055637 1.0919065
000010 4e b1 9d 40 2e 33 99 40 bb ba 70 3f ec 89 d6 3f
       4.9278936 4.7874975 0.9403493 1.676084
000020 6f 20 d8 3f 58 72 22 40 46 f5 9a 40 54 e9 c0 40
       1.6884898 2.538229 4.8424406 6.0284824
000030 d3 ae 8f 40 c8 24 43 40 21 2b a3 40 e2 28 d6 40
       4.490091 3.04912 5.0990148 6.6924906
000040 04 82 98 40 a4 e3 b4 40 28 08 bf 40 5b bc 22 40
       4.765871 5.652788 5.9697456 2.5427463
000050 ca 7c 9a 3f b0 6d 4e 40 a1 8b 07 40 af 93 38 40
       1.2069333 3.2254448 2.1178973 2.884014
000060 38 2f b9 40 10 7c 3d 40 0e ec a3 40 7e 7c 96 40
       5.787014 2.9606972 5.1225653 4.702697
000070 c2 91 38 40 ae 21 af 40 1b d9 83 3f 12 05 cf 3f
       2.8838964 5.4728613 1.030063 1.6173422

encoder.10.weight f4 [64, 32, 3, 3]
000000 ab 54 0b bd b1 1c c3 bc 6d d3 3b 3d fe 3c a6 3c
       -0.034016293 -0.023817392 0.04585593 0.020292755
000010 a6 f3 1a 3d 81 aa fb 3b 86 5d cf 3d d0 92 bc 3c
       0.037830018 0.0076802378 0.1012526 0.023019224
000020 21 9c 30 3c 41 85 e8 3c cf 6d 08 3c fb ff 3b 3d
       0.0107794115 0.028383853 0.008326962 0.04589842
000030 05 79 f6 38 c5 c6 09 bd 88 de 95 bc b5 99 6d bd
       0.00011752736 -0.033636827 -0.018294588 -0.058007915
000040 b5 34 95 3c 23 aa e3 3a fc 72 0d 3d 22 06 e6 bc
       0.01821361 0.001736943 0.034533486 -0.028079096
000050 5c 5a e2 3d d0 af 27 bc 7e 06 96 bb aa 2b c7 39
       0.11052391 -0.010234788 -0.0045784106 0.0003798877
000060 5b 12 5a 3b 10 88 d9 3d 1e c1 a3 3d f1 53 c8 bc
       0.00332751 0.10621655 0.079958186 -0.024454089
000070 36 11 5a bd 14 5e 09 3d b3 1c 66 3d d0 84 1c bc
       -0.05323907 0.033536986 0.056179713 -0.009553149
000080 89 cf 77 3d 58 52 24 bb 42 d0 56 3d 78 6b 98 3d
       0.060500655 -0.0025073495 0.052444704 0.07442373
000090 55 85 2f 3d 19 31 ff bc 24 e4 f4 3c 85 18 8c 3d
       0.042851765 -0.031151341 0.029893942 0.06840614
0000a0 e0 e0 5e bd 73 80 b4 bc 9e 29 93 bd 9e 1d ad 3c
       -0.054413676 -0.022033906 -0.07185672 0.021132287
0000b0 93 aa 2f bd d4 51 a9 3d b8 26 20 3c 45 6d 02 3b
       -0.04288728 0.082675606 0.009774856 0.0019901555
0000c0 28 f6 9d 3c a5 ec 5a bb 42 a8 01 bd 55 21 51 3c
       0.019282416 -0.0033405211 -0.031654604 0.012764295
0000d0 f0 eb 6d bd e9 10 75 3d 40 e9 be bc e5 a1 cb 3c
       -0.058086336 0.05983058 -0.023304582 0.02485747
0000e0 35 35 b8 3d 51 f0 24 3d 6c 82 1a bc aa e7 88 3d
       0.089945234 0.040268246 -0.009430509 0.066848114
0000f0 93 40 4f bd ad c4 ba bc 4c c7 81 3d e4 61 da 3d
       -0.050598692 -0.02279886 0.06336841 0.106632024
000100 66 63 4c 3d aa 32 35 3e e9 83 a0 3d bc 2e d9 3d
       0.04989948 0.17695108 0.0783766 0.10604617
000110 32 d2 f7 3a 15 fe e3 3d 77 8a c7 3d 84 5e 00 3e
       0.0018907248 0.11132447 0.09743207 0.12536055
000120 1b fb a1 bc 83 79 ad 3b 74 f3 0e 3d 68 98 86 bc
       -0.019773057 0.0052940263 0.034900144 -0.016430095
000130 6d 02 3b 3d 15 f7 26 3c 2d 9d e0 3d 04 64 4f 3c
       0.04565661 0.010190745 0.10967479 0.012658123
000140 72 eb 03 3e a9 e9 50 bc 67 f6 88 bd b3 4e 62 3d
       0.12882784 -0.012751021 -0.066876225 0.055250835
000150 46 bb b4 bd fa 0c 64 3c 33 8f 0a bd 79 07 a8 bd
       -0.08824782 0.0139191095 -0.03382797 -0.0820455
000160 10 56 fa 3c 45 f8 98 3d e0 2b 95 3d 12 8b f4 3c
       0.030558616 0.07469229 0.07283759 0.02985147
000170 54 37 9d 3a af 79 8c 3b 2a 69 af bc d3 d3 81 bd
       0.0011994638 0.0042869668 -0.02141245 -0.063392304
000180 09 6b 0e bd 9c 13 9d bc 75 da fe bc 4c ca f4 3d
       -0.034770045 -0.01917439 -0.031110028 0.119526476
000190 07 ea d6 3d 7a 81 1e 3b 66 e9 a8 3c 68 e2 7a 3d
       0.10493856 0.002418606 0.020619106 0.061251074
0001a0 d9 3b 3f 3d 28 69 e8 bc 7d 1c 58 bd 4e 66 0d bd
       0.046687935 -0.028370455 -0.052761544 -0.034521393
0001b0 1e 34 2b 3c 3c d7 c9 bd e8 41 01 bc 59 c5 a5 bd
       0.010449437 -0.09855506 -0.007889248 -0.08094282
0001c0 95 59 05 bd da 89 33 3c 8b 2c 06 3d e7 0c 27 bd
       -0.032556135 0.010958159 0.032757323 -0.04078379
0001d0 65 ef 0f bc 8b 33 85 bc 6b 0f 56 3c bb 2e 9d bb
       -0.008785103 -0.01625993 0.013065199 -0.0047968305
0001e0 b1 9c 43 3d 59 29 18 3c 26 67 34 3d c9 2c dc 3d
       0.047756854 0.009287202 0.044043683 0.107507296
0001f0 53 ab 0d 3d e8 14 a4 3d 31 27 bc 3d 69 84 8a bd
       0.034587216 0.080118 0.09187163 -0.067635365
000200 61 71 29 bc eb 18 09 bd 4e 0b 7e 3c a2 b1 50 3d
       -0.010341973 -0.03347103 0.015505625 0.050950654
000210 3c 31 44 3d 13 aa 18 bd 98 56 b6 3c cf 78 a6 3d
       0.047898516 -0.03727157 0.022258088 0.08128511
000220 63 2a 79 bb 83 80 5a bc 86 c9 38 3d 58 b3 9f 3c
       -0.003801965 -0.013336304 0.045114063 0.019494697
000230 44 a9 41 3c 80 bf 80 bd e0 94 fa 3c 54 a7 13 bd
       0.011820141 -0.06286526 0.030588567 -0.03604825
000240 f9 5c b7 3d 00 4a 54 bc 3d 99 c8 bc cc c5 a6 bc
       0.0895328 -0.012957096 -0.024487132 -0.020357989
000250 d3 7c f7 bc 47 2c a1 3c 68 d7 7b bc d2 8d 4e bc
       -0.030210888 0.019674433 -0.015371181 -0.012607055
000260 11 e8 84 bc f8 9e d6 3c 61 0d 7e 3c d6 7c aa 3c
       -0.01622394 0.02619885 0.0155061195 0.02081148
000270 1b e9 4c 3d b5 c6 82 bc 4d 52 aa bd 97 6a 48 bd
       0.050026994 -0.015963892 -0.08316479 -0.048929777
000280 2c fb 71 3b 97 77 4a 3c af bf 7d 3d 25 ce 08 3c
       0.0036923392 0.012357614 0.06195038 0.00834993
000290 a7 48 dc 3c c1 af b3 3c 59 01 62 bc 57 54 ec bc
       0.026890112 0.021934392 -0.013794267 -0.02884881
0002a0 38 42 97 3a f1 a9 fe 3c cf bf 2d 3c b6 97 9d bd
       0.001154012 0.031086894 0.010604813 -0.07694952
0002b0 d0 9e 7b bd 01 d9 88 bd 0d a9 f7 bc 31 89 4c bd
       -0.061430752 -0.06682015 -0.030231977 -0.049935523
0002c0 88 26 10 bc 55 df 62 3c df b6 e3 bc e5 af 81 bd
       -0.008798249 0.013847192 -0.02779716 -0.06332377
0002d0 3f ca 79 3c 05 7e b8 3d f0 22 3b 3d 7f 6b bd 3a
       0.015245973 0.09008411 0.045687616 0.0014451592
0002e0 d1 1a 20 3d be 10 d5 bc e8 07 36 ba a0 82 b4 3c
       0.039088074 -0.02600896 -0.0006943927 0.022034943
0002f0 f2 25 11 3e bd ec f1 3c 59 16 83 3d 59 1d 93 3d
       0.14174631 0.02953183 0.06400747 0.07183332
000300 49 71 0a bd ec 18 75 bd 38 68 cb 3c d7 dc b7 bb
       -0.033799443 -0.05983822 0.024829969 -0.005611043
000310 50 a6 80 3d 5b 13 17 3d 18 37 d4 bd a6 01 b3 bc
       0.062817216 0.036883693 -0.10362071 -0.021851372
000320 cc 85 16 3d d2 eb 2e bb b7 1a 54 bb 44 ee e4 bb
       0.036748692 -0.0026690853 -0.0032364556 -0.0069864113
000330 1e ae 9a 3d fe 9e 4c 3c 8c 4c 71 3d 26 2f a9 bd
       0.075527415 0.012489079 0.05891089 -0.08260946
000340 c6 2b 29 3d 63 85 d7 3c 1d 4c 6a 3d fa d8 db bc
       0.04130151 0.026308721 0.057201494 -0.02683686
000350 c5 de 29 3d 50 74 21 3d 41 78 b4 3d 8c fb ae bb
       0.041472215 0.039417565 0.08811999 -0.0053400453
000360 b4 83 ec 3d bb a4 be 3b 32 57 23 3d ac d3 a9 3d
       0.11548558 0.0058179772 0.039878078 0.08292326
000370 f9 ae a6 bc 4c d6 ab bc ab 2d b2 bc 8a 7a c6 bb
       -0.020347105 -0.020976208 -0.021750292 -0.0060570883
000380 7f 8d 39 bd 8b 0e 67 bd b3 a1 e6 3b c9 24 81 3d
       -0.045300957 -0.056410354 0.007038319 0.06305844
000390 28 62 a0 bd a8 24 14 bd 6d cc 7a bd 73 13 88 bd
       -0.07831222 -0.03616777 -0.061230112 -0.06644335
0003a0 85 15 42 bd d6 24 4b 3d c9 af c9 bd d5 9b 9c bd
       -0.047383804 0.049595676 -0.098479815 -0.0764691
0003b0 30 c6 7a bd e9 b9 c2 bd e2 fd e4 bc c6 91 b5 bd
       -0.061224163 -0.09508116 -0.027953092 -0.08865695
0003c0 ae 54 63 bd f0 1a 87 bd e8 c6 e9 bc 47 9e 91 3d
       -0.05550068 -0.06596935 -0.028537229 0.07110267
0003d0 f3 3e 56 3d 4d 59 1b bd 38 21 75 3d 43 17 ea 3b
       0.052306127 -0.03792696 0.059846133 0.0071438863
0003e0 86 5e b8 3c dd bb 3c bd 85 6e f2 bc 61 40 b3 39
       0.02250601 -0.046077598 -0.029593715 0.00034189507
0003f0 94 9f 54 bc e6 1b 6c bd 27 4b f9 bc 59 c3 b8 3b
       -0.0129774995 -0.057643794 -0.030431343 0.0056385216

encoder.10.bias f4 [64]
000000 79 91 1d bb bc 0c 71 bd db 62 f3 3c cd b3 42 bc
       -0.0024043007 -0.058850035 0.029710224 -0.011883688
000010 91 13 2d bd f5 fc 34 bc a2 1e 66 bc 3a 4e 43 bd
       -0.042254988 -0.011046638 -0.014045389 -0.047682025
000020 3d 7a 3e bd b6 ce e0 3b ec cd ff 3b 79 9a 26 3c
       -0.046503294 0.0068605794 0.00780653 0.010168665
000030 4f 1f 6f 3d 26 68 5b 3d 3d f2 59 bd af 4e c1 3c
       0.058379468 0.05356612 -0.053209532 0.02359709
000040 1b 0f 38 3d 4f 9d 1f 3d 8b 01 3b 3d f9 d6 44 bd
       0.04493628 0.03896838 0.04565577 -0.048056576
000050 32 1e 15 bd 57 41 9e 3c ad a6 5e 3d b9 36 7f 3c
       -0.03640575 0.019318266 0.054358173 0.015577012
000060 55 c9 dd 3b 79 6a 6c bd b2 b6 42 bd 5b 52 4f bd
       0.0067683854 -0.057718728 -0.047537513 -0.05061565
000070 e5 0a 46 3d f6 97 c6 3c b8 0d 0b 3d 70 5d bb bc
       0.048350234 0.024242382 0.03394863 -0.022871703
000080 2f 23 8c bc b7 02 73 3c 25 e3 05 3d a7 eb e4 bc
       -0.01710662 0.01483219 0.032687325 -0.027944399
000090 45 64 62 bd 76 31 fc bc 3a 3e 13 bd 97 f3 b6 3c
       -0.055271406 -0.030785304 -0.035948016 0.02233295
0000a0 1d 7d e3 3c 03 57 3b 3b af 94 13 bd 05 48 d5 bc
       0.02776962 0.0028585799 -0.036030468 -0.026035318
0000b0 71 4e fb 3c b0 72 28 bd 80 e1 d0 bb f2 6e 4b bd
       0.030677052 -0.041125 -0.006374538 -0.049666353
0000c0 83 2b 2f 3c 6e 12 fe ba 21 2c 1c bc e4 24 62 3d
       0.010691526 -0.0019384155 -0.0095320055 0.055210963
0000d0 b1 be 33 bd 9c f2 29 bd 46 a9 8d bc a7 bc a5 3a
       -0.04388303 -0.041491136 -0.01729263 0.0012644724
0000e0 a6 3d 2c bd fc ec 3c bd df 51 58 bd 3f 67 0e bd
       -0.04205098 -0.046124443 -0.052812453 -0.034766432
0000f0 a2 c7 4f bb 65 99 36 bc d7 4f 01 3c fa 79 2b bd
       -0.0031704684 -0.011144971 0.00789257 -0.041864373

encoder.11.weight f4 [64]
000000 6e 43 7d 3f bf 6b 76 3f 5b 52 73 3f 10 53 82 3f
       0.98931015 0.9625816 0.9504754 1.0181599
000010 8e fa 70 3f a2 5a 6d 3f b9 ea 7b 3f 5a 5c 5e 3f
       0.94132316 0.9271642 0.98405033 0.8685967
000020 08 d2 86 3f 9d cc 7c 3f fe 84 71 3f e2 bd 7c 3f
       1.0532846 0.98749715 0.94343555 0.9872724
000030 a6 4b 7c 3f 5e 05 7e 3f 65 36 89 3f b7 4b 61 3f
       0.9855293 0.9922694 1.0719725 0.88006157
000040 35 cf 83 3f 67 3e 82 3f 09 07 85 3f 24 06 86 3f
       1.029761 1.0175294 1.0392772 1.0470624
000050 1b a0 82 3f 6f 73 82 3f 17 19 80 3f a9 8b 87 3f
       1.020511 1.0191478 1.0007657 1.0589496
000060 41 31 80 3f 54 e9 7c 3f f2 63 86 3f c9 15 95 3f
       1.0015031 0.9879353 1.0499251 1.1647273
000070 b3 8e 83 3f f6 a0 7e 3f 23 e6 80 3f f3 68 67 3f
       1.0277923 0.99464357 1.0070232 0.90394515
000080 2f 2e 81 3f 46 75 81 3f 42 c8 84 3f e4 bd 5c 3f
       1.0092219 1.0113914 1.0373614 0.8622725
000090 61 be 6c 3f 07 ff 78 3f 6b a6 7d 3f 31 8f 81 3f
       0.92477995 0.9726414 0.9908206 1.0121824
0000a0 48 0f 71 3f 20 f8 85 3f 28 2e 74 3f af 09 7e 3f
       0.9416394 1.0466347 0.9538293 0.99233526
0000b0 d3 01 83 3f 3c 11 7f 3f d3 40 83 3f be 0e 83 3f
       1.0234932 0.9963567 1.0254158 1.0238874
0000c0 e4 7a 7a 3f 6f dc 87 3f 98 f7 80 3f 9c f7 6f 3f
       0.97843766 1.0614146 1.007556 0.93737197
0000d0 f6 ad 6a 3f 33 9d 83 3f 67 db 82 3f ae 1e 77 3f
       0.91671693 1.0282348 1.0223206 0.9653119
0000e0 45 ee 76 3f 94 15 81 3f fc b6 73 3f cb ea 88 3f
       0.9645732 1.008471 0.95201087 1.0696653
0000f0 0f f3 7b 3f 61 5d 7e 3f c0 91 7b 3f c7 f0 72 3f
       0.98417753 0.99361235 0.9826927 0.9489865

encoder.11.bias f4 [64]
000000 22 fb 04 3e 64 5c 92 3d 1e f3 0a 3d aa 00 bc bd
       0.12986425 0.07146528 0.03392326 -0.09179814
000010 9b 85 c4 bd 4c 8b 20 be 44 ac 4f be 5a 25 54 be
       -0.09595796 -0.15678138 -0.20280558 -0.20717373
000020 85 de e1 3d 7a d7 56 be ab f6 a8 3d 7b b6 92 3d
       0.1102877 -0.20980635 0.08250173 0.07163712
000030 40 41 0b 3e 11 0a 85 be 91 6f d9 bd db 1a 2e be
       0.1359911 -0.25984243 -0.10616983 -0.17002432
000040 e9 2b a9 3d 91 06 b8 3d 03 80 f8 3d 34 66 29 3d
       0.08260328 0.089856274 0.12133791 0.041357234
000050 76 27 62 3d a8 81 26 3d 22 31 a5 3d c1 7c be 3c
       0.055213414 0.040650994 0.08066012 0.023252847
000060 90 dc 59 3d 0d 2f 5b be fe 10 fa 3d 6c b9 8e be
       0.05318886 -0.21404667 0.12210272 -0.2787584
000070 58 18 b0 3d 42 60 0b 3d 47 64 2a be e1 0c c7 bc
       0.08598393 0.034027345 -0.16639815 -0.024298133
000080 6b ed 21 be b9 db 1f 3e 5d 97 53 3d 76 85 0c be
       -0.15813224 0.15611161 0.051658023 -0.13722786
000090 cc 25 ad bd 9e e8 3f be 44 d5 c8 3d 92 14 53 be
       -0.08454475 -0.1874108 0.09806302 -0.20613316
0000a0 b8 a9 76 3d 4b ec 97 3d f8 c2 ba 3c 08 85 09 3e
       0.06022045 0.07418116 0.022798046 0.13429654
0000b0 6c f4 c2 3d 2e 17 37 3d 63 b1 e4 bd 41 a5 27 be
       0.09519276 0.04469984 -0.11166646 -0.16371633
0000c0 79 15 f5 3d 68 ea dc bd 94 1d 7f 3d 44 ad 49 3d
       0.11966986 -0.10786897 0.062284067 0.049237505
0000d0 a7 d8 29 3c 38 dc 17 3d 86 51 44 be 23 23 22 be
       0.010366595 0.03707525 -0.19171724 -0.15833716
0000e0 60 ae 26 be 8a 5c ca 3d 89 66 b2 3c 6d 7a ae 3d
       -0.16277456 0.09880932 0.021777408 0.085194446
0000f0 e2 eb fd 3d 49 37 ef bd 4f 1f 71 be 9e 76 61 be
       0.12398507 -0.11680467 -0.235471 -0.22017905

encoder.11.running_mean f4 [64]
000000 c5 c3 69 3f 05 f2 6f 3d 2d 4f 0b bf 1a da 99 bf
       0.91314346 0.058580417 -0.5441769 -1.2019684
000010 49 72 b1 3f 4f ac 93 3f b6 05 83 bf 58 d6 33 3f
       1.3863002 1.153696 -1.0236118 0.7024894
000020 a1 cf b6 3c bc 0b b3 be 6d 18 9a 3e 6d cd 2b bf
       0.022315802 -0.3496989 0.3009676 -0.6711033
000030 d1 16 92 bf 1c 77 0e 3e ec 10 05 be 1f a5 b8 3d
       -1.1413213 0.13912624 -0.12994736 0.09015869
000040 ef c3 e1 3e 79 3b 51 3f 38 91 70 bf d6 49 0d be
       0.44094798 0.81731373 -0.93971586 -0.13797697
000050 3d de 60 bf 4b 4e e2 be e1 56 9b be b8 af 8d 3e
       -0.8783911 -0.44200358 -0.3033972 0.27673125
000060 c6 de ee 3d 55 c1 8c 3e 2d 92 f5 be eb 96 2b bf
       0.116635844 0.2749125 -0.47963086 -0.6702716
000070 9d a0 11 3e 1d 0d fb 3e b5 83 4b bf e4 5b e6 be
       0.14221425 0.49033442 -0.79497844 -0.44991982
000080 5f 7e 7f 3d 6d b2 b7 bf 7d 32 d7 3e 7f f0 cd 3f
       0.062376376 -1.4351326 0.42030707 1.6089019
000090 36 3a f9 be fd 44 08 bf 9a 4d 83 3f b4 25 5c 3e
       -0.48677224 -0.5323027 1.0258057 0.21498758
0000a0 70 a0 cc 3c 54 a6 ea 3e 94 38 6f 3d 1e 5e 4e 3f
       0.024978846 0.45830023 0.058403566 0.8061236
0000b0 74 17 78 be 8d 5f 79 be f0 a8 62 3e 7a 23 39 3f
       -0.24227697 -0.24352856 0.22134757 0.7231976
0000c0 d1 31 4d 3e 74 87 f2 bd f5 93 0f 3f 9e dd 34 be
       0.20038535 -0.11842242 0.5608514 -0.17662665
0000d0 d2 6f 91 bd 1a d7 57 be b7 93 00 bf 41 40 a3 3f
       -0.07101406 -0.21078148 -0.50225395 1.2753984
0000e0 54 2a f1 3f 4d 16 88 bf f3 c2 82 be 32 72 2a bf
       1.8841043 -1.0631806 -0.2553936 -0.665805
0000f0 85 66 29 bd c8 b4 87 bf c0 a8 32 bf ae cf 8c 3d
       -0.041357536 -1.0602045 -0.6978874 0.06875549

encoder.11.running_var f4 [64]
000000 65 a0 db 3f a0 b6 03 40 7f 63 06 40 b8 3d 82 3f
       1.7158324 2.0580215 2.0998228 1.0175085
000010 2f 8a fe 3f 69 e1 04 40 84 78 02 40 04 18 aa 3f
       1.988592 2.076258 2.0386057 1.3288579
000020 2b f5 14 40 ab ea fb 3f 26 1c 4f 40 6c 75 35 40
       2.3274639 1.968099 3.236093 2.8352919
000030 e5 6b b3 3f 15 b6 b1 3f 84 0f e3 3f 43 5a 32 40
       1.4017302 1.3883692 1.773911 2.7867591
000040 95 58 ce 3f 90 84 10 40 d9 82 a8 3f 2a 79 f6 3f
       1.6120783 2.258091 1.3164932 1.9255726
000050 70 14 6c 40 bc 3b a3 3f c4 ca c6 3f de a2 07 40
       3.6887474 1.2752604 1.5530629 2.1193156
000060 97 d2 1b 40 da ca 00 40 7e 7e 23 40 01 82 7c 3f
       2.4347284 2.012381 2.5545955 0.9863587
000070 6e 13 10 40 18 7a 24 40 d5 58 f5 3f 82 b0 bd 3f
       2.251186 2.569952 1.9167734 1.4819491
000080 6b 3d d0 3f 3a 1f 63 40 0f 7a 13 40 49 5a 19 40
       1.6268743 3.548781 2.3043249 2.3961356
000090 70 b3 1b 40 c0 50 87 3f 9a e9 9b 3f f4 e7 32 3f
       2.432827 1.0571518 1.2180665 0.6988518
0000a0 b5 e7 4f 40 55 e4 be 3f 27 7c df 3f c0 19 4c 40
       3.2485173 1.4913431 1.7459763 3.1890717
0000b0 3a 34 38 40 e5 b4 ce 3f 06 63 8b 3f c1 7f de 3f
       2.8781877 1.6148955 1.0889595 1.7382737
0000c0 94 4d d8 3f 4e d5 ba 3f f8 1b e6 3f 9d c7 a4 3f
       1.6898675 1.4596345 1.7977285 1.2873417
0000d0 99 b2 e9 3f de b7 19 40 e9 1f 17 40 05 c4 ff 3f
       1.8257629 2.4018474 2.3613226 1.9981695
0000e0 e4 84 60 40 47 48 c9 3f 90 62 04 40 cd 67 d8 3f
       3.508111 1.5725182 2.0685158 1.6906677
0000f0 a2 9e df 3f 9c 9c 17 40 8f 88 06 40 c3 c4 b3 3f
       1.7470286 2.3689337 2.1020849 1.4044422

decoder.0.weight f4 [64, 32, 2, 2]
000000 5f 63 c8 3b bd d5 ef bd 99 70 d2 bd 20 2f ee bd
       0.0061153616 -0.11710689 -0.102753825 -0.11630082
000010 fa 37 93 3c 27 20 f5 bb 21 6b df 3b f7 5f 28 3d
       0.017971028 -0.0074806395 0.0068181907 0.041107144
000020 3f a0 8b 3d ba a4 3e 3d 4e df 01 be c8 e6 8a 3c
       0.06817674 0.046543814 -0.1268284 0.016955748
000030 08 49 12 be 0d 0b cf bb 56 06 80 3d 8f 46 8b bc
       -0.14285672 -0.006318456 0.062512085 -0.017001418
000040 1b c2 7e b7 32 fb c7 3c c3 5d b9 3d b8 1d 25 3c
       -1.51847735e-05 0.024411771 0.09051087 0.010077886
000050 38 a5 c6 bd b4 a9 6b ba 2b bf 0f be a5 3f 1b 3c
       -0.09699482 -0.00089898263 -0.14037769 0.009475623
000060 48 4a 59 3d aa 92 97 bb ed 1b 81 bd cd 36 ec bb
       0.053049356 -0.004625638 -0.063041545 -0.007208681
000070 22 b5 1d bd 8d 8b 50 bd bb bb 39 bd f3 39 45 bd
       -0.03850282 -0.050914336 -0.04534505 -0.048150968
000080 6b 4d a1 bd 70 84 a2 3b 95 4d b4 bd f0 ba 13 3d
       -0.078760944 0.0049596354 -0.0880386 0.03606695
000090 e4 08 c6 3d 6e 1c 18 bc de 1e 14 bc b9 cb b8 3b
       0.096696645 -0.009284122 -0.009040562 0.00563952
0000a0 86 6d 04 bc f2 fe 11 bd 1a 1f f8 3c 4b 38 be bd
       -0.008082753 -0.035643525 0.030288268 -0.09288081
0000b0 6e 97 8f 3d 15 35 4c bd bf 5d a5 bd de 6c 95 bd
       0.07011305 -0.04985531 -0.08074521 -0.072961554
0000c0 e0 5c 4a bc a0 1d a7 bd a4 6b e6 bd 22 73 25 bd
       -0.012351245 -0.081599474 -0.112509996 -0.040393002
0000d0 74 ed 42 be 28 1d 0b 3d 9b b4 61 bc 73 fd e5 bd
       -0.19035894 0.033963352 -0.01377597 -0.11229982
0000e0 51 6d 0f be 50 20 ad 3d a9 f3 ee b9 b2 cb 1d 3b
       -0.14006545 0.08453429 -0.00045576438 0.002407771
0000f0 d0 23 5d 3c 84 69 41 3d 79 6d 80 3d a7 be 39 3d
       0.013497308 0.04721977 0.0627088 0.045347836
000100 4c a4 5d bd 34 14 cc 3c 0d 4e c2 bc f0 67 9b bd
       -0.054111764 0.024911977 -0.023718858 -0.07588184
000110 05 b6 95 3d 97 96 81 3d e9 da 8c 3d ed a4 1d 3d
       0.07310108 0.06327551 0.06877691 0.038487364
000120 ac 40 bb bc b1 14 06 3d a2 cd a2 bd af 13 aa bb
       -0.022857986 0.032734577 -0.079493776 -0.0051903347
000130 03 a3 39 be 8d 59 df bd f4 99 1c 3d 2d 56 e8 bc
       -0.1812859 -0.10905752 0.03823276 -0.028361404
000140 d5 f0 02 be b8 90 1f bd 1a 1d 71 bd d4 35 86 3d
       -0.12787183 -0.038956374 -0.058865644 0.06553236
000150 5c 6c 84 3d 9e cd 5f 3d 13 86 e1 3d 0c 0c 8a 3d
       0.064659804 0.05463945 0.11011901 0.06740579
000160 12 19 99 bc 2d 66 49 bd 85 3e 4b bd 37 0a 9c bd
       -0.018688712 -0.049169708 -0.04962017 -0.07619136
000170 f6 15 eb bc b3 3c 3d bb e3 57 93 bd 62 38 18 3c
       -0.028696995 -0.002887529 -0.071944974 0.009290786
000180 90 b3 0f 3d 57 02 d2 bc 5c 48 75 bc bc cc 74 3c
       0.035083354 -0.025635881 -0.014970865 0.014941391
000190 bb 8d 59 bd 94 de d8 bd cd 47 06 3d 4d 90 ad bd
       -0.05311368 -0.105893284 0.03278332 -0.08474789
0001a0 4d 12 e2 bc ef 64 80 3d c4 a2 cb 3c 76 1d b8 3c
       -0.027596617 0.062692516 0.024857886 0.022474986
0001b0 37 d0 16 3c fa 73 0e 3d 76 a8 b0 bd 5d 2b 9f bc
       0.009204916 0.034778573 -0.086258814 -0.019429857
0001c0 ce ee a1 3c 36 66 91 bd 2e 1e a6 38 5b a9 13 be
       0.019767191 -0.07099573 7.921118e-05 -0.14420073
0001d0 96 3f 1f 3d e7 68 a5 3d d9 6d 8d 3d ec 7d a9 3d
       0.038879 0.08076649 0.069057174 0.08275971
0001e0 66 00 fc bd 99 be 61 bc 60 18 14 be c5 1b 2b 3d
       -0.123047635 -0.013778352 -0.14462423 0.04177453
0001f0 a0 b5 bc bd a0 55 2e 3d 4f 94 2f 3d 37 1d af bd
       -0.0921433 0.042562127 0.042866047 -0.08550494
000200 f0 6d f1 bb ab cc 92 bc 2c ea cd bc db bd c1 bd
       -0.007367842 -0.017919859 -0.025136076 -0.0946004
000210 c7 f7 e9 bd 0c a5 a6 bc cc 5a e5 3d 1f eb ae bc
       -0.11424213 -0.020342372 0.11198959 -0.021352349
000220 0e 74 20 3c 78 9d d0 bc cd 8e 19 be c6 72 db bb
       0.009793295 -0.025465712 -0.1499588 -0.0066970317
000230 13 6c 26 be 0a ab c3 3c 3f 31 21 3d ee b8 aa bd
       -0.16252165 0.023885269 0.039353605 -0.08336054
000240 23 14 c6 3d 32 e7 99 3d 52 8c 39 3d e5 ea 0c 3d
       0.096718095 0.075148 0.045299836 0.0344037
000250 49 8f 5b bd b9 dd a3 3c c0 97 cc bd fd ae de bc
       -0.053603444 0.020003187 -0.099898815 -0.02718305
000260 35 e5 45 3d 86 31 97 bd 06 4b dc bb 46 b3 80 3c
       0.048314292 -0.07382493 -0.0067228107 0.015710484
000270 21 09 f8 3c e1 8f e4 3c c1 50 13 bd 45 a5 d7 bb
       0.03027779 0.027900638 -0.035965685 -0.006580981
000280 76 e3 88 3c 42 e0 1a 3c 8b 9b 3f bd 5a 51 75 bd
       0.016710024 0.009452881 -0.046779197 -0.059892036
000290 bb fd 46 3c 70 bc 93 3d ed 0f a1 3d 65 8c 7d 3d
       0.012145455 0.07213676 0.07864366 0.06190147
0002a0 fb 6b 0f 3c 2a 28 0f be 7e 7d 80 3d f4 59 b6 3c
       0.008753772 -0.13980165 0.06273936 0.02225969
0002b0 0f 01 c4 3c 71 5d 7b bd 4f b7 0e be c6 1d c2 bd
       0.023926286 -0.06136841 -0.13937114 -0.09478335
0002c0 c9 0d 01 3c 87 c1 80 3b 16 20 c0 bd 35 49 4f 3c
       0.007876822 0.0039293203 -0.0938112 0.012651731
0002d0 fe 47 65 be 47 bd 61 bd 67 d2 18 bd 9c 0a 14 bd
       -0.22390744 -0.05511215 -0.03731003 -0.03614293
0002e0 c1 3b df bd b1 f8 b2 3c 17 2e a4 bd 9c 95 c3 3c
       -0.10900069 0.0218471 -0.080166034 0.02387505
0002f0 f8 57 9d bd be b7 cb 3c d5 d1 04 3d 8a 7b dd 3d
       -0.07682794 0.024867889 0.032426674 0.10814579
000300 c9 6d 54 bd a7 1b 69 3a c2 e8 c9 3b d2 e6 e7 3c
       -0.05186251 0.0008892365 0.00616178 0.028308306
000310 86 23 64 39 a9 75 d8 3c cf 98 6a 3d e8 8e 86 3d
       0.00021757008 0.026423292 0.057274636 0.06570226
000320 06 01 23 3a 75 bb ee bc 95 51 93 bb 76 2a c2 3c
       0.0006218109 -0.02914212 -0.0044958093 0.023701888
000330 ad 21 a1 bd c7 e9 e4 3c 9f ef 65 3a ab da 37 3d
       -0.07867751 0.027943505 0.0008771363 0.044886272
000340 e9 9e 5f be 7a 38 9e 3d b8 f0 7c 3d f5 a4 0e 3c
       -0.21837963 0.07725616 0.061753005 0.008706321
000350 94 df 9c bd 12 c9 51 3d c9 da 1c 3d 40 a2 89 3d
       -0.07659832 0.051217146 0.038294587 0.067204
000360 a3 64 bb ba 27 6b a6 3c f2 a9 98 3d 5b 20 df 3c
       -0.001429696 0.020314766 0.074542895 0.027237108
000370 80 ee de bc fb d4 0e bd 28 fb 70 bd f4 6e 13 bc
       -0.027213335 -0.034871083 -0.05883327 -0.008998621
000380 87 93 7a 3d 3c 87 8f 3d f3 ac c0 3d bc 87 35 3d
       0.06117585 0.07008216 0.094079874 0.0443189
000390 c4 a0 c2 bb ba b0 61 bd f6 46 8d bc e3 ec a0 bc
       -0.005939575 -0.05510018 -0.01724575 -0.019644206
0003a0 9a 41 89 bd f2 14 a5 3d d3 18 b7 3d 60 dc eb 3d
       -0.06701966 0.080606356 0.08940282 0.115166426
0003b0 18 d9 27 be 6d 48 90 3d 3b 08 81 3c 92 89 98 3d
       -0.16391408 0.07045064 0.015750995 0.074481145
0003c0 60 5f ab bc 4b 31 1e be 05 f2 0e bd 58 3b 00 be
       -0.020919502 -0.15448491 -0.034898777 -0.12522638
0003d0 d8 08 91 3d 63 ec cc 3d ce 68 5f 3d 8d 40 3a 3c
       0.07081765 0.10006025 0.05454331 0.011367929
0003e0 53 0a c0 bd 45 43 69 3d 41 59 43 3d ae 8b d7 bc
       -0.09376969 0.05694892 0.04769254 -0.026311722
0003f0 b7 9c 9e bd c0 7e 94 bb 16 1e dc 3c b2 39 9b bd
       -0.07744735 -0.0045317113 0.026869815 -0.07579364

decoder.0.bias f4 [32]
000000 a1 a0 2c 3c f1 f0 77 bd 08 37 7d 3d 11 69 96 3d
       0.010536344 -0.060532514 0.06182006 0.073442586
000010 cd 5b f2 bc 6e cc 6c bd 6a 0b b0 3d 22 c9 5c 3d
       -0.02958479 -0.057812147 0.08595927 0.053902753
000020 60 41 d1 bc 2b a3 47 bd e4 45 b4 bd c9 31 ab 3c
       -0.025543869 -0.048739593 -0.08802393 0.020897763
000030 32 37 ef 3c 6f 59 8d bd 47 97 c9 bc 13 bd 47 3c
       0.029201124 -0.06901824 -0.024608267 0.012191075
000040 f5 9a 23 bd 23 ff 4c 3c 47 4c ce bc a6 f8 95 bd
       -0.0399427 0.012512001 -0.025182856 -0.073228166
000050 3f 5a 11 3d 95 08 37 bd b4 68 8e 3d 92 4e 31 3d
       0.035486456 -0.04468592 0.06953564 0.04328782
000060 ac 65 ad 3c 8e 96 94 3d 15 d6 49 3d 3a 48 00 bc
       0.021166645 0.072552785 0.04927643 -0.00782972
000070 5b 92 0f 3d 03 73 07 3d 6c 17 0e 3c 2c 47 14 3b
       0.035051685 0.033068668 0.008672576 0.002262543

decoder.1.weight f4 [32]
000000 09 41 94 3f 1c 34 64 3f b1 e9 86 3f 1b 8b 84 3f
       1.1582347 0.8914201 1.0540067 1.0354952
000010 8c 1a 64 3f e6 c1 86 3f 17 1e 8b 3f 2a 92 94 3f
       0.8910301 1.0527923 1.0868558 1.1607106
000020 be 04 81 3f 19 61 59 3f 04 b8 6f 3f 34 b5 7c 3f
       1.0079572 0.84913784 0.9364016 0.98713994
000030 8a a9 84 3f 56 f7 84 3f 88 40 6e 3f 1b 46 62 3f
       1.0364239 1.0387981 0.93067217 0.8838822
000040 00 4a 6e 3f 0a d5 5d 3f 09 62 85 3f f0 51 86 3f
       0.93081665 0.86653197 1.0420543 1.0493755
000050 88 21 57 3f cd dd 69 3f 82 75 66 3f f2 f2 7a 3f
       0.8403554 0.91354066 0.9002305 0.98026955
000060 9e 0a 6e 3f e7 d4 8c 3f 2a 65 58 3f 39 2e 5e 3f
       0.9298495 1.1002473 0.84529364 0.8678928
000070 07 11 81 3f 93 45 45 3f b8 75 8b 3f 58 fd 8c 3f
       1.0083321 0.77059287 1.08953 1.1014814

decoder.1.bias f4 [32]
000000 45 20 a3 3d 94 aa 90 3c 26 b0 9d 3d 06 b5 95 3d
       0.07965139 0.017659463 0.07699613 0.07309918
000010 1d b6 d0 bd 18 e4 93 3d 0c 5c 1b 3e 4e cf fd 3d
       -0.10190985 0.0722124 0.15171832 0.12393056
000020 c4 13 d3 bb 34 72 a6 bd fd a7 a3 3d 92 51 81 bc
       -0.006441565 -0.08127251 0.079910256 -0.015785966
000030 3c 96 4f 3d 89 1d b6 3d ba f8 a7 3d 5e 0e 52 bd
       0.050680384 0.08892352 0.08201738 -0.051283233
000040 f3 30 33 bd 9e 18 54 be 4b fc dd 3c 42 d3 2b 3e
       -0.043747853 -0.20712516 0.027097842 0.16779807
000050 c1 1f 21 bd 82 3d c4 bd 91 86 29 3d 0a 65 0f 3d
       -0.039336924 -0.09582044 0.0413881 0.035008468
000060 d2 a5 17 be b4 f0 84 3d a2 84 64 be fd 9c 14 bd
       -0.14809349 0.06491223 -0.2231622 -0.03628253
000070 8e 14 7a 3d ab 0a 18 be 13 bd bc 3d 88 5a ef 3d
       0.06105476 -0.1484782 0.092157505 0.11687189

decoder.1.running_mean f4 [32]
000000 aa 31 86 bf 39 bb d9 be ae cb 93 bf ca a8 39 bf
       -1.0483906 -0.42525652 -1.1546533 -0.72523177
000010 1a 98 72 3f 0d 4d 5c bf 80 5b 72 bf f8 78 fa be
       0.9476334 -0.8605507 -0.9467087 -0.48920417
000020 e4 14 28 bf 06 88 3e 3f 08 b7 2a bf fc 76 77 bf
       -0.65656877 0.74426305 -0.66685534 -0.9666593
000030 ae 66 99 bf 31 56 b4 bf 1b c4 1f bf b2 49 19 3f
       -1.198446 -1.4088804 -0.6240861 0.59878075
000040 45 32 17 be 6a c1 9d 3f 19 06 8a bf f0 c5 77 bf
       -0.1476527 1.232465 -1.0783111 -0.96786404
000050 4d 7e 41 be 18 b4 40 3f c6 c4 00 bf a4 4f 31 bf
       -0.18895836 0.752748 -0.5030025 -0.69262147
000060 e7 15 60 3f 98 77 e8 be d9 04 43 3f ee 44 40 be
       0.8753342 -0.45403743 0.7617927 -0.18776295
000070 cf b7 78 bf 77 53 6d 3f e6 c7 4c bf c3 d6 7b bf
       -0.9715547 0.9270548 -0.7999252 -0.98374575

decoder.1.running_var f4 [32]
000000 0d d0 86 40 42 c5 2c 40 b8 3f 91 40 8a 98 19 40
       4.212897 2.6995397 4.539028 2.3999352
000010 90 24 b7 3f f4 bc 50 40 51 ac 12 40 03 50 8d 3f
       1.4308033 3.2615328 2.2917674 1.1040043
000020 da 1f 0e 40 7c 70 9a 3f c8 98 11 40 f3 cd 75 40
       2.220694 1.2065578 2.27495 3.8406951
000030 51 56 3b 40 1f 4e d1 40 0d 31 84 40 2e 27 d6 3f
       2.9271433 6.5407863 4.1309876 1.6730707
000040 d8 4a a8 3f 45 7a f9 3f 7d 94 61 40 ae cd 27 40
       1.314784 1.9490439 3.524688 2.6219287
000050 04 58 3a 40 92 99 a9 3f b0 80 dd 3f 17 45 c2 3f
       2.911622 1.3249991 1.7304897 1.5177335
000060 dd 0e 9d 3f c8 be 12 40 45 a4 ff 3f 2a b7 2a 40
       1.2270161 2.2928944 1.9972006 2.6674294
000070 ce 0d 37 40 d0 27 9a 3f 8b 70 29 40 50 8a 6a 40
       2.8602176 1.20434 2.647494 3.664692
