models_GA/flood_cnn_epochs_10.pth (torch, 150547 bytes, 31 tensors)

encoder.0.weight f4 [16, 2, 3, 3]
0	0xbd12d804	-0.03585054
1	0x3cffd2df	0.03122848
2	0x3e8767dc	0.26446426
3	0x3e00fbbc	0.12596029
4	0x3ead758b	0.3387874
5	0x3e559e85	0.20861252
6	0xbd1bc106	-0.03802588
7	0x3e80e606	0.25175494
8	0xbd8569d0	-0.06514323
9	0xbd39f3cf	-0.04539853
10	0xbce28c59	-0.027654814
11	0x3e14fd16	0.1454967
12	0x3a9c3085	0.0011916315
13	0xbd0b9a44	-0.034082666
14	0x3d82b5f9	0.06382365
15	0xbc38d749	-0.011281797
16	0xbdea645c	-0.11444923
17	0x3de5be56	0.11217944
18	0x3e10f92d	0.14157553
19	0xbdea318c	-0.114352316
20	0xbcf61f92	-0.03004435
21	0xbd932fb3	-0.07186832
22	0x3d2f76ac	0.042837784
23	0xbe8e9e87	-0.27855322
24	0xbe419fff	-0.1890869
25	0xbe5bf0e6	-0.21478614
26	0xbe178a1d	-0.1479878
27	0x3dc1d124	0.094637185
28	0xbd584ebb	-0.05280946
29	0x3dc3c705	0.09559444
30	0x3ca6d90b	0.020367166
31	0xbc92e805	-0.017932901
32	0xbe572bbb	-0.21012776
33	0x3d817e5f	0.063229315
34	0xbe179391	-0.14802386
35	0xbe8e76b4	-0.27824938
36	0xbd967ee9	-0.07348425
37	0x3e44bbd5	0.19212277
38	0xbe0a306d	-0.13495035
39	0x3e3a7fd9	0.18212833
40	0xbe3c79f5	-0.18405898
41	0x3dd21818	0.10258502
42	0xbe27060c	-0.163109
43	0xbe9c61be	-0.3054332
44	0xbcaf5989	-0.021404998
45	0xbd9f8fce	-0.077911004
46	0xbd8cbc74	-0.06871882
47	0x3e227b41	0.1586733
48	0xbe09f319	-0.1347164
49	0x3e04a303	0.12952809
50	0xbdfeadd4	-0.12435499
51	0x3e78b8c4	0.24289232
52	0xbe1010f9	-0.14068975
53	0xbe02faea	-0.12791029
54	0xbc3f703c	-0.011684474
55	0x3da4e310	0.08051121
56	0x3e40cfce	0.18829271
57	0x3d3685e6	0.04456129
58	0x3d9d859f	0.07691502
59	0x3e7f7b7c	0.2494945
60	0x3a8f76db	0.0010945456
61	0x3e92383a	0.28558522
62	0x3df6d57b	0.12052437
63	0xbc01efea	-0.007930735
64	0xbd84512e	-0.06460796
65	0x3e3bb3f0	0.1833036
66	0x3c15ee22	0.009151014
67	0x3d124095	0.03570612
68	0x3d555476	0.0520825
69	0xbc3c328e	-0.011486663
70	0x3e28fca6	0.16502628
71	0x3b971ef3	0.0046118437
72	0x3d056cf6	0.032574616
73	0xbe557650	-0.20845914
74	0x3ddc599c	0.10759279
75	0x3de5cf5d	0.11221192
76	0xbe226bc8	-0.15861428
77	0xbe3de7c1	-0.18545438
78	0xbe6e124b	-0.23249166
79	0xbeb04174	-0.34424937
80	0xbef178cc	-0.47162473
81	0xbd8e18f2	-0.06938352
82	0x3e34f65d	0.17672105
83	0x3bb33422	0.005468861
84	0xbd3cd25b	-0.046099048
85	0x3d0c1fb4	0.034209922
86	0xbe4f1657	-0.20223366
87	0x3e326fdf	0.17425488
88	0x3d0f20dc	0.034943447
89	0xbe669702	-0.22518542
90	0x3e397c3b	0.18113796
91	0x3e0902e6	0.13380012
92	0xbacec54b	-0.0015775351
93	0xbdef351d	-0.116800524
94	0xbdafdd7b	-0.08587166
95	0xbe9135a2	-0.2836123
96	0xbd1c3ed9	-0.038145874
97	0xbe8686b2	-0.2627464
98	0xbe0a1751	-0.13485457
99	0xbe38c4da	-0.18043843
100	0x3dbfbb99	0.09361953
101	0xbe476918	-0.19473684
102	0xbdd1bb54	-0.10240808
103	0x3a571867	0.00082052354
104	0x3e1eb9a2	0.15500501
105	0xbc75dd7e	-0.015006421
106	0xbc18d62e	-0.009328408
107	0x3e4afe65	0.19823606
108	0xbd6541de	-0.05597102
109	0xba2d0fc4	-0.00066017755
110	0x3da0fce1	0.07860733
111	0xbe343f63	-0.17602305
112	0x3d832994	0.06404415
113	0x3e3b3ea9	0.18285622
114	0xbc94ef5b	-0.01818054
115	0xbe9d6610	-0.3074193
116	0xbb438e7e	-0.002983957
117	0xbd34385f	-0.043999072
118	0x3e1f7a20	0.1557393
119	0xbe1d65d5	-0.15370877
120	0x3e198bf0	0.14994788
121	0xbe61db0c	-0.22056216
122	0xbe6b8241	-0.22998907
123	0x3dde1315	0.10843483
124	0xbe4933a6	-0.19648609
125	0x3e80da90	0.2516675
126	0xbd21774f	-0.039420422
127	0x3dfb7f04	0.12280086
128	0x3dd7190d	0.10502825
129	0x3d0e1887	0.03469136
130	0xbd969abe	-0.073537335
131	0x3eb225ea	0.3479455
132	0x3d4b00be	0.049561255
133	0xbd7c862a	-0.061651386
134	0x3df5b15c	0.11996719
135	0xbd879634	-0.06620446
136	0x3dc3ba48	0.09557015
137	0x3c29f929	0.010374346
138	0xbcd24038	-0.025665388
139	0xbd828a9a	-0.063740924
140	0x3eb0a66a	0.34501964
141	0x3da27cd5	0.07933966
142	0x3c459275	0.012058844
143	0x3e35f3c7	0.17768775
144	0x3d904327	0.07044058
145	0xbc977fbd	-0.018493528
146	0x3d5a648c	0.053318545
147	0x3d386e4c	0.045027062
148	0xbe201d9a	-0.15636292
149	0xbe1926c7	-0.14956199
150	0xbe1b75ee	-0.15181705
151	0xbc1b36af	-0.009473487
152	0xbed284d1	-0.41116956
153	0x3c257b54	0.0101002045
154	0x3e2828c0	0.16421795
155	0xbe294437	-0.16529928
156	0x3d6ed758	0.058310837
157	0xbdb7b80e	-0.089706525
158	0x3c6bbb66	0.014387941
159	0xbd5e40b7	-0.054260936
160	0xbe324d0d	-0.17412205
161	0xbe5ff02b	-0.2186896
162	0xbdba5764	-0.090987
163	0x3dcb4ce7	0.09926777
164	0xbeb44b15	-0.35213533
165	0x3e76c491	0.24098422
166	0x3cac67b7	0.021045549
167	0xbe76f861	-0.24118187
168	0xbe1b584d	-0.15170403
169	0x3d186d02	0.037213333
170	0x3e19b6f7	0.15011202
171	0xbdf64db1	-0.12026537
172	0xbe410ef9	-0.18853368
173	0x3e43ab3e	0.19108292
174	0x3cb504d7	0.022097034
175	0x3d2e24e5	0.042515654
176	0xbd838588	-0.064219534
177	0x3e0f446d	0.13990946
178	0x3d33e97f	0.04392385
179	0xbea3b6ca	-0.31975394
180	0x3e121c55	0.1426862
181	0xbcdf7cf8	-0.02728127
182	0xbdbcf3b7	-0.092261724
183	0xbe7f0688	-0.24904835
184	0xbdb263cb	-0.0871044
185	0x3c3f82c0	0.011688888
186	0x3d8be6c6	0.06831126
187	0x3c5e6559	0.013573968
188	0x3e2556a5	0.16146334
189	0xbd607047	-0.054794576
190	0x3e4105c7	0.1884986
191	0xbd55d9ad	-0.052209545
192	0xbe49f172	-0.1972101
193	0x3e3b9c77	0.18321405
194	0x3c89f6fd	0.016841406
195	0xbe9cee8f	-0.30650756
196	0xbdf2b4bd	-0.11850879
197	0xbd490862	-0.04908026
198	0x3d19f3da	0.03758607
199	0xbe60e11b	-0.21960871
200	0xbe6d83c6	-0.23194799
201	0x3d6066a7	0.054785397
202	0xbde55166	-0.11197166
203	0xbe69afd6	-0.22820982
204	0xbe06cee4	-0.1316486
205	0x3e59914c	0.21246833
206	0xbe3bb39e	-0.18330237
207	0x3e6aac98	0.22917402
208	0xbe0a7518	-0.1352123
209	0xbe872b9f	-0.26400468
210	0x3dc75dc2	0.0973468
211	0xbe3d10e1	-0.1846347
212	0xbc21dd94	-0.0098794885
213	0x3dad1bca	0.08452566
214	0xbe2d9d9b	-0.16954653
215	0x3e02bdf4	0.12767774
216	0xbcf1ca40	-0.029515386
217	0xbd352005	-0.04421999
218	0x3d40444f	0.046940144
219	0x3e52e13d	0.20593734
220	0xbd56f564	-0.052480116
221	0x3c93a06b	0.01802083
222	0x3e8ff72e	0.2811827
223	0x3ea473a2	0.3211947
224	0x3dba4d2d	0.09096751
225	0xbd92f62e	-0.07175861
226	0x3de6b760	0.11265445
227	0xbdc71f4c	-0.09722766
228	0x3d2b19c2	0.04177261
229	0xbddd6350	-0.10809958
230	0x3e3da427	0.1851965
231	0x3e6acd36	0.22929844
232	0x3e4b0cd9	0.1982912
233	0xbd3cf28e	-0.046129756
234	0x3c70fdfa	0.01470899
235	0x3e50b06e	0.20379803
236	0xbe12ebd2	-0.14347771
237	0xbd1b9ed6	-0.037993275
238	0x3e3f0d08	0.18657315
239	0xbe00b8f4	-0.12570554
240	0xbb98a67e	-0.0046585193
241	0x3e8ccde5	0.27500835
242	0x3e27cfd3	0.16387872
243	0xbe26bd24	-0.16283089
244	0xbe90112d	-0.28138104
245	0x3d8d6d18	0.069055736
246	0x3d42f3ab	0.04759566
247	0xbca14b78	-0.019689307
248	0x3e4c9bae	0.19981262
249	0x3cce2743	0.025165206
250	0x3e353905	0.17697532
251	0x3eb27c38	0.34860396
252	0x3d20ad6a	0.03922788
253	0x3b0938c5	0.0020938378
254	0xbd871bee	-0.06597124
255	0x3d9780e6	0.07397632

encoder.0.bias f4 [16]
0	0x3d59106f	0.052994188
1	0xbe279576	-0.16365609
2	0xbcb7491f	-0.022373734
3	0xbe4c9762	-0.19979623
4	0x3e04d5da	0.12972203
5	0x3be6f8bb	0.007048694
6	0x3c042123	0.008064541
7	0xbde574fa	-0.11203952
8	0xbe8c512c	-0.2740568
9	0x3b6124cf	0.0034354215
10	0x3e0bfefa	0.13671485
11	0x3d93454c	0.07190952
12	0x3dfd3519	0.12363643
13	0x3e840b2d	0.25789776
14	0xbdc4b758	-0.096052825
15	0x3d24a6cc	0.040198132

encoder.1.weight f4 [16]
0	0x3f7fdfd7	0.9995093
1	0x3f86643e	1.0499341
2	0x3f85b8bd	1.0447003
3	0x3f7fe185	0.9995349
4	0x3f8ddb01	1.108246
5	0x3f83e871	1.030531
6	0x3f87f35e	1.0621145
7	0x3f5c3498	0.8601775
8	0x3f89d21d	1.0767246
9	0x3f82cdef	1.0219096
10	0x3f7b667f	0.9820327
11	0x3f879ab7	1.059409
12	0x3f643809	0.89148
13	0x3f6acb13	0.91716117
14	0x3f8845a1	1.0646249
15	0x3f7ca8df	0.98695177

encoder.1.bias f4 [16]
0	0xb8d58b39	-0.00010182564
1	0x3bb62e6f	0.0055597345
2	0xbb0f3b14	-0.0021855282
3	0x3b154d06	0.0022781505
4	0xba26f42c	-0.0006368782
5	0x3a5d3d70	0.0008439636
6	0x3bc2eadf	0.005948409
7	0xba1af27a	-0.00059107656
8	0xbacd5b1b	-0.001566741
9	0x3b3d8550	0.0028918572
10	0x3b666c5f	0.003515981
11	0x3b35c716	0.0027737073
12	0xba159559	-0.00057061535
13	0xb9692012	-0.00022232559
14	0x3c11a81f	0.008890181
15	0xb9f0b718	-0.00045912783

encoder.1.running_mean f4 [16]
0	0x3d5cffd1	0.053954903
1	0xbe25a4d5	-0.1617616
2	0xbcaadabc	-0.020856254
3	0xbe4cc596	-0.19997248
4	0x3e0332cd	0.12812348
5	0x3c676f3f	0.014125644
6	0x3bf87b4d	0.007583058
7	0xbde62f21	-0.11239458
8	0xbe8bd636	-0.27311867
9	0x3aadc10c	0.0013256385
10	0x3e0b5bfa	0.13609305
11	0x3d928031	0.07153357
12	0x3dfee172	0.12445344
13	0x3e84eb69	0.25960854
14	0xbdc4063f	-0.09571504
15	0x3d1f93f9	0.038959477

encoder.1.running_var f4 [16]
0	0x3f7166b2	0.94297326
1	0x3f7c7262	0.98612034
2	0x3e553216	0.20819888
3	0x3f894426	1.0723922
4	0x3fbff752	1.4997351
5	0x3ec3ffeb	0.38281187
6	0x3e2f7aeb	0.17136733
7	0x3f40a8d6	0.75257623
8	0x3f51141f	0.8167133
9	0x3e65552c	0.22395772
10	0x3e489c79	0.1959094
11	0x3f34ec07	0.7067265
12	0x3f74ea1c	0.9566972
13	0x3f35aa07	0.70962566
14	0x3f0133d3	0.504697
15	0x3e7923ca	0.24330059

encoder.5.weight f4 [32, 16, 3, 3]
0	0xbe5a971b	-0.21346705
1	0xbe4fd14f	-0.20294689
2	0xbdb1b827	-0.086777024
3	0xbc63074e	-0.013856722
4	0x3ce9d7d6	0.028545301
5	0x3c919c2e	0.017774668
6	0x3d8bb41d	0.06821463
7	0x3bae9c42	0.005328686
8	0xbd23e7e9	-0.04001609
9	0xbba08c20	-0.0048995167
10	0xbbdf5412	-0.006815442
11	0xbb2cb304	-0.0026351819
12	0x3c9709c8	0.018437281
13	0x3c8b3dec	0.0169973
14	0x3dda9305	0.10672573
15	0x3ba3a045	0.004993471
16	0x3ca92e92	0.02065209
17	0x3e2ea75e	0.17056033
18	0xbd3cc983	-0.046090614
19	0x3be0ab7a	0.006856379
20	0x3d936e83	0.07198813
21	0xbd9198e8	-0.07109243
22	0x3d03b079	0.03215072
23	0x3d1a53fa	0.037677743
24	0xbcc64ebe	-0.02420747
25	0x3bafc590	0.0053641275
26	0x3e3178a3	0.17331176
27	0xbe111052	-0.14166382
28	0xbd556bfd	-0.05210494
29	0xbd0d8f2e	-0.034560375
30	0xbd8750a1	-0.066071756
31	0x3dbbe8a9	0.09175236
32	0x3d4bcef5	0.049757916
33	0x3c7691b8	0.0150493905
34	0x3da11d1d	0.07866881
35	0xbd2b0cae	-0.04176014
36	0x3b62ac06	0.0034587397
37	0xbd5d9d06	-0.054104827
38	0x3d2932c2	0.041308172
39	0xbd1cbae2	-0.038264163
40	0x3b8371ae	0.0040113544
41	0x3d993005	0.07479862
42	0x3d9c3bab	0.07628568
43	0xbc0c44dd	-0.00856134
44	0x3d3582e5	0.044314284
45	0xbde10771	-0.109877475
46	0x3d8a5b70	0.067557216
47	0x3dcb2e94	0.099209934
48	0x3d944abb	0.07240816
49	0xbd7bf3f8	-0.061511964
50	0x3dc3e5a2	0.09565283
51	0xbd288a3b	-0.04114745
52	0x3e088ef1	0.13335778
53	0x3db65e1b	0.08904668
54	0xbdf46d88	-0.11934954
55	0x3dcbbb8c	0.09947881
56	0x3d36e9d1	0.04465658
57	0xbc78357f	-0.015149473
58	0x3c53a369	0.012917378
59	0x3cc8e3e3	0.024522727
60	0xbce06bcb	-0.02739515
61	0xbbab45be	-0.00522682
62	0x3e07eabe	0.13273141
63	0xbdb0c786	-0.08631806
64	0xbd9328da	-0.07185526
65	0xbe031175	-0.12799628
66	0xbe19d78e	-0.15023634
67	0xbd4b239c	-0.049594507
68	0x3d97ff24	0.07421711
69	0x3c76543e	0.015034733
70	0xbd12d779	-0.035850022
71	0xbb93d8db	-0.004511935
72	0x3c454a31	0.012041614
73	0x3d0fecee	0.035138063
74	0xbd9586c8	-0.07301098
75	0x3c7fe956	0.0156195965
76	0xbd404b3a	-0.04694674
77	0x3c2d6444	0.010582987
78	0xbbbdeb4a	-0.005795871
79	0x3c877cc9	0.016538994
80	0x3e28e38e	0.16493055
81	0xbce5f285	-0.028069744
82	0xbda57c40	-0.080803394
83	0xbd719917	-0.05898389
84	0xbd210874	-0.039314702
85	0xbc46e09b	-0.012138511
86	0x3d1fd713	0.03902347
87	0xbdcbbca5	-0.099480905
88	0x3d64c803	0.05585481
89	0x3cbb230b	0.022843858
90	0xbd0dcacf	-0.03461724
91	0x3d33e943	0.043923628
92	0x3cede75f	0.02904099
93	0xbc54f015	-0.012996693
94	0xbd8e9233	-0.06961479
95	0x3cf1f254	0.029534496
96	0xbb42bfe8	-0.0029716436
97	0x3def5385	0.11685852
98	0x3d3bf5b9	0.045888636
99	0xbd5d9618	-0.05409822
100	0x3d2e8a92	0.04261262
101	0x3d3ece5f	0.04658353
102	0xbdc5666a	-0.096386746
103	0x3cf5eba9	0.030019598
104	0x3bc82061	0.0061073755
105	0x3d69ae1f	0.05705082
106	0xbcebc537	-0.028780563
107	0x3d560edb	0.05226026
108	0xbd1d754b	-0.038441937
109	0xbe0b1772	-0.13583162
110	0xbd0e9267	-0.03480759
111	0xbd926c54	-0.07149568
112	0x3db9c86a	0.09071429
113	0x3d1f8e63	0.03895415
114	0x3cace96c	0.021107398
115	0x3d89b850	0.06724608
116	0x3c39902d	0.011325878
117	0x3da9cef6	0.08291428
118	0xbdf7071a	-0.120619014
119	0x3d58400c	0.052795455
120	0x3d82b841	0.063828
121	0xbcc936f2	-0.024562333
122	0x3d1b4448	0.037906915
123	0x3c7f9065	0.015598391
124	0x3e0686eb	0.13137405
125	0x3c2eec61	0.010676474
126	0xbd3511ec	-0.044206545
127	0xbdbbabf1	-0.091636546
128	0x3cd646e8	0.026156858
129	0xbb9c5da8	-0.004771907
130	0xbd86ae10	-0.065761685
131	0x3d424391	0.047427718
132	0x3b0c6b0b	0.0021426107
133	0xbd97da2e	-0.07414661
134	0x3dc23f5a	0.094847396
135	0xbd915c6f	-0.070977084
136	0x3cb7e18d	0.022446418
137	0xbd938a19	-0.072040744
138	0x3c74563b	0.014913137
139	0xbc7e0399	-0.015503787
140	0xbcc048f8	-0.023472294
141	0x3ddbad42	0.10726406
142	0xbd495952	-0.049157448
143	0x3e2e833b	0.17042248
144	0xbe4335ec	-0.19063538
145	0xbe4b8106	-0.19873437
146	0xbdca27bb	-0.09870859
147	0x3c69555a	0.014241541
148	0xbe15f2c3	-0.14643387
149	0xbc3966a7	-0.011315978
150	0x3cd29d89	0.025709884
151	0x3c7cffce	0.015441848
152	0x3d7394bf	0.059468027
153	0xbe0b6a8f	-0.13614868
154	0xbdcb0b0d	-0.09914217
155	0x3d714b7e	0.058909886
156	0x3cd51ab5	0.026013711
157	0xbc4361ed	-0.011925203
158	0xbc9e57c8	-0.019328967
159	0x3d6c5b27	0.057704117
160	0x3d9f1327	0.07767325
161	0x3cfa931b	0.030587723
162	0xbdf1d2c2	-0.11807777
163	0x3d624cc3	0.055248987
164	0x3d9e66ca	0.07734449
165	0x3d77b106	0.060471557
166	0xbd5d4c81	-0.054028038
167	0xb9c8b8d6	-0.00038284686
168	0xbcc4d5cc	-0.024027728
169	0x3c858c9d	0.016302401
170	0x3df8691c	0.12129423
171	0xbd9aca08	-0.07558066
172	0xbe021ed8	-0.12707078
173	0xbd802741	-0.06257487
174	0xbd4f79af	-0.050653156
175	0x3d0ba80b	0.034095805
176	0x3ddf170b	0.10893067
177	0x3d7d99c3	0.061914217
178	0x3d5be04f	0.053680714
179	0xbc83d245	-0.016091475
180	0x3ca0cd99	0.019629287
181	0xbd555755	-0.05208524
182	0x3b81e740	0.0039643347
183	0xbd22037b	-0.0395541
184	0xbc968bf3	-0.01837728
185	0x3d3fb994	0.04680784
186	0xbb16d078	-0.002301244
187	0x3cabbb1e	0.020963248
188	0x3e14ffd9	0.14550723
189	0xbd84cbc5	-0.064841785
190	0xbd212ee9	-0.039351378
191	0x3adc4941	0.0016806499
192	0x3b47c38a	0.003048154
193	0x3d872c02	0.06600191
194	0x3d27f5b5	0.04100581
195	0x3db6457e	0.08899973
196	0x3ce86b3d	0.028371448
197	0x3d2b36be	0.041800253
198	0xbdbc4717	-0.09193247
199	0x3d8cc79a	0.068740085
200	0xbcf49821	-0.029857697
201	0xbdc2df6c	-0.095152706
202	0x3c0ab153	0.008465129
203	0x3dcee79b	0.10102769
204	0x3da6b940	0.081408024
205	0xbdd525f7	-0.10407632
206	0x3d27c6b4	0.040960982
207	0xbcb950d5	-0.022621552
208	0xbd9b99b8	-0.07597679
209	0x3db86a50	0.090046525
210	0xbd6dbc31	-0.0580408
211	0xbd97252a	-0.07380135
212	0x3da4e762	0.08051945
213	0x3dc687f5	0.096939005
214	0x3de46aab	0.11153158
215	0xbae1fd99	-0.0017241716
216	0xbde1db0f	-0.1102811
217	0xbab1dbb9	-0.0013569511
218	0xbce99656	-0.028514069
219	0xbd88883c	-0.0666661
220	0x3d6fee6a	0.05857698
221	0x3d36ed2a	0.04465977
222	0xbc6b6f26	-0.014369762
223	0x3ce715f9	0.02820872
224	0x3d292317	0.04129323
225	0xbd819df2	-0.06328954
226	0x3d910310	0.07080662
227	0xbc853489	-0.016260402
228	0x3d14f369	0.036364947
229	0x3d16e082	0.0368352
230	0x3d8b3cb2	0.06798686
231	0xbb26207d	-0.0025348954
232	0x3c16f2ab	0.00921313
233	0x3d8019a7	0.06254893
234	0xbe0e235b	-0.13880675
235	0x3d3517b9	0.044212077
236	0xbc25ba21	-0.010115177
237	0xbc433a3d	-0.011915741
238	0x3db613a1	0.08890463
239	0x3ce356ff	0.027751444
240	0xbd6d004d	-0.057861615
241	0xbd72cd42	-0.05927778
242	0x3db6bf07	0.08923154
243	0xbbc7e994	-0.0061008427
244	0x3c9d08cd	0.019169236
245	0x3d95f4d5	0.07322089
246	0xbd12dc37	-0.035854544
247	0xbd0a2c05	-0.033733387
248	0x3dca013a	0.09863515
249	0xbd8450d6	-0.06460731
250	0x3d7dc19c	0.06195222
251	0x3d78331b	0.060595613
252	0xbe189f47	-0.1490451
253	0xbcb0a7cf	-0.021564392
254	0xbdfd708d	-0.12374983
255	0xbdad880a	-0.08473213

encoder.5.bias f4 [32]
0	0x3d22f013	0.039779734
1	0x3d9661ab	0.073428474
2	0xbd6b20b3	-0.05740423
3	0x3ca24b3a	0.019811261
4	0x3d36aaa3	0.044596326
5	0x3cc4aef6	0.02400921
6	0x3c228859	0.009920203
7	0xbda8df5e	-0.08245729
8	0x3d5bf3f7	0.05369946
9	0xbdb5b672	-0.08872689
10	0xbc8a0882	-0.01684976
11	0x3d70dd65	0.05880489
12	0xbd320ac5	-0.043467302
13	0x3daaab8e	0.08333503
14	0xbdbe4f8c	-0.09292516
15	0xbd5cc741	-0.05390096
16	0x3d301ea8	0.042997986
17	0x3c7ea6a4	0.01554266
18	0x3d17e837	0.03708669
19	0x3cc1649a	0.02360754
20	0xbd52a9e4	-0.05143155
21	0x3c469822	0.012121232
22	0x3d61a04b	0.055084508
23	0xbd92289c	-0.07136652
24	0xbd23c20f	-0.03997999
25	0xbd390af3	-0.045176458
26	0xbd0f446a	-0.034977354
27	0x3cde5bfe	0.027143475
28	0xbbb3190f	-0.0054656337
29	0x3d9d68de	0.076860175
30	0xbd9b0255	-0.07568804
31	0x3d87fed1	0.06640399

encoder.6.weight f4 [32]
0	0x3f3f323b	0.7468602
1	0x3f42dd3c	0.76118827
2	0x3f4f5adb	0.8099801
3	0x3f331b29	0.6996332
4	0x3f2e735e	0.68144786
5	0x3f511ed8	0.8168769
6	0x3f5d92ed	0.86552316
7	0x3f36d3ee	0.7141713
8	0x3f31d74b	0.69469136
9	0x3f4f987a	0.81092036
10	0x3f2bb37a	0.67070735
11	0x3f4f324e	0.80936134
12	0x3f4b6477	0.7945017
13	0x3f4d483e	0.8018836
14	0x3f5196d1	0.8187075
15	0x3f5fa072	0.87354195
16	0x3f71deae	0.9448041
17	0x3f5678e2	0.837782
18	0x3ef15864	0.4713775
19	0x3f7b2241	0.9809914
20	0x3f6252c6	0.8840755
21	0x3f3379c9	0.70107704
22	0x3f0e6b80	0.5563278
23	0x3f84273f	1.0324477
24	0x3f4f6937	0.8101992
25	0x3f5e301d	0.86792165
26	0x3f59e0c4	0.8510859
27	0x3f081aa4	0.5316565
28	0x3f3e4a47	0.7433209
29	0x3f6a392a	0.91493475
30	0x3f4f8082	0.8105546
31	0x3f53ab72	0.8268348

encoder.6.bias f4 [32]
0	0x3dc7721d	0.09738562
1	0x3ccd7d63	0.025084203
2	0xbf15fd0a	-0.5858923
3	0x3d66bf74	0.056334928
4	0x3d7bfd83	0.061521064
5	0xbe6ba9e2	-0.23014024
6	0xbf08fa0b	-0.53506535
7	0x3c37d215	0.011219521
8	0xbe1e0a3a	-0.15433589
9	0xbf150fe1	-0.58227354
10	0x3d34ec8a	0.044170894
11	0xbe6f5d5a	-0.23375455
12	0xbe61f68b	-0.22066705
13	0xbf1a8afe	-0.60368335
14	0xbf17553d	-0.5911444
15	0xbf05fc6d	-0.52338296
16	0xbef0387c	-0.46918094
17	0xbf18488f	-0.59485716
18	0xbda624f9	-0.08112521
19	0xbed496e4	-0.4152137
20	0xbf04ee11	-0.5192576
21	0x3da16d68	0.07882196
22	0xbc54a8cb	-0.0129796965
23	0xbedede7a	-0.4352911
24	0xbe89108f	-0.26770446
25	0xbf075e68	-0.5287843
26	0xbe68adff	-0.22722624
27	0xb880e924	-6.1469415e-05
28	0x3db32c5b	0.087486945
29	0xbefd4691	-0.494679
30	0xbf1ce0c7	-0.61280483
31	0xbe645438	-0.22297752

encoder.6.running_mean f4 [32]
0	0x3e70d37b	0.23518173
1	0xbe24ad6b	-0.16081779
2	0xc0521cf0	-3.2830162
3	0xbc5e7351	-0.013577298
4	0xbe2628f2	-0.16226557
5	0xbfbe1a0d	-1.48517
6	0xc00f6c8d	-2.2410004
7	0xbea4e3b2	-0.32204968
8	0xbcf652a7	-0.030068709
9	0xc057baec	-3.3707838
10	0xbf1b2d42	-0.6061593
11	0xbfbd5017	-1.4790066
12	0xc03adfcd	-2.9199097
13	0xc044f8fd	-3.077697
14	0xc064f040	-3.5771637
15	0xc0402f8e	-3.0029025
16	0xc04dbe47	-3.2147386
17	0xc03f57fb	-2.989745
18	0x4008a932	2.1353269
19	0xc0487079	-3.1318648
20	0xc04f2a0f	-3.236942
21	0xbf6f9f85	-0.9360278
22	0xbfbf661f	-1.495304
23	0xc050990d	-3.2593415
24	0xbfa6a350	-1.3018589
25	0xc042451b	-3.0354679
26	0xbf4c42d7	-0.7978949
27	0x3ff7ce07	1.935975
28	0xbe059bbf	-0.13047694
29	0xc0425ab8	-3.036787
30	0xc053c04f	-3.3086126
31	0xbee79c36	-0.45236367

encoder.6.running_var f4 [32]
0	0x4015a198	2.337988
1	0x403ce9cd	2.95177
2	0x410ea653	8.9156065
3	0x401dfab4	2.4684267
4	0x4024ab95	2.5729725
5	0x413a18f9	11.631097
6	0x41087a10	8.5298
7	0x4087c7e5	4.243151
8	0x4111e75c	9.118984
9	0x41282f34	10.511524
10	0x403269fd	2.787719
11	0x41a0530f	20.040556
12	0x40d7b848	6.7412453
13	0x410c0063	8.750094
14	0x41388050	11.531326
15	0x410e4697	8.892234
16	0x410dd4f0	8.864487
17	0x4100201a	8.007837
18	0x40c4182a	6.1279497
19	0x4106362f	8.388228
20	0x410795b5	8.47405
21	0x401d493d	2.457595
22	0x40845449	4.1352887
23	0x4109ec2c	8.620159
24	0x418c884c	17.566551
25	0x4104ceff	8.300536
26	0x4148cf7b	12.550654
27	0x40740195	3.8125966
28	0x40a89b51	5.2689595
29	0x41007a93	8.029925
30	0x4109751f	8.591094
31	0x414b0984	12.689823

encoder.10.weight f4 [64, 32, 3, 3]
0	0xbb4117dd	-0.0029463687
1	0x3cab2a97	0.020894332
2	0x3b7afe1f	0.003829844
3	0x3c8b32e3	0.016992038
4	0xbc12e127	-0.008964813
5	0x3b9faaeb	0.00487267
6	0xba1b3aa0	-0.00059215166
7	0xbd1808a1	-0.037117604
8	0xbd6f7dce	-0.058469586
9	0xbb0a64a1	-0.0021117108
10	0x3c6e6081	0.0145493755
11	0x3c19e84c	0.009393763
12	0x3b9d041d	0.00479175
13	0x3c8e2585	0.017351875
14	0x3d4c04f3	0.049809407
15	0x3cabe003	0.02098084
16	0x3d215773	0.03939004
17	0xbb9ea523	-0.004841463
18	0x3bb4720e	0.0055067604
19	0x3cc43723	0.023952072
20	0x3dc8b0ed	0.09799371
21	0x3c832ace	0.016011622
22	0x3d52ea2b	0.05149285
23	0x3df8cbb0	0.12148225
24	0x3de983c7	0.11402088
25	0x3e0010bc	0.12506384
26	0x3dc4bc72	0.096062556
27	0x39ce5269	0.00039352782
28	0xbc3162fd	-0.010826823
29	0xbbd92b49	-0.0066274744
30	0x3b38bdba	0.0028189258
31	0x3c3c8f8c	0.011508834
32	0x3ca4c43a	0.0201131
33	0xbd11187c	-0.03542374
34	0xbc8e6d4c	-0.017386101
35	0xbcaa47d6	-0.020786207
36	0xbc043c5f	-0.008071034
37	0xbaf19fd9	-0.0018434479
38	0xbc013703	-0.007886651
39	0xbc1a211a	-0.009407306
40	0xbbdda62c	-0.006764194
41	0x3ca490b9	0.02008854
42	0xbc20847f	-0.0097972145
43	0x3caa3781	0.02077842
44	0xbd37b032	-0.044845767
45	0x3c3f37b6	0.011670997
46	0x3ca55f19	0.020186948
47	0xbbc28806	-0.0059366254
48	0x3b3967bd	0.0028290593
49	0xbd4c7cb3	-0.04992361
50	0xbb8219ac	-0.0039703455
51	0xbc97565a	-0.018473793
52	0x3cc6e1d6	0.024277609
53	0xbc7b1b54	-0.01532634
54	0xbc7db84d	-0.015485835
55	0x3c67bed7	0.014144621
56	0x3d8a9af3	0.067678355
57	0x3c7343bd	0.014847693
58	0x3d63aa06	0.05558207
59	0x3d81c123	0.06335666
60	0x3d09627f	0.0335412
61	0x3d8657ff	0.06559753
62	0x3df93e5a	0.12170096
63	0x3cc73739	0.024318324
64	0xbbc60da9	-0.006044109
65	0xbc90398b	-0.017605564
66	0x3d02725c	0.031847343
67	0x3bb90f55	0.0056475797
68	0x3bae7594	0.005324075
69	0xbc0c730f	-0.008572354
70	0xbcc47dbc	-0.023985736
71	0xbd88af14	-0.066740185
72	0xbc8c725a	-0.01714437
73	0x38295995	4.037617e-05
74	0xbd082335	-0.0332367
75	0xbd468fd1	-0.048476998
76	0xbcbb4e30	-0.022864431
77	0xbd061b46	-0.032740854
78	0xbc913f5f	-0.017730413
79	0x3b8963ce	0.004192806
80	0xbc1a5dea	-0.009421805
81	0xbd8f4997	-0.06996458
82	0xbde63f19	-0.11242504
83	0x3bc77c12	0.0060877884
84	0xbd1b79ae	-0.03795784
85	0xbdcd23dc	-0.10016605
86	0xbd5a8e08	-0.053358108
87	0xbcea2af1	-0.02858493
88	0xbaab2ae7	-0.001305905
89	0x3d172246	0.03689792
90	0xbd70de04	-0.05880548
91	0xbc38b800	-0.011274338
92	0xbcf009c7	-0.029301537
93	0xbd0715df	-0.032979842
94	0xbbb1a47f	-0.005421221
95	0xba08dd65	-0.00052209786
96	0xba948a80	-0.001133278
97	0x3c2bdc2e	0.010489507
98	0xbc30b13a	-0.010784442
99	0x3d831b92	0.06401743
100	0x3d4b4262	0.049623854
101	0xbca776d1	-0.020442398
102	0xbbc67372	-0.0060562426
103	0xbcd09930	-0.02546367
104	0x3cc1626d	0.023606503
105	0x3c99ac79	0.018759
106	0x39352a73	0.00017277319
107	0x3d0f58a0	0.03499663
108	0xbe089728	-0.13338912
109	0xbdd91201	-0.10599137
110	0xbd89ed42	-0.067347065
111	0xbe08d092	-0.13360813
112	0xbdd9cbfe	-0.106346115
113	0xbda5a780	-0.08088589
114	0xbdcc095e	-0.09962724
115	0xbd51e4a9	-0.051243458
116	0xbdd8b197	-0.105807476
117	0xbd0d6c32	-0.03452701
118	0xbae362bf	-0.0017348154
119	0x3d42d033	0.047561835
120	0x3d1f015d	0.03881966
121	0x3ce9b5fe	0.028529163
122	0x3d063188	0.03276208
123	0x3dc95ed5	0.09832541
124	0x3da02e0f	0.07821285
125	0x3e0e2bb7	0.13883863
126	0x3ca90be3	0.02063555
127	0x3d703fd0	0.058654606
128	0x3cbeb075	0.0232775
129	0x3b996a8c	0.004681891
130	0x3c5ee045	0.013603275
131	0x3dcea9a8	0.10090953
132	0x3dd76db0	0.10518968
133	0x3de60539	0.11231465
134	0x3defe27f	0.117131226
135	0xbc7a8558	-0.015290581
136	0x3ca1c5de	0.01974767
137	0x3dd4308a	0.103608206
138	0x3d6d7c0c	0.05797963
139	0x3da6c8c3	0.08143761
140	0x3dad68a3	0.084672235
141	0x3e0b5aa8	0.13608801
142	0x3db4bba2	0.088248506
143	0x3e51e043	0.20495705
144	0xbd402c90	-0.046917498
145	0xbd1d439d	-0.03839456
146	0x3d06ec44	0.032940164
147	0xbd9a32cc	-0.0752922
148	0xbc0b266a	-0.008493045
149	0x3d485760	0.048911452
150	0xbd44727a	-0.047960736
151	0x3d57efe4	0.052719012
152	0x3d4584d0	0.048222363
153	0xbdf0c2ca	-0.11755903
154	0xbdadcf2e	-0.08486782
155	0xbdaf64b0	-0.085641265
156	0xbd9c1645	-0.07621435
157	0xbd801f72	-0.06255998
158	0xbd71b4c2	-0.059010275
159	0xbd809892	-0.062791005
160	0xbddc16d3	-0.10746541
161	0x3c0aa3fa	0.008461947
162	0xbaa6a1d4	-0.0012713023
163	0x3c764c3f	0.015032827
164	0x3c06329b	0.008190776
165	0x3d00eeb1	0.031477634
166	0xbcc85060	-0.024452388
167	0x3c0549a8	0.008135237
168	0xbbb27761	-0.00544636
169	0x3ce662a1	0.028123202
170	0xbc0e11db	-0.008671249
171	0x3c0d34ba	0.008618528
172	0x3d6a0906	0.05713751
173	0x3ce5fb2d	0.028073872
174	0x3da55bad	0.080741264
175	0x3da049e4	0.078265935
176	0x3de85d22	0.11345889
177	0x3da10b59	0.078634925
178	0x3dbc6cf0	0.09200466
179	0x3e11937a	0.14216414
180	0xbdb484db	-0.08814403
181	0x3cdec1bb	0.027191987
182	0xbc9517d2	-0.018199835
183	0xbc7cf576	-0.015439382
184	0x3cee86f4	0.029117085
185	0x3d65c92e	0.056100063
186	0x3d6c27e2	0.057655223
187	0x3da31507	0.07962995
188	0x3e0a9645	0.13533886
189	0x3cc078f6	0.023495179
190	0x3c8b3056	0.016990822
191	0x3d307804	0.043083206
192	0x3cc1b2a3	0.023644751
193	0x3d24eef2	0.04026694
194	0x3d1d8a80	0.038462162
195	0x3d0f3bcb	0.034969132
196	0x3d5ace8f	0.053419646
197	0x3d30f9e2	0.043207057
198	0x3ce3acb1	0.027792307
199	0x3c56470f	0.013078465
200	0x3cb418b7	0.021984441
201	0xbca99239	-0.020699607
202	0x3cd53957	0.026028318
203	0xbc1858cb	-0.009298514
204	0x3d0624d9	0.032749984
205	0xbb9deac7	-0.0048192474
206	0x3cf8025b	0.03027456
207	0xbd3a20c8	-0.04544142
208	0x3d092a17	0.033487406
209	0x3bc0ed88	0.005887691
210	0xb94ad974	-0.00019345229
211	0xbd0ed33c	-0.034869418
212	0x3b7a2518	0.0038169082
213	0x3d8975c9	0.06711919
214	0x3db916d0	0.09037554
215	0x3df9ffc1	0.12206984
216	0xbcbdacc3	-0.023153668
217	0x3c78799d	0.015165714
218	0xbd65e01f	-0.05612194
219	0xbd45910c	-0.04823403
220	0xbcab3cda	-0.02090304
221	0x3b8aa391	0.0042309244
222	0xbd08880a	-0.033332862
223	0xbd15c4ed	-0.036564756
224	0xbcb1dbaa	-0.02171119
225	0x3dc017bc	0.09379527
226	0x3d69df85	0.05709793
227	0x3de89a3f	0.11357545
228	0x3daaa74e	0.08332692
229	0x3db9b342	0.09067394
230	0x3ddb8816	0.10719316
231	0x3e2117cb	0.15731733
232	0x3df9a742	0.12190105
233	0x3e335034	0.17511064
234	0x3c0d847f	0.008637547
235	0xbaa13277	-0.0012298365
236	0xbc9925e1	-0.01869482
237	0x3ca723dd	0.020402843
238	0xbce29745	-0.027660022
239	0xbd592e08	-0.053022414
240	0x3cb4bebd	0.022063607
241	0xbc7914c8	-0.015202709
242	0xbcfe4ae9	-0.03104158
243	0x3bcfdab5	0.0063432106
244	0xbc41b974	-0.011824001
245	0x3ce23ab9	0.027615892
246	0x3d2bc10b	0.041932147
247	0x3d034205	0.032045383
248	0xbb1e42fc	-0.0024148813
249	0xbc7532ee	-0.014965756
250	0x3c3d245b	0.011544312
251	0x3bc89428	0.006121177
252	0x3c5e7421	0.013577492
253	0x3ca41257	0.020028276
254	0x3b9529d0	0.0045521036
255	0xbcdaa07e	-0.026687857

encoder.10.bias f4 [64]
0	0x3d5470fb	0.05186556
1	0x3d1a9639	0.03774092
2	0xbd823adf	-0.06358885
3	0xbcc226cc	-0.02370014
4	0x3d3699e8	0.04458037
5	0x3d1b79c5	0.037957925
6	0xbc748e34	-0.014926482
7	0x3c77890d	0.015108359
8	0xbd352895	-0.044228155
9	0x3d889a00	0.06669998
10	0xbc7ed4f0	-0.015553698
11	0x3d2be5a0	0.041967034
12	0xbd3fa473	-0.04678769
13	0xbd5226fb	-0.051306706
14	0x3d396617	0.045263376
15	0x3d251956	0.040307365
16	0xbcdbab82	-0.02681518
17	0x3c25b983	0.01011503
18	0x3c17a6b6	0.009256056
19	0xbc8ed35a	-0.017434765
20	0xbcfcd171	-0.030861588
21	0x3d571b20	0.052516103
22	0x397174ea	0.00023027105
23	0xbd42d0ed	-0.04756253
24	0xbd072915	-0.032998163
25	0x3c65b7d6	0.014020881
26	0xbc80243d	-0.01564228
27	0x3b69cecd	0.0035676241
28	0x3c9dd68e	0.019267347
29	0x3d60867f	0.054815765
30	0xbcac0566	-0.020998668
31	0x3d0a61ce	0.03378468
32	0xbc19f980	-0.009397864
33	0xbd5b7f12	-0.05358798
34	0xbb0300b6	-0.0019989437
35	0x3d34a86b	0.04410593
36	0xbbed5133	-0.0072423457
37	0xbca5123c	-0.020150296
38	0xbb5b028e	-0.003341827
39	0x3b3875fa	0.0028146491
40	0x3c6229c6	0.013803905
41	0xbd60ad72	-0.05485291
42	0x3c014da5	0.007892047
43	0x3d10f9ed	0.035394598
44	0x3d5b601d	0.053558458
45	0x3ce58ce7	0.028021289
46	0xbca7f017	-0.020500226
47	0x3d369f99	0.044585798
48	0xbd3507da	-0.04419694
49	0xbbfdf212	-0.0077498043
50	0xbd681f38	-0.056670398
51	0xbcfef605	-0.03112317
52	0xbc2ef746	-0.010679072
53	0xbb7495e6	-0.0037320792
54	0x3c34ca98	0.01103463
55	0x3d3e8568	0.046513945
56	0xbd05b388	-0.032641917
57	0x3d2b69f1	0.04184908
58	0x3cad4648	0.021151677
59	0x3b7ac58c	0.003826472
60	0xbbaa3f09	-0.0051955027
61	0xbcc4df05	-0.024032125
62	0x3d528064	0.051391974
63	0xbd0e35ab	-0.03471915

encoder.11.weight f4 [64]
0	0x3f77476e	0.9659337
1	0x3f7b8415	0.98248416
2	0x3f7ffd68	0.9999604
3	0x3f744da2	0.9543096
4	0x3f5f744f	0.8728685
5	0x3f79ae2c	0.9753139
6	0x3f8086de	1.0041158
7	0x3f8676bc	1.0504985
8	0x3f85a872	1.044203
9	0x3f7a2624	0.9771445
10	0x3f7ed9b1	0.9955092
11	0x3f81dd12	1.014559
12	0x3f716591	0.94295603
13	0x3f74a149	0.955586
14	0x3f6d3bf7	0.92669624
15	0x3f8d2283	1.1026157
16	0x3f864490	1.0489674
17	0x3f783d73	0.96968764
18	0x3f696d63	0.91182536
19	0x3f866870	1.0500622
20	0x3f7e1757	0.99254364
21	0x3f72ec10	0.9489145
22	0x3f812540	1.0089493
23	0x3f801451	1.00062
24	0x3f6e0a22	0.9298421
25	0x3f7512ce	0.9573182
26	0x3f71aaa8	0.94401026
27	0x3f7fe0c6	0.9995235
28	0x3f87aba5	1.0599257
29	0x3f8153dc	1.0103717
30	0x3f7973ed	0.97442514
31	0x3f79c945	0.9757274
32	0x3f8da33f	1.1065444
33	0x3f74b180	0.95583344
34	0x3f8adc98	1.084857
35	0x3f78fc19	0.9725967
36	0x3f838d86	1.0277565
37	0x3f723a71	0.94620425
38	0x3f80ae3f	1.0053176
39	0x3f7257e5	0.94665366
40	0x3f891f75	1.0712725
41	0x3f7f3c45	0.9970134
42	0x3f82ad36	1.020911
43	0x3f71d2c4	0.9446223
44	0x3f808515	1.0040613
45	0x3f83dc79	1.0301658
46	0x3f80b2e5	1.0054594
47	0x3f830f17	1.023898
48	0x3f709c90	0.93988895
49	0x3f7515e4	0.9573653
50	0x3f781ccf	0.9691896
51	0x3f824cff	1.0179747
52	0x3f761ace	0.9613465
53	0x3f900289	1.1250774
54	0x3f82396f	1.0173777
55	0x3f822d38	1.017005
56	0x3f6a78f6	0.9159082
57	0x3f88d7a7	1.0690812
58	0x3f7ab842	0.97937405
59	0x3f829780	1.0202484
60	0x3f70f2ca	0.94120467
61	0x3f7c4ba8	0.9855294
62	0x3f672eb0	0.90305614
63	0x3f7b479d	0.9815615

encoder.11.bias f4 [64]
0	0xbead896e	-0.33893913
1	0xbe0b980e	-0.13632223
2	0xbe7f5b73	-0.24937229
3	0x3d3f49c2	0.0467012
4	0xbe81447f	-0.2524757
5	0x3d58389a	0.052788354
6	0xbea4f41d	-0.32217494
7	0x3de16dda	0.11007281
8	0x3dbb4218	0.09143466
9	0xbeb12c39	-0.34604052
10	0x39fc1243	0.00048078792
11	0xbd416f99	-0.04722557
12	0xbe7de92e	-0.24795982
13	0xbe8fd6cf	-0.28093573
14	0xbd687012	-0.056747504
15	0xbe4c5378	-0.19953716
16	0x3dc82840	0.09773302
17	0xbea61eec	-0.32445467
18	0xbd9de226	-0.0770915
19	0x3d956b3d	0.07295845
20	0x3d8d7fd6	0.069091484
21	0x3d0f704f	0.035019215
22	0x3d061ead	0.0327441
23	0xbe2e5b25	-0.17026956
24	0xbef42c00	-0.4768982
25	0xbe121cf5	-0.14268859
26	0xbd80868f	-0.06275665
27	0x3daeb08c	0.085297674
28	0xbe4c943f	-0.19978426
29	0x3d8fa8a9	0.07014591
30	0xbdb8e598	-0.090281665
31	0xbe87b105	-0.26502243
32	0xbee1663f	-0.4402332
33	0x3d7b8bca	0.06141261
34	0xbe9ad5be	-0.30241197
35	0xbecd20b2	-0.40064007
36	0x3de397b1	0.11112917
37	0xbe98c3a3	-0.2983676
38	0x3d7f52b9	0.06233475
39	0xbeae52e4	-0.34047616
40	0xbe776eeb	-0.24163406
41	0xbedeba2c	-0.43501413
42	0xbaf8a07c	-0.0018968727
43	0xbe9c5e6f	-0.30540797
44	0x3d29590d	0.04134469
45	0xbeaecbb8	-0.341398
46	0x3d8b1404	0.06790927
47	0x3cf99813	0.030468022
48	0xbe1b6091	-0.15173556
49	0xbe9fa435	-0.31179968
50	0xbeb843ad	-0.35989133
51	0xbec657cf	-0.38738868
52	0xbe58216c	-0.211065
53	0x3dbcebee	0.092246875
54	0xbeb6b43f	-0.35684392
55	0xbde76abc	-0.11299655
56	0x3c80ed3c	0.015738122
57	0xbdd7a748	-0.10529953
58	0xbe8e1bef	-0.27755687
59	0x3dc8d79f	0.098067515
60	0xbee1756d	-0.440349
61	0xbe083f6d	-0.13305445
62	0xbdf854ee	-0.12125574
63	0xbee1de39	-0.44114855

encoder.11.running_mean f4 [64]
0	0x3e9a403a	0.30127126
1	0xbe692f58	-0.22771966
2	0x3e1cfee5	0.1533161
3	0x3e4f3c8c	0.2023794
4	0x3f0e4daf	0.55587286
5	0x3f298968	0.6622529
6	0xbf59911e	-0.84987056
7	0xbf312e4f	-0.69211286
8	0xbf7c0250	-0.9844103
9	0x3ea550cd	0.3228821
10	0xbf3f4a18	-0.74722433
11	0xbf3dac5b	-0.7409112
12	0xbf21cff6	-0.6320795
13	0x3eacb516	0.33731908
14	0x3f8a1d20	1.0790138
15	0x3ed37978	0.4130361
16	0xbf3936d9	-0.72349316
17	0x3ec003dd	0.37502947
18	0xbe1f46e3	-0.15554385
19	0xbf946fe3	-1.1596645
20	0x3ed22279	0.41041926
21	0xbee4b6fd	-0.4467086
22	0x3f2cf9e5	0.6756881
23	0x3eb812c3	0.35951814
24	0x3e930dc3	0.28721437
25	0x3eb679a1	0.3563967
26	0xbea38b03	-0.31941995
27	0x3e98e9dd	0.29865924
28	0x3e3ae0a1	0.18249752
29	0xbee4fd9d	-0.44724742
30	0xbea4aa6e	-0.32161278
31	0x3e923e80	0.2856331
32	0xbea0210b	-0.3127521
33	0xbee870dd	-0.45398608
34	0x3e1c95fe	0.15291592
35	0x3ec13afb	0.3774031
36	0xbf358079	-0.7089916
37	0x3f0f7d58	0.56050634
38	0xbf14038a	-0.578179
39	0x3e4bfbfc	0.19920343
40	0x3e9073f2	0.2821346
41	0xbead5293	-0.33852062
42	0xbf261b9c	-0.6488588
43	0x3e83609c	0.25659645
44	0xbf056d31	-0.5211974
45	0x3e8d1635	0.27556005
46	0xbf0630bf	-0.5241813
47	0x3e005243	0.1253138
48	0xbf193e62	-0.59860814
49	0xbf2fa59b	-0.6861207
50	0xbe8f9d57	-0.28049728
51	0x3ce6e5de	0.028185781
52	0x3ef27a63	0.47359
53	0xbef17203	-0.47157297
54	0x3e60f406	0.21968088
55	0xbdd85d56	-0.105646774
56	0x3ea6aff1	0.32556108
57	0xbf36834b	-0.7129409
58	0x3f3e1fa1	0.7426701
59	0xbea68c9f	-0.3252916
60	0x3da4b90a	0.08043106
61	0x3cae9866	0.021312904
62	0x3f9e7358	1.237895
63	0xbd9cc3d1	-0.076545365

encoder.11.running_var f4 [64]
0	0x3f3d9c92	0.7406703
1	0x3f1af393	0.60527915
2	0x3ede4645	0.43412986
3	0x3f89d748	1.0768824
4	0x3f497b5e	0.7870387
5	0x3f5b4143	0.85646456
6	0x3f063b7b	0.5243451
7	0x3f071110	0.5276041
8	0x3f649983	0.8929674
9	0x3f031bf3	0.5121452
10	0x3f178ce2	0.59199345
11	0x3edfbb88	0.43697762
12	0x3fb1bcf3	1.3885788
13	0x3f424e67	0.7590088
14	0x3f30921c	0.68972945
15	0x3f480317	0.78129715
16	0x3fdfb780	1.7477875
17	0x3fdc011e	1.7187841
18	0x3f1f8896	0.6231779
19	0x3f44ed15	0.7692426
20	0x3f48b930	0.78407574
21	0x3f231eee	0.6371907
22	0x3f44015b	0.7656457
23	0x3f42de70	0.7612066
24	0x3f025c20	0.5092182
25	0x3f539477	0.82648414
26	0x3f151a06	0.58242834
27	0x3f36b5f8	0.7137141
28	0x3ee99981	0.45624927
29	0x3f81e41a	1.0147736
30	0x3f00e207	0.5034489
31	0x3f1fabb8	0.62371397
32	0x3eb3e81d	0.35138026
33	0x3f4dcb70	0.80388546
34	0x3eec4c66	0.46152037
35	0x3ee957d3	0.45574817
36	0x3f52e5de	0.82382
37	0x3f969574	1.176436
38	0x3fb7f739	1.4372321
39	0x3f2f6b17	0.6852278
40	0x3f485286	0.7825092
41	0x3e674061	0.22583152
42	0x3f187b23	0.5956289
43	0x3eb31b14	0.34981596
44	0x3f0063bc	0.5015218
45	0x3f244870	0.6417303
46	0x3fbccf16	1.4750698
47	0x3f18555d	0.59505254
48	0x3f9a1189	1.2036601
49	0x3eca496a	0.39509135
50	0x3e9b106e	0.30285972
51	0x3ebcd229	0.3687909
52	0x3f566b6c	0.8375766
53	0x3fa0bc62	1.255749
54	0x3eff594b	0.49872813
55	0x3f067989	0.525292
56	0x3f5a841d	0.8535784
57	0x3eafcb8d	0.34334984
58	0x3fbf6124	1.495152
59	0x3fb6e78d	1.4289414
60	0x3ee2e88d	0.44318047
61	0x3f318ecc	0.69358516
62	0x3f2fe398	0.68706656
63	0x3ebb95af	0.36637637

decoder.0.weight f4 [64, 32, 2, 2]
0	0xbcdb0ed7	-0.026740475
1	0x3d0f4381	0.034976486
2	0xbd9eb1db	-0.07748767
3	0xbe103392	-0.14082173
4	0xbdc73bbe	-0.09728192
5	0xbe4e34a3	-0.20137267
6	0xbcaa8d59	-0.020819353
7	0xbdc89ee4	-0.09795931
8	0x3be5207a	0.006992397
9	0x3cc62246	0.024186265
10	0xbdaeb316	-0.08530252
11	0xbddb96e9	-0.10722143
12	0x3cbd2f09	0.023093717
13	0xbd871922	-0.065965906
14	0xba363594	-0.0006950733
15	0xbd849089	-0.064728804
16	0x3d6cc7f1	0.057807866
17	0x3cc5c3a6	0.024141144
18	0x3c775cbf	0.015097796
19	0xbcea8b9b	-0.028631022
20	0xbd858770	-0.06519973
21	0xbdbbffdd	-0.091796614
22	0xbe2e5d7d	-0.1702785
23	0xbcbc8072	-0.023010466
24	0xbe2920ae	-0.16516373
25	0xbd391b96	-0.045192324
26	0x3c06bbf7	0.008223525
27	0xbc436db3	-0.01192801
28	0xbe1bae09	-0.15203108
29	0xbddfa5c2	-0.10920288
30	0xbd6809bb	-0.056649905
31	0xbd2a9d95	-0.04165419
32	0x3d0871d6	0.033311687
33	0xbd04573a	-0.03230975
34	0xbc801170	-0.015633315
35	0x3db14c0a	0.086570814
36	0x3d326b76	0.043559514
37	0x3da085f5	0.0783805
38	0xbd8101d9	-0.062991805
39	0x3d190e05	0.037366886
40	0x3dc29cab	0.09502538
41	0x3da3b282	0.07993032
42	0x3d6e1dc1	0.058133844
43	0x3dd1ecea	0.10250266
44	0x3d34206d	0.043976236
45	0x3c330efb	0.010928865
46	0x3e10e85d	0.1415114
47	0x3dbe1092	0.09280504
48	0x3d8157e7	0.06315594
49	0xbe0d62a4	-0.1380716
50	0xbce2ad3d	-0.027670497
51	0xbe1e0144	-0.1543017
52	0x3bce7c61	0.006301448
53	0xbd523b16	-0.05132588
54	0x3db78530	0.089609504
55	0x3d91305c	0.07089302
56	0xbe1383e9	-0.14405788
57	0xbdc0b167	-0.09408837
58	0xbd26be37	-0.040708747
59	0xbd3d21b1	-0.04617471
60	0xbda6d7a1	-0.08146597
61	0x3c2f11e5	0.010685419
62	0xbd90533e	-0.07047127
63	0x3d9310dc	0.0718095
64	0x3c5db7fe	0.013532637
65	0x3bf68715	0.0075234273
66	0xbd948e60	-0.072537184
67	0xbda93991	-0.08262933
68	0xbdf4672e	-0.119337425
69	0xbd696b40	-0.056987047
70	0xbe0215d0	-0.12703633
71	0xbe10de5c	-0.14147323
72	0xbc8d2bf3	-0.01723287
73	0xbcd694b8	-0.026193962
74	0xbdd286cc	-0.10279617
75	0xbdbf46fd	-0.09339712
76	0xbd38b4f4	-0.045094445
77	0xbcdbfb96	-0.026853364
78	0x3b8c6ac1	0.004285187
79	0xbcaa64fd	-0.020800108
80	0xbd455799	-0.048179243
81	0x3dd6ed48	0.104944766
82	0x3c960a04	0.018315323
83	0xbe1580e8	-0.14599955
84	0xbe39391b	-0.1808819
85	0x3da237f2	0.07920827
86	0xbc7f6ab4	-0.015589405
87	0xbd17eb05	-0.037089366
88	0x3d08f2b0	0.03343457
89	0x3c7684d7	0.01504632
90	0xbc2ccb6f	-0.010546549
91	0xb9c6d31b	-0.0003792279
92	0xbd8f87c4	-0.07008317
93	0x3d2c22bd	0.042025317
94	0xbd0403d9	-0.032230232
95	0xbcc17726	-0.023616385
96	0xbd748161	-0.059693698
97	0xbd8f428b	-0.06995114
98	0xbd3a9ad2	-0.045557804
99	0xbc6d91d8	-0.014500104
100	0x3ce46a27	0.027882649
101	0x3c9b102a	0.018928606
102	0xbd42e7fa	-0.04758451
103	0x3e00f807	0.12594615
104	0xbd59e27a	-0.0531945
105	0x3c073f5f	0.008254855
106	0xbd8bc0fe	-0.0682392
107	0xbc91c977	-0.017796261
108	0x3bedbf77	0.0072554904
109	0x3b81fa5c	0.0039666127
110	0xbc8d738c	-0.017267011
111	0xbd209deb	-0.039213102
112	0x3da727ea	0.0816191
113	0xbd9d8d60	-0.07692981
114	0xbd9dae5b	-0.07699271
115	0xbe514612	-0.20436886
116	0x3caf6a88	0.021413103
117	0x3cd2b845	0.025722632
118	0xbe166195	-0.14685662
119	0xbdccc3e4	-0.09998301
120	0xbd5a674e	-0.053321175
121	0xbd898b6e	-0.06716047
122	0xbdbf1bb6	-0.09331457
123	0xbd94331e	-0.07236312
124	0xbd0996ad	-0.03359096
125	0xbcaa0aa7	-0.020757033
126	0xbe3964b4	-0.18104821
127	0xbe4c2084	-0.19934279
128	0x3d1c5875	0.038170297
129	0xbdaf3bd1	-0.08556331
130	0xbd5dc1ac	-0.054139778
131	0x3d2836b1	0.041067783
132	0x3d18b8a8	0.037285477
133	0xbcd70faa	-0.026252586
134	0xbc9da321	-0.019242825
135	0x3b9e2c8f	0.004827089
136	0x3dbbd530	0.09171522
137	0x3d83fe72	0.06445016
138	0x3c3f52d4	0.011677463
139	0xbe191b6d	-0.14951868
140	0x3c8d3938	0.017239198
141	0x3dd2645b	0.102730475
142	0x3ddd0a5b	0.10792991
143	0x3dfb374f	0.12266409
144	0xbce7abe7	-0.028280212
145	0x3d5f2150	0.05447513
146	0x3cef4e8d	0.02921226
147	0xbdf5b6a5	-0.11997727
148	0xbe3ff39b	-0.18745272
149	0xbda98d2b	-0.08278879
150	0xbdefbccb	-0.11705931
151	0xbdcc8525	-0.09986333
152	0xbe4eac96	-0.20183024
153	0xbe46c2f4	-0.19410306
154	0xbd2d4b72	-0.04230828
155	0xbda94cb0	-0.0826658
156	0xbdc3e629	-0.09565384
157	0xbde6578a	-0.112471655
158	0xbca31ce3	-0.019911235
159	0x3d1de813	0.0385514
160	0x3d3ca6fd	0.04605769
161	0x3c8a3c03	0.016874319
162	0x3bf107d3	0.007355669
163	0x3d2e1399	0.04249916
164	0x3d0fe543	0.03513075
165	0xbcb427c6	-0.021991622
166	0x3b936a04	0.004498722
167	0x3bf27874	0.007399613
168	0xbd90feb6	-0.07079832
169	0xbd82aaff	-0.06380271
170	0xbd392b76	-0.045207463
171	0xbd5fdd9b	-0.0546547
172	0xbd79fe57	-0.061033573
173	0xbcd39f18	-0.025832698
174	0xbd83e520	-0.064401865
175	0xbc61dfe6	-0.013786292
176	0x3d17807f	0.036987778
177	0x3c808ac0	0.015691161
178	0x3d17c9dc	0.037057742
179	0xbd8fd601	-0.0702324
180	0xbd6b0ee8	-0.057387263
181	0xbce530b8	-0.027977332
182	0xbd3da91f	-0.046303865
183	0xbd7de2a5	-0.061983723
184	0xbc6ecc2b	-0.014575045
185	0x3da43bc0	0.08019209
186	0xbd614ec9	-0.055006776
187	0x3cbab830	0.022792906
188	0x3ab57b77	0.0013846
189	0xbd399068	-0.045303732
190	0xbd803801	-0.06260682
191	0xbce80100	-0.02832079
192	0x3d2faed1	0.042891327
193	0x3ce6a2bc	0.02815377
194	0x3d0ae1e4	0.033906832
195	0x3d1802a4	0.037111893
196	0x3c519be3	0.012793514
197	0x3ccdff25	0.025146076
198	0x3ccc1107	0.024910463
199	0x3d66ce0a	0.056348838
200	0xbb61e9d9	-0.003447166
201	0xbda39981	-0.07988263
202	0xbe0e03b8	-0.13868606
203	0xbd95c9b6	-0.07313864
204	0x3d026b01	0.031840328
205	0xbccebad5	-0.025235573
206	0xbd180a60	-0.03711927
207	0xbb97c54c	-0.004631674
208	0x3c3d176f	0.011541232
209	0x3d079cc4	0.033108488
210	0x3b015fd9	0.0019740968
211	0x3d1cca41	0.03827882
212	0xbe198b4c	-0.14994544
213	0xbc1fc060	-0.009750456
214	0xbd1e2998	-0.038613886
215	0x3da4ec8e	0.08052932
216	0x3e12258e	0.14272138
217	0x3d6027a9	0.054725323
218	0x3cfc0891	0.030765804
219	0x3da094c1	0.078408726
220	0xbdb59218	-0.08865756
221	0xbae54339	-0.0017491347
222	0xbdb33ca2	-0.08751799
223	0xbd561c1b	-0.052272897
224	0xbd88a788	-0.06672579
225	0xbca15d0b	-0.019697687
226	0xbb2ebd7a	-0.002666323
227	0x3b94465a	0.004524988
228	0xbc2d2691	-0.010568277
229	0x3bcbe0e5	0.006221878
230	0x3d180fe4	0.03712453
231	0xbd1fbd4f	-0.038998898
232	0x3cf995cd	0.030466938
233	0x3daa9363	0.08328893
234	0x3bb6e84c	0.005581891
235	0x3c294e76	0.010333648
236	0xbe0bc560	-0.13649511
237	0xbe6482fe	-0.22315595
238	0x3d2c575a	0.042075492
239	0xbd0ef908	-0.034905463
240	0x3d9714a8	0.07376987
241	0x3c9cbdf3	0.019133544
242	0x3c148180	0.009064078
243	0xbda520bf	-0.080628864
244	0xbe149a2b	-0.14511935
245	0xbe2cce42	-0.16875556
246	0xbdd40bb3	-0.10353794
247	0xbe5b0081	-0.21386911
248	0x3dab8ca4	0.083764344
249	0x3d4ed7a3	0.050498616
250	0x3d29a993	0.041421484
251	0xbccd41bd	-0.02505576
252	0x3c951dc0	0.018202662
253	0xbd1902ed	-0.037356306
254	0xbc8fc233	-0.017548656
255	0xbd651c94	-0.055935457

decoder.0.bias f4 [32]
0	0x3d86257f	0.065501206
1	0x3ccb58f2	0.024822686
2	0x3daf6f25	0.08566121
3	0xbc95ea49	-0.018300192
4	0x3d2dd87b	0.04244278
5	0x3d8e450f	0.06946766
6	0xbd923f8b	-0.07141026
7	0xbd9700c8	-0.07373196
8	0xbd8e16e3	-0.06937959
9	0xbaeb3e36	-0.0017947617
10	0x3d56c816	0.05243691
11	0x3d796375	0.060885865
12	0x3d86fe15	0.06591431
13	0xbd57b5f3	-0.052663755
14	0x3c2375f6	0.009976855
15	0x3db08395	0.08618847
16	0xbc21e750	-0.009881809
17	0xbda3794b	-0.07982119
18	0x3d156499	0.03647289
19	0xbcf39fa5	-0.02973921
20	0x3d352d55	0.044232685
21	0x3c684a12	0.014177816
22	0xbdac2ea3	-0.08407333
23	0x3c0e3d3d	0.0086815925
24	0x3d93b40d	0.07212076
25	0xbd28d522	-0.041218884
26	0xbc3317b3	-0.010930943
27	0xbd2fb038	-0.042892665
28	0x3d97b2e7	0.0740717
29	0x3d65c4bf	0.056095835
30	0xbd2671b5	-0.040635783
31	0x3d4b9540	0.049702883

decoder.1.weight f4 [32]
0	0x3f80e4bf	1.0069808
1	0x3f8b1751	1.0866491
2	0x3f61e6c7	0.88242763
3	0x3f6699e0	0.90078545
4	0x3f487e2d	0.7831753
5	0x3f795bce	0.9740571
6	0x3f8ba142	1.0908587
7	0x3f908f5a	1.1293747
8	0x3f4abbf7	0.7919306
9	0x3f63b4f3	0.8894798
10	0x3f91755e	1.1363943
11	0x3f75b33a	0.95976603
12	0x3f88a26f	1.0674571
13	0x3f8371fc	1.026916
14	0x3f75e666	0.96054685
15	0x3f8179df	1.0115317
16	0x3f63d576	0.8899759
17	0x3f69aff0	0.91284084
18	0x3f7b6cba	0.9821278
19	0x3f84f711	1.0387899
20	0x3f5feef6	0.87474
21	0x3f5ebc5c	0.87006164
22	0x3f6c5729	0.92320496
23	0x3f8331e8	1.0249605
24	0x3f8d2621	1.1027261
25	0x3f4d1fcb	0.8012664
26	0x3f65029f	0.89457124
27	0x3f819959	1.0124923
28	0x3f7dc6a0	0.991312
29	0x3f850d5e	1.0394704
30	0x3f86e39a	1.0538208
31	0x3f825836	1.018317

decoder.1.bias f4 [32]
0	0x3d61197c	0.054955944
1	0x3e0c2b2c	0.13688344
2	0x3d7f2e8f	0.06230026
3	0xbd75d078	-0.060013264
4	0xbe322632	-0.17397383
5	0x3e25a410	0.16175866
6	0x3dce2a72	0.100666896
7	0x3dfd5647	0.12369972
8	0xbe581563	-0.21101908
9	0xbe3bef36	-0.1835297
10	0x3d592bb8	0.05302021
11	0xbcceef02	-0.025260452
12	0x3e12aeee	0.14324543
13	0xbc96048e	-0.018312719
14	0x3dfad693	0.12247958
15	0x3c2906c8	0.010316558
16	0xbe163eb3	-0.14672355
17	0xbe2037c6	-0.15646276
18	0x3ddb929e	0.107213244
19	0x3d6164b3	0.055027675
20	0xbe300b3b	-0.17191784
21	0x3e69a887	0.22818194
22	0xbe2b34fa	-0.16719428
23	0x3d299ff0	0.041412294
24	0x3da5c809	0.08094794
25	0xbd84c504	-0.0648289
26	0xbe146f4d	-0.14495583
27	0x3dd238ae	0.10264717
28	0xbd9e4dac	-0.077296585
29	0x3d6388ba	0.055550314
30	0x3e3e4480	0.18580818
31	0x3df96169	0.12176783

decoder.1.running_mean f4 [32]
0	0xbf482fce	-0.78197944
1	0xbf8c0508	-1.0939035
2	0xbf4ab293	-0.7917873
3	0x3ab2ee46	0.0013651333
4	0xbef12523	-0.47098646
5	0xbfbdf03c	-1.4838939
6	0xbfea05aa	-1.8282979
7	0xbfabc18b	-1.341844
8	0x3f09630a	0.53666747
9	0x3e83bcea	0.25730067
10	0xbeb60b4a	-0.35555488
11	0xbe0c6481	-0.13710214
12	0xbf97181f	-1.1804236
13	0xbf15416d	-0.58302957
14	0xbf2c22ba	-0.6724049
15	0xbf14934b	-0.5803725
16	0x3f08bbbc	0.5341146
17	0x3e0f5c52	0.14000061
18	0xbfa37069	-1.276868
19	0xbf5f07b0	-0.87121105
20	0x3de73a94	0.1129047
21	0xbf5e793d	-0.86903745
22	0x3f74d17a	0.95632136
23	0xbfb26a3a	-1.3938668
24	0xbfd339e9	-1.6502048
25	0x3e2ca114	0.16858321
26	0x3f2d14af	0.67609686
27	0xbf8cd093	-1.1001152
28	0x3f063957	0.52431244
29	0xbfdfba02	-1.747864
30	0xbebb0002	-0.36523443
31	0xbfb74cd5	-1.4320322

decoder.1.running_var f4 [32]
0	0x400dba06	2.214479
1	0x4040d313	3.012883
2	0x407aff9c	3.9218512
3	0x3f9dc8fc	1.232696
4	0x3f827692	1.0192435
5	0x4082436e	4.070731
6	0x40493f1b	3.1444767
7	0x4054dc7e	3.3259578
8	0x3ef3823b	0.47560295
9	0x3f55d52e	0.8352841
10	0x401dbcec	2.4646559
11	0x400c5440	2.1926422
12	0x40823c79	4.069882
13	0x3fdadd6a	1.709882
14	0x4025d5b8	2.5911694
15	0x3f6383fb	0.8887326
16	0x3f1cd304	0.61259484
17	0x3eef558c	0.46744955
18	0x4082ae8a	4.083806
19	0x3fa48244	1.2852254
20	0x3ec5ab2d	0.3860716
21	0x409633ee	4.693839
22	0x3faa1a54	1.3289285
23	0x40327e58	2.7889614
24	0x408ed63b	4.463651
25	0x3fcf7ae0	1.6209373
26	0x3f07758d	0.52913743
27	0x40027d14	2.0388842
28	0x3f281f36	0.65672624
29	0x407e7fbc	3.9765463
30	0x3fd42e1a	1.6576569
31	0x40aac12c	5.3360806
