models/flood_cnn_epochs_15.pth (torch, 150547 bytes, 31 tensors)

encoder.0.weight f4 [16, 2, 3, 3]
000000 a7 ae ba bd 08 2b 24 3c 57 9d f3 3b 27 15 4a 3c
       -0.091153435 0.010020025 0.007434528 0.012334145
000010 04 a2 54 3e 43 ed 8b 3d 7c 20 f0 bb 1e 84 cd 3d
       0.20764929 0.068323635 -0.007328091 0.10034965
000020 7a ac dc 3e ac 9a 7a be 3a 83 22 3e eb f7 06 3e
       0.4310034 -0.24473065 0.15870371 0.1318051
000030 b7 d5 94 3d 52 c8 0d bc eb c9 5d 3d 11 55 df 3d
       0.07267325 -0.008653717 0.054147642 0.10904897
000040 8d 69 b2 bc 25 05 ed 3e 9c 20 d1 bd ba a6 1b 3e
       -0.021778846 0.46292987 -0.10211298 0.1520032
000050 9a 18 af 3d 74 13 4d 3e 1a 1c f8 3d 68 6b 34 3e
       0.08549614 0.20026952 0.12114735 0.17619097
000060 7c da 62 3e 62 15 b6 3d 1e de cf 3e 05 8c ad bc
       0.22153658 0.08890797 0.4059915 -0.02118493
000070 e3 c0 7b 3c df 3d e8 3d 8e aa 32 3d 2d 3a da bd
       0.015365812 0.11339926 0.043619685 -0.106556274
000080 57 ce 01 3e e5 d2 17 ba 27 6d 4d 3e fa 37 fc 3d
       0.12676369 -0.00057916186 0.2006117 0.12315364
000090 e2 b8 31 be f0 ce 4f 3d 52 e2 bb bc eb 4e d7 bd
       -0.17355683 0.05073446 -0.022935066 -0.10513099
0000a0 a5 8b f4 3d 19 24 85 be 54 29 6e 3e b0 af 57 3e
       0.119406976 -0.26004103 0.23257953 0.21063113
0000b0 ba 61 4c be 0c 5d 1c bd 57 5d dc 3d 37 a4 7c 3d
       -0.19959155 -0.038174674 0.10759991 0.061680045
0000c0 c3 f0 19 3e a3 c5 5f be c6 21 f1 bd ca 4b 27 3e
       0.1503325 -0.21852736 -0.1177402 0.16337505
0000d0 b5 f6 a1 be f0 38 3b be 75 c6 1b be f7 49 2c be
       -0.31633535 -0.18283439 -0.15212424 -0.1682509
0000e0 7f 15 30 3d f9 d7 ed 3d f5 f0 9b be 35 aa 34 bd
       0.04298925 0.11613459 -0.30457273 -0.044107635
0000f0 1c d0 04 3e dc 9e a8 be ca 02 59 bd d2 20 39 3e
       0.12970012 -0.329337 -0.052981175 0.18078926
000100 55 39 11 3d 3f 7c 2b bd 09 c0 f6 3d 3b f1 67 bd
       0.035455067 -0.041866537 0.120483465 -0.05662654
000110 31 e8 8f be 6f ff 8c bd 8b f1 94 be e8 a3 8f be
       -0.28106835 -0.068846576 -0.29090533 -0.28054738
000120 94 09 b5 bc c5 df b0 3d c4 17 1f be c4 e9 a0 3c
       -0.022099294 0.08636431 -0.1553641 0.019642718
000130 6e 51 12 be 9a fc 2f be dc 28 13 be e1 6e 99 be
       -0.14288875 -0.17186204 -0.14371055 -0.29967406
000140 0b 26 73 be ee 15 76 3d e5 fb ba bd e5 9a d5 3d
       -0.23744981 0.060079508 -0.09130076 0.104299344
000150 a6 b6 95 bc 58 78 15 be 8f ad d2 3d a0 de b2 3d
       -0.01827557 -0.14596689 0.1028701 0.087338686
000160 c0 2a 88 3e 0f b9 8d bc b6 05 f4 bd 18 44 ce bd
       0.26595116 -0.017300157 -0.11915152 -0.100715816
000170 85 4f dd bb cc af 0f be 8d ae 8d be eb e3 57 3d
       -0.006753864 -0.14031905 -0.27672234 0.052707594
000180 74 72 83 be dd 14 38 be 67 3a bf 3d dc 18 40 3d
       -0.25673258 -0.17976709 0.09337311 0.046898708
000190 9b 07 3f 3d fd 01 8b be 31 d3 f7 3c db a5 71 3e
       0.046638113 -0.27149954 0.030252071 0.23598425
0001a0 78 f3 cd bc 1f a0 cc bd c6 ac 73 bd 5f 04 86 3e
       -0.025140509 -0.09991478 -0.05949094 0.2617521
0001b0 f5 6b e8 3c 38 d9 e3 bd b1 99 1a bd dd 58 c9 3d
       0.02837179 -0.111254156 -0.037744228 0.098314025
0001c0 b2 c8 1e 3e fb 52 b8 3c 30 a0 08 3e 11 6e 6a 3e
       0.15506247 0.022500506 0.13342357 0.2289355
0001d0 6c 32 92 3e 16 81 bd 3c a8 13 a5 bd d2 d5 ae 3c
       0.28554094 0.023132842 -0.0806039 0.021342192
0001e0 70 68 70 bd cf 68 0d 3e 4e c9 23 bd 44 aa 50 3e
       -0.05869335 0.13809513 -0.0399869 0.20377451
0001f0 8b 49 84 3d a4 5d 76 3e 14 1a 03 bd b0 ea 58 be
       0.0645934 0.24059159 -0.032007292 -0.21183276
000200 eb 65 d9 3d 17 6e 3a be 33 3a 5a 3e 69 fa c2 3d
       0.106151424 -0.18206058 0.21311264 0.09520418
000210 20 55 1d 3d a0 bd 66 3d f4 63 3e 3e 32 1e 17 3d
       0.03841126 0.056333184 0.18592817 0.03689403
000220 c7 9a a2 bd 13 93 00 3e a5 b3 e3 bd a7 7d 86 be
       -0.07939678 0.12556104 -0.11118249 -0.2626774
000230 05 54 84 be d4 08 2d 3e b0 47 8b be 26 24 c9 be
       -0.25845352 0.16897899 -0.2720313 -0.39285392
000240 31 eb 5d bc b4 7b b2 3d 24 b8 e8 bd e8 35 07 3e
       -0.0135448435 0.08715001 -0.11363247 0.13204157
000250 56 90 aa bc cf 88 6c be 0a cf 23 3c 20 02 2d be
       -0.020820778 -0.23099063 0.009998092 -0.16895342
000260 99 4e d2 be 15 0d 08 3e 02 74 2e 3d a6 0a 25 be
       -0.4107559 0.1328624 0.042591102 -0.16117343
000270 39 4e 2c be f9 9e 29 be 10 6a 2f be 42 01 28 3e
       -0.16826715 -0.1656455 -0.17130303 0.1640673
000280 95 0a ba bd 6c 6d 7d 3e 94 86 05 3d 7d 65 22 3e
       -0.090840496 0.24748772 0.032599047 0.15859027
000290 13 39 0f 3e 06 ab 30 bc d1 49 86 3d d9 e0 33 3e
       0.13986616 -0.010782963 0.06557048 0.17566241
0002a0 7a 74 1b 3e c3 6c 3b 3c 92 99 aa 3e 9c 7c 91 bc
       0.15181151 0.011439505 0.3332029 -0.017759614
0002b0 5f 35 40 3d 72 ff cb 3d c1 88 03 3d 4d d0 8a bd
       0.0469259 0.09960832 0.03211284 -0.067780115
0002c0 12 c3 2c 3e da 33 b3 3c 5f 62 24 3e 1e be 52 3e
       0.16871288 0.02187531 0.1605315 0.20580336
0002d0 10 c3 0f 3e 0c ea d0 bd a6 e9 51 bd ac 8e 42 3c
       0.14039254 -0.10200891 -0.051248215 0.011874836
0002e0 e7 55 db bd f5 77 89 be 1c 42 43 be 4c 70 24 3d
       -0.10709744 -0.26849332 -0.19068187 0.040146157
0002f0 0e f8 46 bd a3 5b 8d bd 78 a6 dd 3d ef 16 8a 3d
       -0.048576407 -0.06902244 0.10822767 0.067426555
000300 28 5f 8b 3d 43 d2 4d be 0c c5 51 3d 38 08 81 bd
       0.06805259 -0.2009974 0.05121331 -0.06300396
000310 f5 28 be be ff d5 a1 3d 72 0e c2 bd 22 b2 f2 bd
       -0.37140623 0.07902145 -0.094754115 -0.118503824
000320 34 8f 37 be 35 e1 0b 3c 9c a2 6a be cd bb 9b bd
       -0.17925721 0.00853758 -0.22913593 -0.076041795
000330 0e ff 6f be 59 a6 87 bd 5b 8f 9c bd e0 f5 b8 bc
       -0.2343714 -0.06623525 -0.076445304 -0.02257818
000340 7a 0f db bd fe f7 eb bc c1 24 71 3b dd a3 19 be
       -0.10696311 -0.028804775 0.0036795589 -0.15003915
000350 2e 57 5a 3e e1 3e 86 bd bf d0 d2 3d 60 cb 47 3e
       0.21322319 -0.06554962 0.102937214 0.19511175
000360 e6 99 23 bc 7b a8 5e 3d 21 e6 72 3e 85 1a d6 3d
       -0.009985423 0.054359894 0.237206 0.10454277
000370 a4 94 27 3d 88 9b 36 bd af 9b 6f be 7a b6 e1 bd
       0.04091324 -0.04458192 -0.23399232 -0.11021133
000380 59 8f e4 bd 6e 9f 33 3d 0b 08 c1 3d 50 24 1b 3e
       -0.11160154 0.043853216 0.09425362 0.15150571
000390 15 98 6e 3d 45 27 a6 bd 36 94 6a bd 87 28 bd bd
       0.058250505 -0.08112959 -0.05727025 -0.092362456
0003a0 70 26 07 be 18 c0 9f be 61 94 9a 3b 45 8e e8 bd
       -0.13198256 -0.31201243 0.004717395 -0.11355261
0003b0 a5 1f 36 be 37 e4 65 bd 61 47 63 be 0a 9b 88 be
       -0.17785509 -0.056125846 -0.22195198 -0.26680785
0003c0 57 2c 22 be b7 2c 0f be 75 22 af bd d9 ae 0c bb
       -0.15837227 -0.13981901 -0.08551494 -0.0021466522
0003d0 25 27 e8 3c fe d9 23 be e4 2b 36 3e b8 23 0c be
       0.028338978 -0.16001126 0.1779018 -0.136855
0003e0 24 f2 83 be d0 0a 35 3e 01 8a d1 bd 9e 3b ff bd
       -0.25770676 0.17679906 -0.102314 -0.12462543
0003f0 5f e5 37 bd 7e 94 07 bb 10 47 c4 3d 10 c8 09 3d
       -0.04489648 -0.0020687873 0.095838666 0.03363806

encoder.0.bias f4 [16]
000000 3b db 23 be b4 be 54 3e b7 fb 81 bd 25 e9 7e 3e
       -0.16001599 0.20775872 -0.06346839 0.24893625
000010 b1 32 2e 3e 62 cc 60 3c 49 ae 1b 3c fa 84 94 3e
       0.17011525 0.013720604 0.009502002 0.29007703
000020 7e 23 da 3d d4 09 bc 3d 35 8d 10 3e f4 3b 41 be
       0.10651301 0.09181562 0.14116366 -0.18870527
000030 b7 48 23 3e 06 08 dd bd 9b 94 ab 3c 2d 3c 6f be
       0.15945707 -0.10792546 0.020944884 -0.23362799

encoder.1.weight f4 [16]
000000 71 b3 57 3f fd 47 89 3f 18 b5 83 3f 56 29 82 3f
       0.8425818 1.0725094 1.028964 1.0168865
000010 fc d9 83 3f 74 58 84 3f a6 66 77 3f 06 17 78 3f
       1.0300899 1.0339494 0.96641004 0.9691013
000020 84 b1 86 3f 38 67 86 3f 52 24 89 3f 9b a4 80 3f
       1.0522923 1.050025 1.0714209 1.0050234
000030 1f 05 7b 3f f0 eb 88 3f 92 f5 88 3f 4b 3c 84 3f
       0.9805469 1.0697002 1.0699942 1.03309

encoder.1.bias f4 [16]
000000 3d 7a ec 3c f9 de c6 3d 5e 79 ac 38 75 b3 86 3b
       0.028866882 0.097104974 8.2242055e-05 0.0041107484
000010 b3 d0 a6 3b 8a 01 4f 3a 7a 20 d2 3d 31 c2 14 3a
       0.005090797 0.00078966527 0.10260101 0.0005674689
000020 cc 88 3c b9 7c ae fa 3d a4 3f f1 ba bf 12 67 bb
       -0.00017980038 0.122403115 -0.0018405807 -0.0035258976
000030 b5 bc 8d 3b 6b 23 fd b8 92 90 fc 3d 8d 39 eb ba
       0.004325474 -0.00012070577 0.12332262 -0.0017946229

encoder.1.running_mean f4 [16]
000000 c3 1b 23 be 7a c9 53 3e 9c c8 7b bd 2f 91 80 3e
       -0.15928559 0.20682326 -0.061470613 0.25110766
000010 ac 19 2f 3e fc db 5d 3c b1 49 23 3c 5c bb 94 3e
       0.17099637 0.013541218 0.0099663 0.29049194
000020 3f 61 da 3d 38 6b bc 3d 91 f5 0f 3e 60 59 41 be
       0.106630795 0.09200138 0.1405852 -0.1888175
000030 31 e1 23 3e 67 2f dc bd 0c 88 ac 3c 12 7a 6f be
       0.16003872 -0.10751229 0.021060966 -0.2338641

encoder.1.running_var f4 [16]
000000 94 60 9a 3f 9d b6 e1 3f 80 5b ab 3e 2d 1c a4 3f
       1.2060723 1.7633854 0.33468246 1.2821099
000010 a8 55 1f 3f f4 45 1d 3f 73 03 78 3f 6c 28 4a 3f
       0.62240076 0.61434865 0.96880263 0.7896793
000020 ba 4e 21 3f e0 45 b1 3f 76 c3 01 3f 95 d0 2d 3f
       0.6301075 1.3849449 0.50688875 0.67896396
000030 26 c6 a9 3e 06 81 c1 3f fc 7e 38 3f b3 62 2e 3e
       0.33158988 1.51175 0.7206876 0.17029838

encoder.5.weight f4 [32, 16, 3, 3]
000000 55 d1 02 be 6a 3d e2 3c 0e a3 0c 3d ec 1f c5 3c
       -0.12775166 0.027617175 0.03433519 0.024063073
000010 19 2e 8c 3d a8 5a 91 3d f6 9f 87 3d 32 52 ed 3d
       0.0684473 0.070973694 0.06622307 0.11587943
000020 03 e4 0f 3e a0 0f 3c be 81 9d 99 bd ac f8 c7 3d
       0.14051823 -0.18365335 -0.075007446 0.09764227
000030 4c 96 a4 3d 63 1c 12 3e 5a 24 d5 3d 75 3c 79 3d
       0.08036479 0.14268641 0.10407324 0.060848672
000040 b0 c8 e4 3d 1a 7e 4b 3d c4 77 15 be f1 92 24 bd
       0.111710906 0.049680807 -0.14596468 -0.040179197
000050 98 9d e4 3d 78 2f f5 bc 9e e9 c3 bd 27 a1 88 3d
       0.11162871 -0.029929861 -0.09566043 0.06671362
000060 c4 0a be 3d 13 c5 1d bd d2 78 8b bd 46 d6 57 3c
       0.09279397 -0.038518023 -0.06810154 0.013173645
000070 7f e6 cc bd 7a a0 b8 3d 00 54 89 bc c9 d3 2d 3d
       -0.10004901 0.090149835 -0.016763687 0.042438302
000080 88 d0 26 bd 5c c8 22 3d 8e 8b 0b 3d 99 21 da bc
       -0.040726215 0.03974186 0.034068637 -0.026627349
000090 44 e1 2e 3a 35 19 6d bd c2 21 be bc eb 5c 84 bd
       0.00066711404 -0.057885367 -0.023209456 -0.06463035
0000a0 cd 48 01 3c e2 6d 08 bd 08 eb 0a 3d d5 dd 9b bc
       0.007890892 -0.033307917 0.03391555 -0.019026676
0000b0 81 f0 a6 3d 46 b7 f2 bc a4 c3 1a 3d 59 b6 bb 3d
       0.08151341 -0.029628407 0.037784234 0.091656394
0000c0 8a b5 ea 3c 17 11 a3 3c 22 a9 13 3d 7f b5 2b 3d
       0.028651018 0.01990561 0.03604997 0.041921135
0000d0 1d 29 94 bb 26 61 19 3d e6 7a 6f be 29 64 fd bc
       -0.0045215026 0.037446164 -0.23386726 -0.03093155
0000e0 b5 25 b8 3c 2f be 9e 3d c5 d9 e5 3d d6 f1 8b 3d
       0.022478918 0.077511184 0.11223177 0.06833236
0000f0 1e f0 b3 3d a5 c6 14 3d fe 8d a4 3d 5c b8 ea bc
       0.08786033 0.036322255 0.08034895 -0.028652363
000100 a9 b2 00 bd eb 3a 96 bc 93 a2 cc bb 89 65 ae 3d
       -0.031420384 -0.018338641 -0.0062449663 0.0851546
000110 52 98 ea 3d e6 1e 40 bc 64 46 ec 3b 0d 9c 0c 3c
       0.11454834 -0.011726117 0.0072105397 0.008582127
000120 f9 5c 88 3c 42 a1 88 bd 3f 7b 41 bc b4 2e 3f bd
       0.016645895 -0.066713825 -0.011809169 -0.0466754
000130 b4 1f bf bd c0 94 77 bd 1b e4 c6 3c b5 f5 5b bc
       -0.09332219 -0.060444593 0.024278691 -0.01342528
000140 e3 cf 17 3c 9e bc 37 be 7e 9a fd bc 94 49 fa 3c
       0.009265873 -0.17943045 -0.030957457 0.030552663
000150 0b f1 7f 3d 24 8b 49 3e f8 c7 76 3e 0a 65 70 3d
       0.062485736 0.19681984 0.2409972 0.05869011
000160 0a 36 3f 3e cb 13 23 3e cc b3 93 bd dc ee a1 bc
       0.18672958 0.15925519 -0.07212028 -0.019767217
000170 34 54 2e 3b bc 71 2a 3d 1a c4 8b 3c 21 61 5d 3d
       0.0026600482 0.04161237 0.017061282 0.054047707
000180 40 ff e3 bc c7 ac 9c 3c 7e de 68 3c c3 d0 1c ba
       -0.027831674 0.019125355 0.0142132025 -0.00059820357
000190 af 51 d0 3d 53 b1 11 bd 56 9f 07 3c b2 86 8e 3d
       0.1017183 -0.0355695 0.008277735 0.06959285
0001a0 08 57 8a bb 1a 62 35 bd 11 84 df 3d 72 2f 7a bc
       -0.0042218007 -0.04428301 0.109138615 -0.015270101
0001b0 4a 2d f5 bd 65 69 a9 3c 80 12 17 bc 2f ba aa bd
       -0.11971529 0.020680139 -0.009220719 -0.08336293
0001c0 9c 3d 9f bd 0c bd ed bc e5 0c 6c 3d 8a f9 a9 3d
       -0.07775423 -0.029020809 0.057629485 0.08299549
0001d0 43 f1 57 3c b3 88 36 bd 5e b0 10 bd 94 5c ed 3c
       0.01318008 -0.04456396 -0.035324447 0.028974809
0001e0 95 db ca bb fd e9 af bc 9c 54 18 3d 04 09 99 3d
       -0.006190727 -0.021473879 0.037190065 0.07472423
0001f0 9a 48 2c bd 53 06 30 3d 22 4f b1 bd 59 75 2c bd
       -0.042061426 0.04297478 -0.086576715 -0.0421041
000200 a6 7e 3c 3d 45 0e c1 bd 6f bd 05 3d ef 02 4c 3e
       0.04601922 -0.0942655 0.03265136 0.19922994
000210 ab e5 e6 bc 0a 55 c7 3a 86 c2 04 3e c0 55 8d bd
       -0.028185686 0.0015207839 0.1296483 -0.06901121
000220 cd f5 bd bd c9 99 68 3d 0c 71 42 bd b3 c2 61 bd
       -0.092753984 0.056787286 -0.04747109 -0.05511732
000230 a0 a6 a9 3d 85 f2 57 bc d3 c1 74 bd a7 1b 04 3a
       0.08283734 -0.01318038 -0.059755158 0.0005039521
000240 d3 27 7c bc e5 65 af bc 7a 21 aa 3d df 3d f6 bc
       -0.015390354 -0.021410892 0.083071664 -0.0300588
000250 1e 10 32 bd b0 86 42 3d 40 63 e7 38 37 27 ef bc
       -0.0434724 0.04749173 0.00011033425 -0.029193504
000260 2a 5b 89 3d ad 2c 01 bd ac 5f 6e be e9 98 67 be
       0.06706841 -0.031536747 -0.23278683 -0.22616924
000270 ca ec 32 be fe 53 d7 bd 0c ea fa bd 1a 36 d7 bc
       -0.1747314 -0.10514067 -0.12251672 -0.026270915
000280 e0 ec a8 bc b8 9d 33 3b 35 94 87 3d 01 4d a6 3c
       -0.020620763 0.002740724 0.06620065 0.02030039
000290 79 d3 5f 3d 3c d1 51 3d ca 2b 86 3c 31 6a 37 3e
       0.054645035 0.051224932 0.016378302 0.17911603
0002a0 5f 4f e2 bc 56 62 b8 3b 58 e2 b6 3d b6 dc 50 bd
       -0.027625738 0.005626957 0.089298904 -0.050991736
0002b0 9f 2d 11 3d 4e ca 5c 3c 6a 5c 97 3d a1 49 0f 3d
       0.0354439 0.013475968 0.073906735 0.034982327
0002c0 7f ac 26 bc b1 5d d7 3c 03 cb 87 3d b7 d7 63 3e
       -0.010172962 0.026289793 0.06630518 0.22250257
0002d0 8f c5 94 bd a2 22 eb bc c6 a4 ec bc ee ca 8e 3c
       -0.07264244 -0.028703038 -0.028887164 0.017430749
0002e0 73 c4 eb 3c 61 15 a9 3d 88 6e 47 3d 05 29 06 3e
       0.028780198 0.08256031 0.048689395 0.13101585
0002f0 b2 58 2d 3e da 2e 90 bd 45 8c 08 be c3 09 79 3d
       0.16928366 -0.07040186 -0.13334759 0.060800325
000300 07 4a fd 3b fa ad 66 bc f1 f0 32 3d 22 90 17 3d
       0.007729772 -0.014079565 0.04368681 0.03700269
000310 90 68 03 3e a3 31 93 3d e2 01 3a be e6 32 40 be
       0.12832856 0.07187202 -0.1816478 -0.18769416
000320 df 00 ac bd e8 d0 18 be ba 15 98 bd 7f 22 af bd
       -0.08398604 -0.14923441 -0.07426019 -0.085515015
000330 8d 80 30 be af 83 b1 bd ee 37 30 3d 6a 8d 55 3d
       -0.17236538 -0.08667695 0.04302209 0.052136816
000340 44 34 34 3c ab 1b 95 3d 63 bf 18 3d 80 ae be bc
       0.010998789 0.07280668 0.037291896 -0.023276567
000350 88 e9 48 3d b0 b6 7d 3d 9f b7 3f 3a 02 b7 e7 3d
       0.049050838 0.061941803 0.00073134335 0.11314203
000360 e7 33 55 bd bd fa 9e 3b 04 a0 b4 3d f7 3f 25 3d
       -0.05205145 0.0048516677 0.08819583 0.040344205
000370 a4 dd 24 bd b1 2c 58 3d 00 3a ff 3b f6 e5 ae 3d
       -0.040250435 0.052776996 0.0077888966 0.08539955
000380 2a db 3c 3e 39 31 f8 bd 9e 10 2f be e6 86 40 bd
       0.1844298 -0.121187635 -0.17096183 -0.04700365
000390 66 81 db 3c 9a 2a 20 be 8a 9f b9 bd 67 c5 96 bd
       0.0267951 -0.15641251 -0.09063633 -0.0736187
0003a0 12 3a 31 3d 21 66 50 bd bd ad a5 3c de fc 86 bc
       0.04326827 -0.050878648 0.020224446 -0.016477998
0003b0 c5 f1 18 3e 8c 28 86 bd f2 97 07 3d e9 d1 f7 bb
       0.14935978 -0.065507025 0.03310389 -0.007562865
0003c0 e6 a8 0e bc e8 d7 45 3d 4a 18 b7 3d c8 f8 d8 bd
       -0.008707261 0.048301607 0.0894018 -0.10594326
0003d0 0f a8 00 3d 8a 3d 80 bd 07 4e 98 bc 3a 3a 77 bd
       0.031410273 -0.06261738 -0.018591894 -0.060358264
0003e0 e7 3b 5c 3d 7c 5f dd 3d 71 aa 91 3d 1a 05 e7 bc
       0.053768065 0.10809228 0.07112587 -0.028200675
0003f0 48 cf 11 bd f4 fa b2 3d 60 55 ad 3d 55 e8 64 bd
       -0.03559807 0.08739272 0.084635496 -0.05588563

encoder.5.bias f4 [32]
000000 40 60 4e bd 2d 3d d8 3c a3 7c 95 ba 21 90 87 3c
       -0.05038476 0.026396358 -0.0011404942 0.016548218
000010 bc 9d fc 3a 1a a9 69 bd 1f 21 5b bd 5b 73 2a bb
       0.0019273083 -0.057046033 -0.053498384 -0.0026008699
000020 e4 81 88 bd 7f 41 8f 3c fa e3 a7 3b 09 11 c6 bc
       -0.066654 0.017487286 0.0051236125 -0.024178045
000030 51 70 d4 3c 61 ed 90 3d 0e 1e 40 3d 82 4f 96 bd
       0.025932463 0.070765264 0.046903662 -0.07339384
000040 3b c4 19 bd 73 b4 3a bd 1d 1f a8 3d ea 8b 32 3d
       -0.037540656 -0.045582246 0.082090594 0.043590464
000050 ea 93 88 bd 5f c2 41 3d 48 62 ce bc 08 3e bf bd
       -0.06668837 0.047304507 -0.025193349 -0.093380034
000060 b2 7e 10 3b 96 ad 90 bd 2f 64 77 bc 87 f3 c6 3b
       0.0022048173 -0.07064359 -0.015099569 0.006071511
000070 a5 2f 01 bb 9f ab af bd d1 69 3e 3b 50 59 3f bd
       -0.0019712236 -0.08577656 0.002905477 -0.046716034

encoder.6.weight f4 [32]
000000 db 09 3f 3f 9f 6d 7d 3f e3 26 46 3f 16 c7 42 3f
       0.74624413 0.98995394 0.77403086 0.7608503
000010 c3 f6 64 3f 5b cb 41 3f b6 b0 71 3f d6 29 44 3f
       0.8943903 0.7570092 0.94410264 0.76626337
000020 36 c1 7c 3f 69 22 37 3f 0e 14 36 3f 56 21 48 3f
       0.98732316 0.7153688 0.7112435 0.78175867
000030 5b ae 74 3f 17 17 72 3f b7 1c 3f 3f 72 34 64 3f
       0.95578545 0.9456648 0.7465319 0.89142525
000040 82 ff 54 3f d0 d6 4d 3f 04 0a 4a 3f 16 9c 40 3f
       0.83202374 0.804059 0.7892153 0.7523817
000050 1f eb 50 3f 36 bf 47 3f a1 25 36 3f 3c 30 49 3f
       0.81608766 0.7802614 0.7115117 0.78589225
000060 66 b5 48 3f c4 3e 4b 3f c8 b7 3d 3f 7f 55 51 3f
       0.7840179 0.7939265 0.7410855 0.8177108
000070 b6 06 36 3f 87 ab 51 3f e8 9c 6c 3f 91 2f 32 3f
       0.7110399 0.81902355 0.9242692 0.6960383

encoder.6.bias f4 [32]
000000 7e 1f e3 3d ff 0b fe 3c ad a8 1a 3e 7b 2e 08 3e
       0.11089991 0.03101158 0.15103407 0.13298981
000010 64 03 43 3e ba 1b 20 3e c0 45 fd 3d 23 db 27 bf
       0.19044262 0.15635577 0.123668194 -0.6556875
000020 0e b4 e8 3d 77 34 21 3e aa c2 30 be 5d b7 27 3e
       0.11362468 0.1574267 -0.17261758 0.16378541
000030 e6 30 da 3d 90 3d c6 3d 51 e8 2e bf 26 1f c4 3d
       0.10653858 0.09679711 -0.68323237 0.095762536
000040 5e 49 08 3e f7 52 92 3d 87 e2 f6 be c6 f3 11 be
       0.13309237 0.071447305 -0.48219702 -0.14253148
000050 ef a3 5d 3d 38 45 27 bf 7c c1 30 be f2 6b 1e bf
       0.054111417 -0.65339994 -0.17261308 -0.6188346
000060 df da 0d bf 5e 60 69 3e 32 4e 0f 3e 3c 01 e8 3d
       -0.55412096 0.22790667 0.13994673 0.113283604
000070 0f a9 0d 3d 52 62 9c 3d 34 69 fc 3d 01 07 1f 3e
       0.034585055 0.076359406 0.123247534 0.15530016

encoder.6.running_mean f4 [32]
000000 64 16 3f 3f 94 bc b3 be 54 31 96 3e 31 de 3b 3f
       0.7464354 -0.3510481 0.2933451 0.7338591
000010 be c4 fe 3d 9b 1b 09 3f 7c 5a 60 3c 51 ec 82 c0
       0.12439869 0.5355775 0.013693448 -4.091347
000020 2c b7 9e bd dc ad b4 3e 85 d2 1c 40 7a 2b 98 3e
       -0.07749781 0.35288894 2.450349 0.2972067
000030 88 07 9d be 87 22 15 3d 61 c5 8b c0 b2 14 85 be
       -0.30669808 0.03640988 -4.367844 -0.25992352
000040 b7 3d 38 3f 41 00 d5 3d 5d 38 75 c0 d0 0f 1a 40
       0.7196917 0.10400439 -3.8315651 2.407215
000050 f9 35 ae 3e 60 58 80 c0 92 64 1b 40 aa 2e 92 c0
       0.34025553 -4.010788 2.4280133 -4.5681963
000060 d6 3c 81 c0 c8 ff db 3d b3 0d 66 3f 2b 1d 18 3f
       -4.0386763 0.10742146 0.89864653 0.59419507
000070 bb b6 8a 3e 80 b2 ba 3e 17 fd fc 3d 16 06 3d 3f
       0.27092537 0.3646431 0.123529606 0.7383741

encoder.6.running_var f4 [32]
000000 5a 26 03 41 43 6e 62 41 14 5a 92 40 b5 a8 94 40
       8.196863 14.151919 4.573496 4.645594
000010 98 ef bd 40 c1 d6 e5 40 2b 24 9a 40 1e a0 69 41
       5.9354973 7.182465 4.816915 14.601591
000020 d9 b2 c6 40 8c d9 9e 40 e4 7d e2 40 45 0d 77 40
       6.209332 4.964056 7.0778675 3.860185
000030 51 dd 36 41 64 3e fd 40 03 47 85 41 4f 46 bc 40
       11.429032 7.913866 16.659674 5.8835826
000040 3b d7 c2 40 63 16 bd 40 ac 12 64 41 1c 6f 02 41
       6.0887733 5.9089828 14.254559 8.152126
000050 fa 5e 00 41 14 2f 76 41 47 82 c6 40 2c ee 81 41
       8.023188 15.386494 6.203403 16.241295
000060 2d 7f 84 41 94 3d 3f 40 1b b0 2a 41 96 0e c4 40
       16.562098 2.9881334 10.6679945 6.1267805
000070 36 cd f7 40 6a 9f f7 40 4a b1 e0 40 dd 17 a3 40
       7.7438 7.7382097 7.0216417 5.096663

encoder.10.weight f4 [64, 32, 3, 3]
000000 b9 dd 63 bc 55 9b d8 bc d0 a7 ff bb 89 2c 47 bc
       -0.013907843 -0.026441256 -0.007801987 -0.012156614
000010 fb 15 f0 3b b9 15 ce 3c cf 7d 56 3c a3 93 0a bd
       0.007326839 0.025156843 0.013091519 -0.033832204
000020 a9 24 ba ba ca 5a 11 3e 08 42 ea 3c ea cf 8d bd
       -0.0014201599 0.1419479 0.02859594 -0.06924422
000030 af 29 64 3d 5e 22 87 bb bf 75 3a bd bf b0 7b bb
       0.055703815 -0.00412397 -0.045522448 -0.003840491
000040 b6 73 3c bd 3a 19 5f be e0 bd 65 3d 0e f5 10 bc
       -0.046008788 -0.21786967 0.056089282 -0.008847488
000050 82 01 0a 3d 7b a9 b6 3b a8 b8 99 3b 91 6e 98 3b
       0.033692844 0.005574403 0.004691202 0.0046518524
000060 76 01 1c 3c 1b 31 a8 bc e1 e3 98 bd 23 05 dc bc
       0.009521833 -0.020531228 -0.074653395 -0.026857918
000070 c2 60 e7 bb 63 4e 4d bd 06 47 11 bd 08 c1 06 bd
       -0.007061095 -0.050123584 -0.035468124 -0.032898933
000080 4c 35 99 bd 53 bc c0 bb 0d c7 af bd 86 56 ba bd
       -0.07480869 -0.005881825 -0.08582888 -0.09098534
000090 0c ff ec 3d f7 a3 ec 3c fa 46 8a bd 83 0a 6b 3d
       0.11572084 0.028886778 -0.06751819 0.05738307
0000a0 fe 99 02 bd 88 73 a7 bd 65 35 4d bd a0 ec b8 bd
       -0.03188514 -0.08176333 -0.05009975 -0.09029508
0000b0 14 cb 71 be 52 a6 ca bb 79 99 f0 bb 5a e8 c5 3c
       -0.23612624 -0.0061843777 -0.007342514 0.024158645
0000c0 cc 4b ec 3b 1d 70 78 bc a3 18 fd bc d6 62 02 bc
       0.007211184 -0.015163449 -0.030895537 -0.007958135
0000d0 0e 84 52 bd 9f c6 97 bd 5b 1f a0 3d da 48 3e 3d
       -0.05139547 -0.07410931 0.078184806 0.046456195
0000e0 5b 52 36 bd a5 db 4f 3d 8d b5 ff ba ce 68 dc bd
       -0.044512134 0.05074658 -0.0019509062 -0.107621774
0000f0 5f 00 46 3d 00 91 e1 bc 7f be 4d be 02 05 bf 3d
       0.048340198 -0.027534962 -0.200922 0.09327127
000100 21 27 02 3e 20 a0 43 3e bf ef d3 3d 70 a9 16 3e
       0.12710239 0.19104052 0.10348462 0.14713073
000110 9b cd 76 3e fb 95 39 3e 34 47 83 3e 67 32 97 3e
       0.2410187 0.1812362 0.2564026 0.2953064
000120 75 a5 b1 3d 01 9e 88 3c 33 d9 f6 bb d8 36 76 3d
       0.086741365 0.016676905 -0.0075332164 0.060110897
000130 b1 c9 8d 3c 3e 72 d1 bd f4 c0 ae bc 52 36 39 bd
       0.017308088 -0.10226868 -0.021332242 -0.04521782
000140 14 87 48 be 1f fb ab 3c b9 34 90 3a f2 f9 ef bc
       -0.19582778 0.020993767 0.0011002041 -0.029293988
000150 6e ca cb bb a6 15 50 3c 86 9c 8d bc d5 ad 08 3c
       -0.0062192 0.012700474 -0.01728655 0.008342226
000160 00 58 90 bc 0f 62 f6 bc 47 85 04 3c 1e 29 25 bd
       -0.017620087 -0.030076055 0.008088416 -0.040322416
000170 e6 f4 96 3c f8 ca 15 bd 22 fa c4 bc 66 95 be 3c
       0.018427324 -0.03657052 -0.024045054 0.023264598
000180 a5 15 18 bc 5e 42 bc 3c 94 92 13 3d ae 8c 58 3d
       -0.009282504 0.022980865 0.03602846 0.052868538
000190 f2 f4 fe 3c 04 76 80 3c b5 98 2c 3d 25 82 59 bc
       0.031122658 0.015681274 0.04213782 -0.013275658
0001a0 cc 89 57 3c b9 ec 3c bc b3 2d 22 3b 11 b7 d7 bd
       0.013155412 -0.011531048 0.0024746477 -0.10532964
0001b0 ea f8 01 3e 51 44 53 3c b4 39 bc bd 10 59 58 3d
       0.1269261 0.012894706 -0.091906935 0.05281931
0001c0 ff 17 a5 3c d4 09 17 be 68 5b 0e bb 64 ce 3d bd
       0.020153044 -0.14749843 -0.0021721963 -0.046339408
0001d0 24 a0 4d be a3 87 b0 3d 7a 74 7c 3d 9c da d9 bc
       -0.2008062 0.08619621 0.06163452 -0.026593499
0001e0 a0 d8 3a 3b f8 06 85 3c a1 33 49 bd 03 fc ca ba
       0.0028510466 0.016238675 -0.049121503 -0.0015486482
0001f0 4e c1 7d bc c3 c7 b8 bd a2 f3 28 3d 02 e5 0f 3e
       -0.015487982 -0.090224765 0.04124797 0.14052203
000200 22 7f 29 3e cb 86 d9 3d 77 6e 0e 3e 9f b8 41 3e
       0.16552404 0.10621413 0.13909326 0.18918084
000210 39 f8 52 3e 16 f8 53 3e 46 5f a1 3e 1c ab 89 bc
       0.20602502 0.20700106 0.31518 -0.016805224
000220 14 66 3a bd ba 82 5b 3a 8e 44 1e bd 71 4c 55 bd
       -0.045507506 0.0008373667 -0.038639598 -0.052074853
000230 5e a9 2f bd e9 60 c9 3b 47 72 ef 3b 1b 20 5b bd
       -0.04288613 0.006145586 0.007307324 -0.053497415
000240 16 5d 83 bb aa 22 8a 3d 7e ba 45 3d 5f 42 12 3d
       -0.0040088994 0.06744893 0.048273556 0.035707828
000250 bf f8 24 3c 3c 41 2e bc 9f 03 ae 3c 2a d0 fb 3b
       0.010069071 -0.01063567 0.021241961 0.007684727
000260 2b 0d f5 bb 65 39 95 bc 5b bf 8a 3c 15 a5 a1 3c
       -0.0074783764 -0.018215844 0.016936949 0.019732038
000270 73 11 b2 3c ae 1f 8e 3b 41 cd 39 bd fb 7f 20 3c
       0.021736836 0.0043372726 -0.04536176 0.009796138
000280 9c 31 9b bd 73 2d 6f bd dc 0c 7e 3c d5 a4 cc 3c
       -0.075778216 -0.058392953 0.015505996 0.024980942
000290 5f c0 c3 3d cb 30 2b 3d 1e 6d 00 3d 19 ba e5 3d
       0.09558176 0.04179458 0.031354062 0.11217136
0002a0 68 0f db 3d 96 21 6b 3d 24 de b7 3d 9d 9b e4 bc
       0.10696298 0.057405077 0.08977917 -0.027906233
0002b0 31 04 a0 3c 6b 1a d2 3c 2e 7e 61 3c 1f a9 21 bc
       0.019533249 0.025647363 0.013762994 -0.009866982
0002c0 df 0e 53 bd 8e c2 42 3c a5 06 0b bd e0 c4 b0 bd
       -0.051527854 0.011887206 -0.033941884 -0.08631301
0002d0 e4 0c 97 3c c2 bd b0 3b f3 74 14 bc ef 6a 22 bd
       0.018438764 0.0053937146 -0.009061086 -0.03965276
0002e0 91 bf e6 bc 19 19 37 3c 83 32 64 bc 3b af 8b bc
       -0.028167518 0.011175417 -0.013928059 -0.01705133
0002f0 73 12 82 bc 5a 90 4d 3d e4 8b 08 3e 78 aa 77 3e
       -0.015877938 0.050186493 0.13334614 0.24186122
000300 2a 1d 11 3e 45 cc d8 3d 44 4f 5f 3e 06 c6 1b 3e
       0.14171281 0.10585836 0.21807581 0.15212259
000310 8d b8 3a 3e 37 89 a5 3e 7f 40 01 3d 66 a6 d6 bc
       0.18234463 0.3233125 0.03155565 -0.026202392
000320 a8 59 2c 3d 81 e1 1e bb 41 31 42 bd 57 c2 a3 3c
       0.04207769 -0.0024243298 -0.047410253 0.01999013
000330 f7 26 18 3d 85 0d 88 3b de e3 42 3d e9 7b 0e 3d
       0.037146535 0.0041520023 0.047580592 0.03478614
000340 e2 4a 08 3e e1 cc 42 3e 17 4e cd 3d cc 85 f5 3d
       0.13309816 0.19023468 0.1002466 0.1198841
000350 e9 29 4b 3e e4 df 30 3e b1 a5 51 3e a1 4a 89 3e
       0.19840206 0.17272907 0.20473363 0.2681475
000360 b2 75 77 3c ef ba 8c 3c 04 ee a5 3d 6c 26 6d 3d
       0.015103744 0.01717898 0.081020385 0.05789797
000370 30 47 2c 3d cb 65 9f 3d 10 ec ac 3d 75 a4 be 3d
       0.042060077 0.07783087 0.08443463 0.093087114
000380 18 3c 2d 3e e8 f3 bd 3d df 85 9a 3d 46 15 44 bc
       0.16917455 0.09275037 0.07545065 -0.011967963
000390 a7 0f 23 3d b9 1a 2e 3d bd 28 38 bd 86 d0 57 3d
       0.03980985 0.042505953 -0.044960726 0.052689098
0003a0 96 5d c7 bc 3d 75 29 be a6 e6 5f bc 80 8f 1c bd
       -0.024336617 -0.16548629 -0.013665831 -0.03822279
0003b0 28 35 00 bd 69 f0 42 bc c0 f3 a4 3b 17 e5 3e bd
       -0.031300694 -0.011898139 0.00503394 -0.046605196
0003c0 06 0d 4f 3c 59 ce a5 bc b5 85 19 bd 0a 11 a5 3c
       0.012637382 -0.020239996 -0.03748103 0.020149726
0003d0 e7 3c 4f 3d 58 a7 e6 3b b8 0c 0e 3d 28 9b 9f 3c
       0.05059519 0.007038992 0.0346801 0.019483164
0003e0 e6 79 af bc 99 2a b9 3c 96 59 f1 3c 4a bb 7a bd
       -0.02142043 0.02260332 0.029461663 -0.06121377
0003f0 0f ff a5 3c 79 65 6c 3b ec f5 e7 3c 1d b1 23 bd
       0.020263223 0.0036071225 0.028315507 -0.03996383

encoder.10.bias f4 [64]
000000 4b ee 92 3a ab 5f ca 39 4f 29 4d 3d 7e c2 a1 bb
       0.0011209933 0.0003859972 0.050088223 -0.0049365154
000010 3d 17 07 3b d4 3b 2d 3d 71 98 89 3b e5 e1 24 3d
       0.0020613216 0.042293385 0.0041990806 0.040254492
000020 ec 4a 95 bc 72 eb 55 3d d9 23 95 bc 19 d1 2d 3d
       -0.018224202 0.05222649 -0.01820557 0.04243574
000030 20 5c 03 3d 70 59 c9 3c a4 30 84 3a 8a ac 2a 3d
       0.03207028 0.02457878 0.0010085297 0.041668452
000040 18 f1 6d bd ed f0 64 3d 3d 03 37 bd 31 d2 21 bd
       -0.058091253 0.055893827 -0.044680823 -0.039507095
000050 17 ed 47 3d 14 9c 4a 3d 68 17 32 3c de 5d 58 3d
       0.04881009 0.049465254 0.010869838 0.052823894
000060 60 68 12 bd 43 0f 12 3d e2 9a 6a 3d 37 94 8d 3c
       -0.03574407 0.035659086 0.057276614 0.017282588
000070 2f 07 e2 bc 3b ce 05 bd 82 02 ce bc 39 58 cc 3c
       -0.027591316 -0.03266738 -0.02514768 0.024944412
000080 6f 18 c0 bc 0c c1 53 bd 2d 5e 3f 3d c4 aa 82 3d
       -0.02344915 -0.051697776 0.046720672 0.06380227
000090 88 2a d7 3c d4 f4 be 3c f8 3f c3 3c 66 d4 7b bd
       0.026265398 0.023310103 0.023834214 -0.061481856
0000a0 e2 12 c0 bc 80 40 ba bc 3c 46 30 3b 03 5d a3 3c
       -0.023446504 -0.022735834 0.0026897332 0.019941812
0000b0 bf 92 5b bd 9a 54 a7 3c 65 fb 06 3d cb cb 09 3d
       -0.053606745 0.020426083 0.032954592 0.033641618
0000c0 2e b4 4b b8 b4 0f 07 bd 2e 81 16 3d 62 32 a3 bc
       -4.8566777e-05 -0.03297396 0.03674429 -0.019921485
0000d0 7e 17 7d 3c cf 2e 29 3d d8 98 0d 3c ac 4c cd bc
       0.0154474955 0.041304406 0.008642398 -0.025060974
0000e0 a7 54 06 3d e5 9d b8 3c 20 35 62 3d 62 b1 04 bd
       0.032795575 0.022536227 0.055226445 -0.032395728
0000f0 54 11 42 3d a7 11 84 3a fb f9 07 bd 55 80 53 bd
       0.047379807 0.0010076062 -0.033197384 -0.05163606

encoder.11.weight f4 [64]
000000 71 b7 6b 3f 64 b2 56 3f 96 b8 83 3f 83 ec 56 3f
       0.92076784 0.8386595 1.0290706 0.8395464
000010 fd 01 70 3f 68 e6 5e 3f 93 3a 7c 3f d2 36 6e 3f
       0.93753034 0.8707032 0.9852688 0.930524
000020 dc 39 61 3f c8 90 6b 3f ae 60 72 3f 9f 90 76 3f
       0.8797891 0.92017794 0.9467877 0.96314424
000030 0f c1 67 3f d1 49 75 3f f8 68 61 3f 2d c6 74 3f
       0.9052896 0.9581576 0.88050795 0.9561489
000040 ea 94 74 3f 9b 49 55 3f 83 f8 62 3f 1b 89 6f 3f
       0.95539725 0.8331544 0.8866045 0.9356858
000050 05 a3 6f 3f 86 70 6b 3f ee 10 6d 3f 9f b6 60 3f
       0.93608123 0.9196857 0.9260396 0.8777866
000060 07 0a 6d 3f db 06 6a 3f 9f 8e 5f 3f 95 ed 71 3f
       0.92593426 0.9141671 0.87327 0.94503146
000070 9e 85 87 3f 1c e9 74 3f ec 3f 60 3f 65 38 6d 3f
       1.0587652 0.95668197 0.8759754 0.92664176
000080 89 22 66 3f 84 80 80 3f 64 ad 61 3f 2a 80 7d 3f
       0.89896446 1.003922 0.881552 0.9902369
000090 1a 00 77 3f 5f e9 65 3f bc 08 81 3f dd dc 6b 3f
       0.9648453 0.8980922 1.008079 0.92133886
0000a0 3d 08 6f 3f e0 c5 5b 3f c5 09 69 3f 1a 45 7a 3f
       0.93371946 0.8584881 0.9103053 0.9776169
0000b0 2b e3 6f 3f 1a 4a 5b 3f d2 36 78 3f 2c 74 63 3f
       0.93706006 0.85659945 0.9695865 0.8884914
0000c0 c6 ec 5a 3f 53 28 68 3f 69 aa 73 3f 1c f0 77 3f
       0.8551754 0.9068653 0.951819 0.9685075
0000d0 be 66 54 3f 7b 0f 81 3f 30 58 70 3f fb b6 7b 3f
       0.8296927 1.0082849 0.93884563 0.9832608
0000e0 c2 76 73 3f 56 e0 61 3f 73 7b 8c 3f ca 25 69 3f
       0.95103085 0.88232934 1.0975174 0.91073287
0000f0 1f 29 67 3f 4c f3 61 3f 21 b2 73 3f a5 af 71 3f
       0.9029712 0.88261867 0.9519368 0.9440864

encoder.11.bias f4 [64]
000000 30 f8 bd be 48 5b ad 3d f4 86 09 be 11 58 52 be
       -0.37103415 0.08464676 -0.13430387 -0.20541407
000010 ae 7d 3f be 15 3c 9c 3d c4 66 4f 3d 18 e3 89 bd
       -0.18700287 0.07628647 0.050635114 -0.06732768
000020 40 ae 6a 3e 46 59 21 3e 83 4b 49 3e 61 8a ca be
       0.22918034 0.15756711 0.19657712 -0.395587
000030 7b 38 55 be 00 fc 16 ba 80 2f 99 3d 9c 17 65 3e
       -0.20822327 -0.0005759597 0.07479763 0.22372288
000040 cf 59 d4 bd 74 74 81 ba c2 63 ea 3d 58 4e 16 be
       -0.10368692 -0.0009876625 0.114448085 -0.14678323
000050 4f 4f 5a be 69 ce 3b 3e 96 c5 f9 3d 37 15 21 3e
       -0.21319316 0.18340458 0.1219589 0.15730749
000060 ae 60 db be 4b 30 97 be cd ef 97 be 16 5a 41 bd
       -0.42847198 -0.29529032 -0.2967514 -0.047205053
000070 68 07 5d 3e 34 ab 68 3e 2a 5f 00 3e da 46 12 bf
       0.21584857 0.22721559 0.12536302 -0.5713936
000080 35 48 58 3e b1 31 33 3e ad ca d9 be 0f 78 46 be
       0.21121295 0.17499425 -0.42537442 -0.19381736
000090 c1 88 a3 be de 72 80 be 1c 9e 15 3e 51 8d d1 be
       -0.31940272 -0.25087637 0.14611095 -0.40928128
0000a0 26 e0 c4 be e8 d4 6c 3e d6 19 0f 3e 3c 44 aa be
       -0.38452262 0.23128092 0.139747 -0.33255184
0000b0 3c e8 c6 be 85 08 16 be 83 c5 41 3e ab 15 ca 3d
       -0.38849056 -0.14651687 0.18923001 0.09867414
0000c0 b4 25 23 3e 46 4d 17 be ac b8 67 be fd d9 00 bf
       0.15932351 -0.14775571 -0.2262904 -0.50332624
0000d0 97 da d9 3d 6e ac 04 bf d6 30 cf be 13 0f c1 be
       0.10637396 -0.51825607 -0.40466946 -0.37706813
0000e0 04 aa bc bd 44 23 86 3e 2b bd 37 3e f2 60 3b 3e
       -0.092121154 0.2619878 0.17943256 0.182987
0000f0 50 83 ee 3d e5 c5 6b 3e ab 5c 84 be 10 07 e2 3c
       0.116461396 0.2302471 -0.2585195 0.027591258

encoder.11.running_mean f4 [64]
000000 98 87 50 bf 1a 4f 71 3e e7 2b af be 3e ab fc 3f
       -0.814569 0.23565331 -0.34213182 1.9739759
000010 80 98 04 3e d2 84 95 3f 31 76 63 3f d2 e6 d5 3f
       0.12948799 1.1681159 0.8885222 1.6711066
000020 57 93 79 3f 19 15 98 3f 5e 5f 9c 3f 73 8e 9a bf
       0.9749045 1.1881438 1.2216604 -1.2074722
000030 d4 58 4a 3f 0c a6 1e 3c 98 5c 9b 3f f2 cf 91 3f
       0.7904179 0.009683143 1.2137632 1.1391585
000040 62 17 18 bf f9 5b 99 3f 5d 21 04 40 c3 52 d5 be
       -0.5941068 1.1981193 2.0645363 -0.41664705
000050 f2 f6 9d 3f 85 c0 0f 3e c1 af e0 be d7 42 a7 3f
       1.2340987 0.14038284 -0.4388409 1.3067273
000060 b7 11 d9 bf 00 b8 e5 bf 0d dc cc bf 0a e2 4f bf
       -1.6958531 -1.7946777 -1.6004654 -0.81204283
000070 f0 5c 02 3f 97 da cf 3e c0 8c 05 40 7f 85 e6 bf
       0.5092306 0.40596458 2.0867157 -1.800949
000080 15 24 a6 3e 42 6b ac 3f 6e cb 9c bf 4e 68 86 bf
       0.32449403 1.3470232 -1.2249582 -1.0500581
000090 37 82 99 bf 06 62 1e c0 7d 07 7c 3f c9 5f d5 bf
       -1.1992863 -2.4747329 0.98448926 -1.6669856
0000a0 2d 42 6e bf 61 be ae 3f 09 78 0b 40 94 8d 2c bf
       -0.93069726 1.3651849 2.1792014 -0.6740353
0000b0 12 87 cf bf 34 ec 36 c0 18 10 82 3f 9b 31 97 3f
       -1.6213095 -2.8581667 1.0161161 1.1812013
0000c0 f4 79 1a 3f ca e2 fc be 50 c9 54 3f 3a ac bb bf
       0.60342336 -0.49391776 0.8311968 -1.4661934
0000d0 05 2f 89 3f 8b ec a7 bf 86 58 d5 bf d0 00 b0 bf
       1.0717474 -1.3119062 -1.666764 -1.3750248
0000e0 8d 9d 23 40 ed a9 02 40 1c ef a1 bc 0c c0 cb 3f
       2.5564911 2.0416214 -0.019767337 1.5917983
0000f0 01 d7 1f 40 3e 5e d9 3f a9 1e de be b5 fb f6 3f
       2.4974978 1.6981885 -0.43382767 1.9295565

encoder.11.running_var f4 [64]
000000 dd bd 49 40 86 0e 8c 41 68 ff df 40 b5 30 bc 40
       3.1522133 17.507092 6.9999275 5.8809457
000010 4d ff f2 40 c7 4c 98 41 15 2b 59 41 9c 6c 21 41
       7.5936646 19.037489 13.573018 10.089016
000020 d1 00 33 41 81 f6 9a 41 59 71 8e 41 0b 8a ef 40
       11.187699 19.370363 17.805346 7.485601
000030 5d ce 1a 41 ac d5 1b 41 f3 cf 27 41 11 26 c7 40
       9.675382 9.739666 10.488269 6.223397
000040 87 64 84 40 de c7 9d 41 7c 8b a5 41 60 cc a4 40
       4.1372714 19.722591 20.693108 5.149948
000050 c8 cd 5c 41 6e 34 93 41 b8 ac 0f 41 d7 4d 33 41
       13.80024 18.4006 8.979668 11.206504
000060 03 42 a0 40 51 4d 0f 41 f8 ef af 40 1d e6 e4 40
       5.008058 8.956376 5.498043 7.15309
000070 1d 1e 84 41 9a bb 62 41 67 93 98 41 e9 07 98 40
       16.514704 14.170801 19.071974 4.7509656
000080 68 b1 de 40 4a b8 a0 41 14 2e 75 40 e5 5a aa 40
       6.959156 20.089985 3.8309374 5.3235955
000090 45 70 73 40 3d c6 0b 41 b6 cb 5f 41 67 86 82 40
       3.8037274 8.735898 13.987234 4.0789065
0000a0 2b 0b 33 40 db 53 9b 41 32 29 bd 41 94 52 b7 40
       2.7975566 19.415945 23.645115 5.7288303
0000b0 69 bd ab 40 70 de 01 41 09 7d a9 41 0c 64 52 41
       5.3668714 8.116806 21.186052 13.1494255
0000c0 1d ac 11 41 48 d1 f4 40 06 92 42 41 63 91 91 40
       9.10452 7.650547 12.16065 4.5489974
0000d0 ef 99 22 41 1d c2 c9 40 3d 77 8b 40 4f 18 7a 40
       10.162581 6.3049455 4.3583055 3.9077337
0000e0 ca d4 1d 41 cd 08 8c 41 9c 0d 5a 41 d4 56 95 41
       9.86445 17.504297 13.628323 18.667397
0000f0 04 63 89 41 cc 4b a5 41 dd b4 96 40 5e e6 ee 40
       17.173347 20.66201 4.709578 7.465621

decoder.0.weight f4 [64, 32, 2, 2]
000000 00 9f f1 bc e8 43 d8 bc 66 8c a4 bc 9a c4 23 3e
       -0.029494762 -0.026399568 -0.020086478 0.15992966
000010 83 e0 06 be 16 3a 97 bd 24 2a a3 bd 6c 56 c0 bd
       -0.13171582 -0.07384126 -0.07967022 -0.09391484
000020 b4 6a d2 3d 18 47 66 3d 9a af c0 3c 63 7e 6d bd
       0.10274258 0.056220144 0.023521233 -0.05798186
000030 c0 1e c6 bb 2f 91 79 3d b8 6c 4c bd c3 f5 0e 3d
       -0.006046146 0.060929473 -0.04990837 0.034902345
000040 6b 8e e2 3c ab 10 ae bc 79 d8 a1 3d 56 34 b8 bc
       0.0276558 -0.021248182 0.07902617 -0.022485893
000050 7c fb e5 3b 03 95 67 bb 52 88 cd 3c 08 aa c0 3d
       0.0070185047 -0.003533662 0.025089417 0.09407431
000060 83 23 dc 3d ea 65 fa 3d 9c 10 f5 3d ed be b8 3d
       0.10748961 0.1222647 0.119660586 0.09020791
000070 ec ea cc 3d 62 c0 ce 3d ea ef a5 3d 6a 09 cc 3d
       0.10005745 0.10095288 0.081024006 0.09962733
000080 96 01 51 3d 7d 38 b7 3c 8c 5d 73 3d 1a 82 e0 3c
       0.051026903 0.022365803 0.059415385 0.027405787
000090 9d 85 5c 3d d9 0b 9e 3d 07 b0 3b 3d 55 4e 5e 3d
       0.05383836 0.077171035 0.04582217 0.054273922
0000a0 90 db e7 3c 4f f7 87 3d 5e d8 65 3d 57 6d 62 3d
       0.028302938 0.06638967 0.056114547 0.055280056
0000b0 fa cb e9 bd c1 05 d1 bd de e1 0c be 48 aa 3b be
       -0.114158586 -0.102061756 -0.13758036 -0.18326676
0000c0 9b de 98 3d 5d 81 08 3e 04 46 ed 3d af 5a ee 3d
       0.074643336 0.13330598 0.1158562 0.1163839
0000d0 1b e1 b7 bc 0a a3 d3 3c 08 18 97 3b 16 68 59 be
       -0.022446206 0.025834579 0.004611019 -0.21231112
0000e0 c9 c3 d8 3c 15 7d 6f 3d f8 0a 80 3d 0e 8a 0c 3d
       0.026460545 0.058468897 0.06252092 0.034311347
0000f0 fd 4d 60 be 8f 6c 64 be 57 21 24 be 70 65 30 be
       -0.2190475 -0.22307037 -0.16028343 -0.17226195
000100 29 b4 49 3d 72 99 cf 3c e8 3f 3f 3d 12 4f 99 bc
       0.04924408 0.025341723 0.046691805 -0.018714461
000110 85 6f 5d bd 22 fe 1a bd 59 86 e0 bc 03 88 1c 3e
       -0.05406143 -0.037840016 -0.027407812 0.1528626
000120 fe 86 c7 3d b7 d9 e8 3c 35 40 c1 3d 5a 3f cd 3d
       0.097425446 0.028424127 0.09436075 0.10021849
000130 fe 9e 17 bd 8d 38 3b bd 25 61 db bc 12 cf b4 bc
       -0.03701686 -0.045708228 -0.02677972 -0.022071395
000140 04 ed 4c bd 92 53 61 bc 54 df a5 3c 9a 8f 8d bc
       -0.050030723 -0.013752835 0.020248093 -0.017280389
000150 4b 4f 9e 3d 02 79 c4 3d 40 5c 54 3d e1 ff 9c 3b
       0.07729968 0.09593393 0.05184579 0.0047912453
000160 28 c1 93 3c 19 6d 19 3d b1 46 70 3d 31 b1 fc 3d
       0.01803644 0.03745756 0.058661167 0.12338484
000170 93 87 1b bc 07 97 4f be 2f 2b d2 3d a8 3c ae bc
       -0.009492773 -0.20272456 0.10262143 -0.021269158
000180 44 fa c0 3c 8b c9 af 3c 5f 20 97 bd 3d ba 6a be
       0.023556836 0.021458408 -0.07379221 -0.22922607
000190 16 56 8e bc c3 ff 00 3c 0e 44 f0 bc 5d 25 0a 3d
       -0.017375033 0.007873478 -0.029329326 0.03372704
0001a0 10 c8 69 3d d7 70 d1 3d 46 1b 89 3d 7b 0b fc 3d
       0.05707556 0.102266006 0.06694655 0.12306877
0001b0 6e 9a 8c be 9a a3 10 bc 30 9b 92 bc 4d bd 6e 3b
       -0.2746157 -0.008828068 -0.017896265 0.003642875
0001c0 1b f8 bd bd 52 9e 32 be 86 f2 00 be c6 b3 1f be
       -0.09275838 -0.17443207 -0.12592515 -0.15595922
0001d0 c0 dd 93 bd b3 49 aa 3c ef a8 c9 3c 58 33 0a bd
       -0.0722003 0.020787096 0.024616687 -0.03374037
0001e0 5b b8 9f bd d9 d7 3b 3d 5e 5b 61 bd c0 33 73 3d
       -0.07798835 0.045860145 -0.055018775 0.059375525
0001f0 8a a2 c3 bd 61 26 9c bd e9 63 27 be ad 98 fe bd
       -0.09552486 -0.07624508 -0.16346706 -0.12431464
000200 6a 8d 93 bb 55 c6 84 3d bf 63 10 bd 50 36 1d 3d
       -0.004502942 0.06483141 -0.035251375 0.038381875
000210 16 06 45 3d 41 19 48 3d 4b f6 25 3d 05 f1 67 3d
       0.048101507 0.04885221 0.040518086 0.05662634
000220 88 93 f9 3d 10 ac f8 3c 4f fb 70 3d db 2b 9a bd
       0.121863425 0.030355483 0.058833417 -0.07527896
000230 5f 79 e7 3c 13 3f 00 3d fd e0 8d 3c 1e 64 2d 3d
       0.028256116 0.031310152 0.017319197 0.042331807
000240 e2 5d 81 3c f6 b0 0a bd ce f6 6f ba 03 1e 04 be
       0.015791837 -0.03386017 -0.0009153903 -0.12902074
000250 23 93 48 bc 60 8c 13 3d 3d 31 3e 3d f2 38 89 bd
       -0.012242111 0.036022544 0.046433676 -0.067003146
000260 9b 9c 92 3d 0d a5 9b 3c 8d 7e 22 3d 37 72 d7 3c
       0.071587764 0.0189996 0.03967147 0.02629958
000270 fe 99 82 3d 0d cc 24 bd e5 94 13 3d e9 79 4f 3c
       0.06377028 -0.04023366 0.03603067 0.012663343
000280 5a 9b 42 bb 50 99 f4 3c 4c 99 cc 3c 35 d0 a2 bc
       -0.0029694648 0.029858261 0.024975441 -0.019874671
000290 9b 96 3b 3d 4c 69 42 3c 49 1b a0 b9 0a f1 6f 3d
       0.045797925 0.011865925 -0.00030537907 0.058579482
0002a0 b1 65 61 bd 57 06 97 ba b4 98 1a bd b3 b4 bb bc
       -0.05502862 -0.0011522275 -0.037743285 -0.022913313
0002b0 4d e9 03 bc 98 eb a2 bd ea e4 f3 bb c6 38 21 bd
       -0.008051229 -0.07955092 -0.00744306 -0.039360784
0002c0 5b 02 19 3c c7 ed 26 3d 4d 87 99 3d bf ec 10 3d
       0.0093389405 0.040754106 0.0749651 0.03538203
0002d0 ac e8 dd 3d bb 02 6e 3d 6e 94 0a 3d ea 63 00 be
       0.10835394 0.058108073 0.03383296 -0.12538114
0002e0 68 83 72 bc 9b d1 58 3d 37 e8 0e 3c e5 f6 32 bd
       -0.0148018375 0.05293427 0.0087223565 -0.04369249
0002f0 c1 6f 2a bc 5e 2b 5f bc eb 8c 9b 3a e0 d0 24 bc
       -0.010402621 -0.013621179 0.0011867558 -0.010059565
000300 28 50 4b 3d f0 7e 95 3d 5d f6 68 3d ed 79 70 3d
       0.04963699 0.07299602 0.056875575 0.058710027
000310 11 d4 a6 3d d4 20 85 3a f8 16 4c 3c aa 50 b7 bd
       0.08145917 0.0010156878 0.012456648 -0.08950932
000320 68 42 81 3d ff dd 9b bc 20 cc 6d bc 52 ab bd bc
       0.06311494 -0.019026754 -0.014513999 -0.023152981
000330 dc d9 b9 3d 05 58 8b 3d cf 81 85 3d 63 6c d7 bd
       0.090747565 0.06803898 0.065189 -0.1051872
000340 f9 88 f0 3d 98 14 e7 3b 64 09 fe 3c ab f4 68 3d
       0.117448755 0.0070520155 0.031010337 0.05687396
000350 6c 35 39 bc 06 06 cb 3c d3 c3 33 3d 23 0b 3e be
       -0.011304241 0.024783146 0.043887924 -0.18558936
000360 ae 2e b0 bb 08 23 8c 3b 4f 39 03 3d b7 c0 cd 3c
       -0.0053766584 0.004276637 0.032037076 0.025116308
000370 2b 33 19 3c 56 9e f4 bd 30 8f ac 3d 75 20 43 3c
       0.009350578 -0.11944263 0.08425748 0.011909594
000380 a0 1d c7 3d 3e f6 4a 3d 60 44 cb bd 2b 5f af bc
       0.097224474 0.04955124 -0.09925151 -0.021407684
000390 b2 ba 20 3d 9c 71 d0 3d e0 c3 97 3d 04 62 26 3d
       0.039240547 0.10177919 0.07410407 0.04062082
0003a0 25 64 de 3d b5 68 04 3d 86 ef e3 bb 77 43 d4 bd
       0.10858945 0.03232642 -0.0069560437 -0.103644304
0003b0 0c e3 b5 bd 66 eb 57 3d 66 59 26 3d 86 39 36 3d
       -0.088811964 0.052714728 0.0406126 0.044488452
0003c0 70 01 26 bd b9 d2 0a bd d4 7c 25 bd cc 6e 86 bc
       -0.040528715 -0.033892367 -0.04040225 -0.016410254
0003d0 fc fa 91 3d 28 57 3d bd 38 72 8d bc a2 e8 5a bd
       0.071279496 -0.046225697 -0.017266378 -0.053444512
0003e0 37 1e 3f 3d 7b 03 83 ba fe 32 32 be d9 f3 f3 3d
       0.046659674 -0.0009995544 -0.17402264 0.119117446
0003f0 41 25 08 3e af 01 cd 3c d7 ac 69 3d 44 89 6e 3c
       0.13295461 0.025025217 0.0570496 0.014559094

decoder.0.bias f4 [32]
000000 e9 04 fc bc 88 8c aa bd f7 0e 79 3d 5c 03 89 bd
       -0.03076406 -0.083275855 0.060805287 -0.06690094
000010 9a bd aa bd ce e3 55 bd 4a 61 97 bd ff 82 25 bd
       -0.08336945 -0.052219205 -0.07391603 -0.04040813
000020 e8 38 88 3b f0 3a 58 bd 4a 24 92 bc 10 7c 29 bd
       0.0041571744 -0.052790582 -0.01783957 -0.04137808
000030 48 48 a2 bd 6e e6 05 3b f4 a5 8a bc ef f2 ba bd
       -0.07923943 0.0020431536 -0.016924836 -0.09128367
000040 94 cf 9b bc e5 4e 9f 3d f0 90 4e bc 61 7d 78 bc
       -0.01901988 0.0777872 -0.012607798 -0.015166611
000050 e9 6a 87 3d aa 94 28 bd 42 2e ec 3c 22 2b c1 3b
       0.06612188 -0.041157402 0.028830651 0.0058950344
000060 2b ad 97 bd e0 54 40 3d 84 e3 9d 3d 48 c4 77 bd
       -0.07406076 0.046955943 0.07709411 -0.060489923
000070 f2 95 e9 3c 32 ea a9 3d 4b d6 76 3d 34 bb 58 bd
       0.028513882 0.08296622 0.06026296 -0.052912906

decoder.1.weight f4 [32]
000000 d7 ff 58 3f 67 df 53 3f 5f c9 58 3f 02 f1 62 3f
       0.8476538 0.8276276 0.8468227 0.88649
000010 ef 80 54 3f 77 a9 5d 3f 2e dd 4f 3f e1 2e a5 3f
       0.8300924 0.8658671 0.8119687 1.2904931
000020 9f 29 56 3f 8e b7 50 3f cb 99 ae 3f 67 5f 9d 3f
       0.8365726 0.8153008 1.3640684 1.229474
000030 7a 6e 40 3f 74 ba 64 3f ae b6 44 3f 91 e2 a4 3f
       0.75168574 0.89347005 0.7684125 1.2881643
000040 5b fb 65 3f 3d 01 5c 3f 2d b9 58 3f 84 69 45 3f
       0.89836663 0.8593939 0.84657556 0.7711413
000050 1e 1f 60 3f c0 4e 59 3f 11 08 49 3f ba e3 5e 3f
       0.8754748 0.8488579 0.78527933 0.87066233
000060 f1 68 71 3f 2d f7 5f 3f ea c1 53 3f 2d 43 6a 3f
       0.9430075 0.87486535 0.82717764 0.9150875
000070 f6 92 ad 3f 1b 6a 3c 3f 7c 0d 68 3f 32 41 39 3f
       1.3560474 0.73599404 0.90645576 0.72365105

decoder.1.bias f4 [32]
000000 d2 c8 33 be 44 0b b1 bd 2b 44 2f bd 03 14 2a 3c
       -0.17557076 -0.08644727 -0.04278962 0.010380748
000010 45 d5 02 bd ab d6 32 bd 93 7a 84 be 60 4f 32 bd
       -0.03194167 -0.043661755 -0.25874767 -0.04353273
000020 4d da 16 be ec 20 80 be 61 73 0b be ec 50 26 3e
       -0.14731713 -0.25025117 -0.13618232 0.16241807
000030 c5 66 10 be a5 19 bf 3c e8 92 06 be 48 c0 cf bc
       -0.14101703 0.023327658 -0.13141978 -0.025360242
000040 8c 01 c7 bd 42 42 92 bd 6b 9a 9d 3d 54 51 e3 3b
       -0.09717092 -0.07141544 0.076954685 0.0069371853
000050 d5 a7 82 be d4 6e 96 bb 90 f9 d4 3d c5 c8 77 3c
       -0.2551867 -0.0045908485 0.10399163 0.015123551
000060 33 61 f8 bb f6 83 0f 3d f4 5f 0a be 0a 48 e4 3b
       -0.0075799464 0.035037957 -0.13513166 0.0069665955
000070 5b fe 95 bc 93 da 4e be 9f af 10 bb ee 32 51 bd
       -0.018309763 -0.20200567 -0.0022077335 -0.05107396

decoder.1.running_mean f4 [32]
000000 71 0d 2c 3f 91 dd ce 3e e8 ba 1e 3f 4f 6e 4a 3f
       0.6720801 0.40403417 0.62003946 0.7907457
000010 67 f1 0c bf 8b d5 37 bf 83 92 61 3f ad b6 a2 bf
       -0.5505585 -0.71810216 0.88114184 -1.2711998
000020 35 3b 4c 3f dc ce 82 3f 01 a0 bb bf 8f 36 5e bf
       0.7977784 1.0219378 -1.4658204 -0.86802
000030 7b e6 89 3f e8 03 a3 3e cf f8 b8 3e f7 d0 39 bf
       1.0773462 0.31838918 0.36127326 -0.7258448
000040 b5 11 62 3f d1 3c 00 3e 5a 07 3d 3e b2 c6 3f 3e
       0.8830827 0.125232 0.18459836 0.1872814
000050 8d c6 7b 3f db 1e 12 bd 62 a4 11 3f 36 f8 a0 bd
       0.9834984 -0.035673957 0.56891453 -0.078598425
000060 16 7b 32 bd 49 1d 65 3f a3 8a 45 3f 21 fb 41 bd
       -0.043574415 0.8949781 0.7716467 -0.047358636
000070 81 b7 0b bf 5f 0b 89 3e c2 72 03 3e 60 03 2d 3f
       -0.5457688 0.26766488 0.12836745 0.67583275

decoder.1.running_var f4 [32]
000000 f5 85 c8 40 4e b1 dc 3f 23 6a ce 40 66 82 8a 40
       6.266352 1.7241609 6.450456 4.328418
000010 b1 41 31 41 16 16 f0 40 de 04 9d 40 36 bf 4f 41
       11.078538 7.502696 4.906844 12.984182
000020 d6 f3 63 40 1e 50 fd 40 e3 78 7c 41 39 23 69 40
       3.5617576 7.91603 15.779513 3.6427748
000030 fc 40 f8 40 7e 1d 4a 41 40 c1 eb 40 d7 99 c5 3f
       7.7579327 12.6322 7.36734 1.5437573
000040 0a da ad 40 f9 0f 0b 41 93 45 27 40 e1 f2 f5 40
       5.432866 8.6914 2.6136215 7.6858983
000050 2e cc fd 40 26 6a 38 41 d1 9c 05 40 93 3f 60 41
       7.9311743 11.525915 2.0876963 14.015521
000060 41 68 36 41 de 27 80 40 20 3e b3 40 91 c2 6e 41
       11.400453 4.0048666 5.6013336 14.922502
000070 6d e5 b0 3f 8e e9 3b 40 8a 5e 51 41 dc 35 00 41
       1.3820015 2.93613 13.085581 8.013149
