models/flood_cnn_epochs_5.pth (torch, 150506 bytes, 31 tensors)

encoder.0.weight f4 [16, 2, 3, 3]
0	0xbde996d1	-0.11405719
1	0xbd60c068	-0.054870993
2	0x3e7e2f4a	0.24822727
3	0x3e316b9a	0.17326203
4	0x3de8b692	0.113629475
5	0xbe4f0ae9	-0.20219006
6	0xbe380638	-0.17971122
7	0xbe71979b	-0.23592989
8	0xbd857628	-0.06516677
9	0x3dd72996	0.10505979
10	0x3e1efa54	0.1552518
11	0x3e4f4861	0.20242454
12	0xbca7bfd7	-0.020477219
13	0xbe366007	-0.17810069
14	0xbe8140de	-0.25244802
15	0x3c04cf18	0.008106016
16	0x3cde1236	0.027108293
17	0xbe99013d	-0.29883757
18	0x3d940075	0.0722665
19	0x3e097ba6	0.13426074
20	0xbcf024df	-0.029314457
21	0x3e601e5d	0.21886583
22	0x3e3a5b59	0.18198909
23	0xbb7c0390	-0.0038454272
24	0x3e3d1b6b	0.1846749
25	0x3e818959	0.253001
26	0xbe3bc737	-0.18337713
27	0xbdc1ee5a	-0.0946929
28	0x3dcdcec2	0.100492015
29	0xbe196ec8	-0.14983666
30	0xbc7842c0	-0.015152633
31	0xbd9e28cb	-0.077226244
32	0xbc448ce9	-0.011996486
33	0x3d159440	0.036518335
34	0x3d06ed39	0.032941077
35	0xbdc4d4d5	-0.09610907
36	0xbe2ec7dc	-0.17068428
37	0x3d1408c0	0.036141157
38	0xbe9b71a4	-0.30360138
39	0xbbae778e	-0.0053243106
40	0xbd84cf78	-0.06484884
41	0xbd4b5b1f	-0.049647447
42	0xbdaa2968	-0.08308679
43	0x3d844dda	0.064601615
44	0xbe614bf3	-0.22001629
45	0x3c1b3720	0.009473592
46	0x3d4e2193	0.050324988
47	0x3def436f	0.11682784
48	0x3e79edc4	0.24407107
49	0xbdf8db1c	-0.12151167
50	0xbe79bb84	-0.24387938
51	0x3c324f51	0.010883168
52	0xbe59a743	-0.21255212
53	0x3c482044	0.012214724
54	0x3e0a125b	0.13483565
55	0xbdfea2c2	-0.12433387
56	0xbddacb6b	-0.1068333
57	0xbd8f08e3	-0.06984117
58	0x3db9cb67	0.09071999
59	0xbe91e8c3	-0.28497896
60	0xbdc5d4c8	-0.096597254
61	0xbe7284ca	-0.23683468
62	0xbebff10f	-0.374886
63	0x3e59eb14	0.21281081
64	0xbdc9cd07	-0.09853559
65	0xbe209aec	-0.15684098
66	0x3d874189	0.06604297
67	0x3dee4037	0.11633342
68	0xbe0cb757	-0.13741814
69	0xbcde0485	-0.027101764
70	0xbdef103c	-0.11673018
71	0xbcbe669d	-0.02324229
72	0x3d3dad0f	0.04630762
73	0xbd6139a7	-0.054986622
74	0x3c94bb98	0.018155858
75	0x3c90148a	0.017587919
76	0xbe54e30f	-0.20789741
77	0xbdefa852	-0.117020264
78	0xbe5728cb	-0.21011655
79	0xbdf0a58a	-0.11750324
80	0xbeb1f70b	-0.3475879
81	0xbc09cb4a	-0.008410284
82	0xbddd2120	-0.10797334
83	0x3da35b86	0.07976441
84	0x3d1aafca	0.0377653
85	0xbe321d68	-0.1739403
86	0xbd9f7151	-0.07785285
87	0x3e10917b	0.14117996
88	0xbdb83dd8	-0.08996171
89	0xbdea814f	-0.11450445
90	0x3e5a8a27	0.21341763
91	0xbe46d508	-0.19417202
92	0xbe31730f	-0.17329048
93	0x3cb33a43	0.021878367
94	0x3de83408	0.11338049
95	0xbab9b0f3	-0.0014167115
96	0xbe09b7fa	-0.13449088
97	0xbce083de	-0.02740663
98	0x3d831afe	0.06401633
99	0x3e4703d9	0.19435062
100	0xbb6fb048	-0.0036573578
101	0x3ddc9d05	0.107721366
102	0xbe14954e	-0.1451008
103	0x3e0ff3a6	0.14057788
104	0xbe8e7b60	-0.27828503
105	0x3cd62fcd	0.02614584
106	0xbe9c6561	-0.30546096
107	0xbe4025a6	-0.18764362
108	0x3db4dc23	0.0883105
109	0x3d836c20	0.064171076
110	0xbdb4f0ef	-0.08835017
111	0xbc539bc3	-0.012915554
112	0x3cf3e2e9	0.029771285
113	0x3cdcd2ae	0.026955929
114	0x3a36509b	0.000695476
115	0xbe163c76	-0.14671502
116	0x3ea42faa	0.32067615
117	0x3d506ec9	0.050886903
118	0xbd065b94	-0.03280218
119	0x3d2e2795	0.042518217
120	0xbd561003	-0.052261364
121	0xbe3baa87	-0.1832677
122	0x3e942b07	0.28939077
123	0xbe05a7e3	-0.13052325
124	0xbb34b825	-0.002757558
125	0x3e6d380e	0.23165914
126	0xbe141d9d	-0.14464422
127	0x3c31f9e5	0.010862802
128	0xbd30948e	-0.043110423
129	0xbe0768e1	-0.13223602
130	0x3e8a6c2f	0.27035663
131	0xbe346d03	-0.1761971
132	0x3e5a1627	0.21297513
133	0xbd133411	-0.035938326
134	0x3e742255	0.23841222
135	0x3c898067	0.01678486
136	0x3ca4d6c4	0.02012194
137	0xbe0fe4d6	-0.14052138
138	0xbdb46d3b	-0.088098966
139	0x3e5dabbd	0.21647544
140	0x3d9c357a	0.07627387
141	0x3dc22897	0.09480398
142	0x3ec2fcb4	0.38083422
143	0x3ea6f585	0.32609192
144	0x3b130a3b	0.0022436518
145	0xbdb8ed69	-0.090296574
146	0xbd855257	-0.06509846
147	0xbca3d84e	-0.020000603
148	0xbe4d0941	-0.20023061
149	0xbe4e4133	-0.20142059
150	0x3c19c82d	0.0093861045
151	0xbe6b1bb8	-0.22959793
152	0xbe91071a	-0.2832573
153	0xbcc4247d	-0.02394318
154	0x3cfa6012	0.030563388
155	0xbd389b70	-0.04507011
156	0xbc4a67d3	-0.012353855
157	0xbd1fb040	-0.038986444
158	0x3e3ee373	0.18641452
159	0xbd8e0c81	-0.06935979
160	0x3e311c9c	0.1729607
161	0xbde8f558	-0.113749206
162	0x3d285e9f	0.041105863
163	0xbd8f9d03	-0.070123695
164	0x3e7c4aae	0.24637863
165	0xbc6626ee	-0.0140473675
166	0x3e681a3d	0.22666259
167	0x3c72adbd	0.01481193
168	0x3d81b14f	0.06332647
169	0xbe1215eb	-0.14266174
170	0x3dc5ce63	0.09658506
171	0x3d9b4391	0.07581247
172	0x3e8b81f7	0.27247593
173	0x3e877030	0.2645278
174	0xbe20ede9	-0.15715756
175	0x3dd2164c	0.10258159
176	0x3b6562d4	0.0035001533
177	0xbe1fed6d	-0.15617914
178	0x3d3cdf99	0.046111677
179	0xbe14150e	-0.14461157
180	0x3dbc031b	0.0918028
181	0x3e7de564	0.24794537
182	0x3d238005	0.03991701
183	0x3dfcdd60	0.123469114
184	0x3e02f87e	0.12790105
185	0x3e8ce03c	0.27514827
186	0x3ba9c49f	0.0051809098
187	0x3e46c6f0	0.19411826
188	0x3e7515ba	0.2393407
189	0x3d775eb3	0.060393047
190	0x3dca3c49	0.0987478
191	0x3e3f68dd	0.18692346
192	0x3dbeb24d	0.09311352
193	0xba14ed01	-0.0005681068
194	0x3dac11db	0.08401843
195	0x3da4cc38	0.08046764
196	0x3d2ad79d	0.04170953
197	0x3e27e971	0.16397645
198	0xbdcb00c9	-0.09912259
199	0x3e1276b8	0.143031
200	0x3e524463	0.205339
201	0x3e6f4045	0.2336436
202	0x3dcafe65	0.09911803
203	0x3d58fb79	0.052974198
204	0xbdabacf4	-0.083825976
205	0x3df62bc0	0.120200634
206	0x3db39e4d	0.08770428
207	0x3de43eb5	0.11144773
208	0xbdcd4e36	-0.10024683
209	0x3d866c3d	0.065636136
210	0x3d72a314	0.059237555
211	0x3d1d4b29	0.038401756
212	0xbdc23b79	-0.09484
213	0x3dcc9bd6	0.09990661
214	0x3e1a0a16	0.1504291
215	0x3d4720ce	0.04861527
216	0x3dd14a34	0.10219231
217	0x3e91d698	0.28484035
218	0x3d143a86	0.036188625
219	0xbd18a87b	-0.03727005
220	0xbd1f638c	-0.038913295
221	0x3e9535f1	0.29142717
222	0xbd197ca7	-0.037472393
223	0x3e3fcdc6	0.1873084
224	0xbd8bc978	-0.068255365
225	0x3e268fa1	0.16265728
226	0x3d826a16	0.063678905
227	0x3e87635e	0.26443
228	0xbdb6ef24	-0.08932331
229	0x3e28ae1a	0.16472664
230	0xbbcf0928	-0.00631823
231	0xbd63d57c	-0.055623516
232	0xbd2a6eac	-0.04160945
233	0x3dbb7321	0.091528185
234	0x3e12843f	0.1430826
235	0xbd7675ad	-0.060170818
236	0xbe29e183	-0.16589932
237	0xbe462efe	-0.19353864
238	0x3a095c96	0.00052399316
239	0xbe751d44	-0.23936945
240	0xbe5ed4c0	-0.21760845
241	0xbba61acf	-0.005069114
242	0x3e39f5b4	0.18160135
243	0xbd4f5272	-0.050615735
244	0xbd9c8e91	-0.0764438
245	0xbe43783f	-0.19088839
246	0x3dc19588	0.09452349
247	0xbd9a132a	-0.075231865
248	0xbe783001	-0.24237062
249	0x3c8969c4	0.016774066
250	0x3e48b930	0.19601893
251	0x3e1e45cc	0.15456313
252	0x3e09fcb9	0.13475312
253	0x3cb0bb35	0.021573642
254	0xbdc9ee48	-0.09859902
255	0x3ba72280	0.0051005483

encoder.0.bias f4 [16]
0	0xbb8e4b40	-0.0043424666
1	0xbe03263f	-0.12807558
2	0x3e0af7c7	0.13571082
3	0x3b007ab6	0.0019604391
4	0xbe939652	-0.28825623
5	0x3e506a6a	0.20353094
6	0xbe13b943	-0.1442614
7	0xbe24177b	-0.16024582
8	0x3e3c5acb	0.1839401
9	0x3e097faa	0.13427606
10	0xbe3c5eca	-0.18395534
11	0xbdc36c80	-0.09542179
12	0x3d430238	0.047609538
13	0xbe23b54e	-0.15987131
14	0x3e4bf649	0.19918169
15	0xbd812121	-0.06305147

encoder.1.weight f4 [16]
0	0x3f78e63e	0.9722632
1	0x3f6a4159	0.9150596
2	0x3f76c2b5	0.9639085
3	0x3f7c31d5	0.9851354
4	0x3f7f27f8	0.9967036
5	0x3f7abfed	0.97949106
6	0x3f88c52e	1.0685174
7	0x3f7e8af2	0.99430764
8	0x3f80919b	1.0044435
9	0x3f8e60b0	1.1123257
10	0x3f8c3b0a	1.0955517
11	0x3f805b55	1.0027872
12	0x3f8185ea	1.0118992
13	0x3f7effc6	0.9960903
14	0x3f7cb110	0.98707676
15	0x3f7334ea	0.95002615

encoder.1.bias f4 [16]
0	0x3be7a436	0.007069136
1	0x3ccbbb98	0.024869725
2	0x3bc52b85	0.006017151
3	0xba6c115b	-0.0009005272
4	0x3b761567	0.0037549378
5	0xb9dc1d07	-0.00041983297
6	0x3e0e8ddb	0.13921301
7	0x3df2dd80	0.11858654
8	0xba01378c	-0.00049292366
9	0x3e21d00e	0.15802023
10	0x3dd2098e	0.10255729
11	0x3e0861b8	0.13318527
12	0x3dfb270d	0.12263308
13	0x3a517f6a	0.00079917035
14	0x3ab18684	0.0013544117
15	0x3b8a8c22	0.004228131

encoder.1.running_mean f4 [16]
0	0xbb17ea1c	-0.0023180312
1	0xbe01bf18	-0.12670553
2	0x3e0be537	0.13661657
3	0x3b20cef3	0.0024537414
4	0xbe936c7e	-0.2879371
5	0x3e53647b	0.20643799
6	0xbe15c5f9	-0.14626302
7	0xbe244915	-0.16043504
8	0x3e39ca20	0.18143511
9	0x3e0c42d6	0.13697371
10	0xbe3b7ed6	-0.18310103
11	0xbdc671a7	-0.09689646
12	0x3d4570bf	0.048203226
13	0xbe2373fb	-0.15962212
14	0x3e4c29b2	0.1993778
15	0xbd82ae8a	-0.06380947

encoder.1.running_var f4 [16]
0	0x3ead2555	0.33817545
1	0x3ee623d0	0.44949198
2	0x3f09dc4b	0.53851765
3	0x3f7bbde3	0.9833662
4	0x3f8153cd	1.0103699
5	0x3e940818	0.28912425
6	0x3e5d99c2	0.21640685
7	0x3f6535e8	0.8953538
8	0x3f3aec2b	0.73016614
9	0x3eebf3f3	0.46084556
10	0x4010fc2a	2.2653909
11	0x3f2ca468	0.67438364
12	0x3f5dfb91	0.86711985
13	0x3ec8d232	0.39222866
14	0x3e41b426	0.18916377
15	0x3f2fb768	0.6863923

encoder.5.weight f4 [32, 16, 3, 3]
0	0xbc02273b	-0.007943924
1	0xbd59ef6f	-0.053206857
2	0xbc94d37b	-0.018167248
3	0x3d3a5857	0.045494404
4	0xbcba4e47	-0.022742404
5	0x3d55c54b	0.052190106
6	0x3c7594df	0.014989107
7	0xbc9f358e	-0.019434717
8	0xbcb22f8d	-0.02175119
9	0x3cb3bdae	0.021941032
10	0xbe04e193	-0.12976675
11	0x3d01fc72	0.03173489
12	0x3ce86150	0.028366715
13	0xbc8603fc	-0.016359322
14	0xbd636a25	-0.05552115
15	0x3d1d771f	0.03844368
16	0xbd9a88a1	-0.07545591
17	0xbb9affc9	-0.004730199
18	0xbc98e4bd	-0.018663758
19	0xbb25af16	-0.0025281361
20	0xbc9a23a8	-0.01881583
21	0xbcdabf0b	-0.026702425
22	0xbbd461ec	-0.0064813998
23	0xbd8f3734	-0.06992951
24	0xbcfcc46c	-0.03085538
25	0x3ca64ebd	0.020301217
26	0xbb9ff586	-0.0048815636
27	0xbcc00360	-0.02343911
28	0xbd1ba21d	-0.0379964
29	0x3c3c7135	0.0115016
30	0x3c23f3a4	0.010006819
31	0x3d641e83	0.05569316
32	0xbcd3475b	-0.02579086
33	0xbd07384b	-0.03301267
34	0x3da6a502	0.081369415
35	0x3d933bb1	0.071891196
36	0xbc497616	-0.01229622
37	0x3d7baeca	0.06144599
38	0xbd01c6e3	-0.031683814
39	0xbdc0caa6	-0.09413652
40	0xbb425e93	-0.0029658421
41	0xbb80a6a1	-0.0039261137
42	0x3d1865a4	0.037206307
43	0x3d9e48d5	0.07728735
44	0x3de39b3e	0.111135945
45	0x3d050c79	0.032482598
46	0xbd039b0e	-0.032130294
47	0xbd98bba6	-0.07457666
48	0x3bacad20	0.0052696615
49	0xbda20ddd	-0.079128005
50	0xbd911993	-0.07084956
51	0xbd9f4cd1	-0.077783234
52	0xbcf516fe	-0.02991819
53	0x3e049fa5	0.12951525
54	0xbe263920	-0.16232729
55	0x3d9ed3f1	0.07755268
56	0xbc708d86	-0.014682179
57	0x3c0c33f2	0.008557307
58	0x3d5a6e83	0.05332805
59	0xbba671ad	-0.005079469
60	0xbd7776c4	-0.060415998
61	0xbdb4fb19	-0.088369556
62	0x3dd7433d	0.105108716
63	0x3d348382	0.044070728
64	0xbd1f836c	-0.038943693
65	0x3d94e1c6	0.07269625
66	0xbc58051c	-0.013184812
67	0xbd0906bc	-0.033453688
68	0x3daf1bb4	0.08550206
69	0x3d7bdc5c	0.061489448
70	0x3d17c790	0.037055552
71	0xbd95aece	-0.07308732
72	0x3c992dda	0.018698622
73	0xbcb8d171	-0.022560807
74	0x3dc899ad	0.09794936
75	0xbd89bb88	-0.06725222
76	0x3d56a76a	0.052405752
77	0x3d11e03c	0.035614237
78	0x3cabb2f8	0.020959362
79	0x3de7696a	0.11299403
80	0x3b097e48	0.002097981
81	0xbd0f8e97	-0.035048094
82	0xbd855ba4	-0.0651162
83	0xbe1108a6	-0.14163455
84	0xbd97f351	-0.07419456
85	0xbdf80510	-0.121103406
86	0x3c4b1e34	0.012397338
87	0xbdb24b11	-0.08705724
88	0xbde1c48b	-0.11023816
89	0xbcddc41b	-0.02707105
90	0x3d66c0d7	0.05633625
91	0xbd00a9f1	-0.03141207
92	0xbd282770	-0.041053236
93	0x3b2c1aed	0.0026261166
94	0x3d873f03	0.066038154
95	0x3d873ce4	0.06603411
96	0x3d7ac459	0.061222408
97	0x3d2be7a3	0.041968953
98	0x3d0cae5e	0.034345977
99	0xbd9db2b3	-0.077001
100	0x3c741466	0.0148974415
101	0x3b978b56	0.0046247644
102	0xbb6ef678	-0.0036462825
103	0xbd595a2f	-0.05306452
104	0xbd75b629	-0.059988175
105	0xbc1104e5	-0.008851265
106	0xbcfe9925	-0.031078884
107	0x3de5c0d5	0.112184204
108	0xbe081dcb	-0.13292615
109	0xbe0c6ad9	-0.13712634
110	0xbde6e58b	-0.112742506
111	0xbdfeccc1	-0.124413975
112	0x3d50af75	0.05094858
113	0xbd185184	-0.037187114
114	0xbd3ffb61	-0.046870593
115	0x3d4e12ce	0.050310902
116	0xbd64c39d	-0.055850614
117	0xbc060aa8	-0.008181252
118	0xbda4f9e5	-0.08055476
119	0x3cafa12f	0.021439163
120	0xbd9404bb	-0.07227465
121	0x3c38d792	0.011281865
122	0x3d177550	0.036977112
123	0xbd1c63bf	-0.038181063
124	0x3d185abf	0.037195917
125	0x3dd99ee6	0.106260106
126	0xbc11562d	-0.008870644
127	0xbd0a5951	-0.033776585
128	0x3da9cce9	0.08291037
129	0xbd98cf04	-0.0746136
130	0x3cc6fbd7	0.024290008
131	0x3d098344	0.03357245
132	0xbd363a4c	-0.04448919
133	0x3bef4c62	0.0073028067
134	0xbd30b454	-0.043140724
135	0x3d532bdf	0.05155551
136	0x3ca85b17	0.020551248
137	0x3db75d76	0.08953373
138	0x3c850ac4	0.016240485
139	0x3d5c1d4b	0.053738873
140	0x3ce66c60	0.02812785
141	0xbd6c4128	-0.057679325
142	0xbd6afc05	-0.05736925
143	0x3dc411c0	0.09573698
144	0xbd68c71e	-0.056830518
145	0xbda6fe3e	-0.081539616
146	0xbb773459	-0.003772041
147	0xbe13d2c7	-0.14435874
148	0xbd6bf38b	-0.057605308
149	0x3d7f4894	0.062325075
150	0xbdf22314	-0.11823097
151	0x3d04b918	0.03240308
152	0xbbe630ee	-0.007024876
153	0xbd8e5c1d	-0.06951163
154	0xbbe5e8bb	-0.007016269
155	0x3d322adc	0.043497905
156	0xbd784b68	-0.060618788
157	0x3d073b89	0.03301576
158	0xbd9c7d43	-0.07641079
159	0xbd951db5	-0.07281057
160	0x3d8ae62c	0.06782183
161	0x3de8ec6a	0.113732174
162	0xbc9d48db	-0.01919978
163	0x3cf12808	0.029438034
164	0x3c0a0ff9	0.00842666
165	0x3d1e4bca	0.038646497
166	0xbc5f69c1	-0.013636054
167	0x3d50c21e	0.050966375
168	0x3d5044f1	0.050846998
169	0x3d30ae72	0.043135114
170	0x3d7fa8de	0.062416904
171	0xbd1db460	-0.038502097
172	0xbc7ad4aa	-0.015309492
173	0x3c243391	0.01002206
174	0x3d186216	0.037202917
175	0x3ca30436	0.019899469
176	0x3c44da6b	0.0120149655
177	0x3c7986e8	0.015229918
178	0xbd2eef78	-0.042708844
179	0xbd4d9d99	-0.050199125
180	0x3c55ab0e	0.013041271
181	0x3d5fa2ee	0.05459874
182	0x3bc6c796	0.006066273
183	0x3d714b6e	0.058909826
184	0x3ab84c1b	0.0014060767
185	0x3d8690a7	0.06570559
186	0xbd0762a4	-0.033053055
187	0x3d6327b1	0.055457775
188	0x3dbc068f	0.091809385
189	0xbcba4d8b	-0.022742053
190	0xbd3b0851	-0.045662228
191	0x3dd1d981	0.10246564
192	0x3d10e52f	0.035374817
193	0xbc66385d	-0.014051524
194	0x3d08313b	0.033250075
195	0x3d9ce53e	0.07660912
196	0x3deda2fe	0.11603354
197	0x3d821072	0.06350793
198	0xbd921b0b	-0.07134064
199	0x3d9236e4	0.07139376
200	0xbd9d4f95	-0.07681195
201	0xbcf03300	-0.029321194
202	0xbdbd9398	-0.09256667
203	0x3cbc49d8	0.02298443
204	0x3ce1f3a2	0.027581993
205	0x3d2d51bd	0.04231428
206	0x3e0024b1	0.12513997
207	0xbc67daed	-0.014151317
208	0xbdc073cf	-0.09397089
209	0x3da5a5ac	0.0808824
210	0x3db16838	0.08662456
211	0x3c80f8de	0.01574367
212	0xbdcbe5e3	-0.09955957
213	0x3ddf99f9	0.1091804
214	0x3df8be4f	0.121456735
215	0xbc905ff1	-0.017623873
216	0xbd354106	-0.044251464
217	0xbd90d87d	-0.07072542
218	0x3cc3e00b	0.023910543
219	0x3b9b7032	0.0047435993
220	0xbba99180	-0.0051748157
221	0x3d9158a9	0.07096989
222	0x3c6ac366	0.014328813
223	0xbce26bc3	-0.027639275
224	0x3cbc6664	0.022998042
225	0xbc47a13c	-0.012184437
226	0x3da0b975	0.07847873
227	0xbcbcde5b	-0.023055246
228	0xbe34268f	-0.17592834
229	0xbbc8ea58	-0.0061314516
230	0x3da16082	0.078797355
231	0x3d6716ee	0.05641835
232	0xbe017a47	-0.12644301
233	0xbd856753	-0.06513848
234	0xbd19e512	-0.037571974
235	0xbdb7021e	-0.08935951
236	0x3d9f30dd	0.07772992
237	0xbd26013d	-0.040528525
238	0xbd86cf2f	-0.06582486
239	0x3c9ef618	0.019404456
240	0xbd5a8d2e	-0.053357296
241	0x3d49e60d	0.04929166
242	0xbca22640	-0.01979363
243	0xbdd22e42	-0.10262729
244	0xbdb70cbd	-0.089379765
245	0x3d813fb3	0.06310978
246	0xbdd3ce60	-0.10342097
247	0xbdd759cf	-0.105151765
248	0x3d56fd3d	0.0524876
249	0xbdbd1ac8	-0.09233624
250	0xbcbccf4b	-0.023048064
251	0xbd88899e	-0.066668734
252	0x3c4a6244	0.01235253
253	0x3d99a0a7	0.07501345
254	0xbcaae23b	-0.020859828
255	0xbcf62afa	-0.03004979

encoder.5.bias f4 [32]
0	0xbd97a33a	-0.0740418
1	0xbd9ace9d	-0.075589396
2	0x3caa2d06	0.020773422
3	0xbd1529de	-0.03641688
4	0xbd6c5ff2	-0.057708688
5	0x3bb0c7f5	0.0053949305
6	0x3d78d9e0	0.060754657
7	0x3d22b5f9	0.039724324
8	0xbd3b2c0d	-0.045696307
9	0x3d3fe44a	0.046848573
10	0xbd428fa4	-0.047500268
11	0x3b3dd67a	0.002896695
12	0x3d110992	0.035409518
13	0xbd39dd57	-0.0453771
14	0xbd467973	-0.048455667
15	0x3d2e83dc	0.04260622
16	0xbcc1077d	-0.023563141
17	0xbdcfb7c1	-0.1014247
18	0x3ca8459e	0.020541009
19	0xbc1f3b4b	-0.009718726
20	0x3c331886	0.01093114
21	0x3d955e31	0.07293356
22	0x3c5ee80b	0.013605128
23	0x3d583e62	0.052793868
24	0xbd7302d5	-0.059328873
25	0xbd36aa91	-0.04459626
26	0xbcac7f0f	-0.02105668
27	0xbd22058f	-0.039556082
28	0x3d2c5266	0.04207077
29	0xbc5952db	-0.013264383
30	0x3d484e48	0.04890278
31	0xbd9fccf0	-0.078027606

encoder.6.weight f4 [32]
0	0x3f75d34a	0.96025527
1	0x3f710779	0.9415203
2	0x3f74d918	0.9564376
3	0x3f762b17	0.961595
4	0x3f83a9ae	1.0286157
5	0x3f7c22cb	0.9849059
6	0x3f7527dc	0.95763946
7	0x3f6eb2b9	0.9324146
8	0x3f69551e	0.91145504
9	0x3f7121a2	0.94191945
10	0x3f730708	0.94932604
11	0x3f6f13c7	0.9338955
12	0x3f526a9f	0.8219394
13	0x3f7c6a36	0.98599565
14	0x3f7d6ecc	0.9899719
15	0x3f85b271	1.0445081
16	0x3f8657d3	1.0495552
17	0x3f7fd08b	0.99927586
18	0x3f6999b7	0.91250175
19	0x3f783e42	0.9697
20	0x3f82dcbc	1.0223613
21	0x3f7f6e4b	0.9977767
22	0x3f85c6e0	1.0451317
23	0x3f5c48d2	0.86048615
24	0x3f7d004e	0.9882859
25	0x3f560f2b	0.83616894
26	0x3f49feca	0.789044
27	0x3f67296c	0.9029758
28	0x3f80109f	1.0005072
29	0x3f83d5d8	1.0299635
30	0x3f74894e	0.9552201
31	0x3f69309c	0.910898

encoder.6.bias f4 [32]
0	0x3dee3b24	0.11632374
1	0x3de145db	0.10999652
2	0x3dc48992	0.09596552
3	0x3dc58b64	0.09645727
4	0x3d92755a	0.07151289
5	0x3d86eb06	0.06587796
6	0x3dd11bcc	0.1021038
7	0xbebf8b55	-0.3741099
8	0x3db7b228	0.089695275
9	0x3dca1436	0.09867136
10	0x3d984561	0.07435108
11	0xbea2ac71	-0.31772187
12	0xbf00a756	-0.50255334
13	0x3dc626d6	0.09675376
14	0x3dbdee08	0.092739165
15	0x3d8c00f2	0.06836118
16	0x3d1ed92d	0.038781334
17	0x3d621008	0.05519107
18	0x3dad6b83	0.08467772
19	0xbcdfd722	-0.027324263
20	0x3db93c5f	0.09044718
21	0x3b81f8a5	0.0039664083
22	0x3d8cc650	0.068737626
23	0xbf0bb8b8	-0.54578733
24	0x3d8fd11d	0.07022307
25	0xbf08bc49	-0.534123
26	0xbf0a2254	-0.5395863
27	0x3d29410c	0.0413218
28	0x3d73850d	0.05945306
29	0x3d9d9b2f	0.076956145
30	0x3d71445d	0.058903087
31	0x3de45e61	0.11150814

encoder.6.running_mean f4 [32]
0	0xbee80c8d	-0.45322075
1	0xbe4f0d5f	-0.20219944
2	0x3e851ce9	0.2599862
3	0x3daa89a0	0.08327031
4	0xbeae4a40	-0.34041023
5	0xbd37b099	-0.04484615
6	0x3d867c57	0.06566685
7	0xc02d7f84	-2.710908
8	0x3e58492a	0.2112166
9	0x3e532b74	0.20622045
10	0x3be32fba	0.0069331797
11	0xc018e989	-2.3892539
12	0xc0204abf	-2.5045621
13	0xbba8cd74	-0.005151445
14	0x3d003974	0.03130479
15	0x3d4c5705	0.049887676
16	0xbe51c224	-0.20484215
17	0xbeb08422	-0.3447581
18	0x3ed0bd38	0.40769362
19	0x3f803ad8	1.0017958
20	0xbd47377f	-0.04863691
21	0xbe82bbcd	-0.25533906
22	0x3ce5e006	0.028060924
23	0xc03b262f	-2.9242055
24	0xbf029aba	-0.51017344
25	0xc025ecbd	-2.5925744
26	0xc02ba91b	-2.6821964
27	0x3ee627ab	0.4495214
28	0xbe05d744	-0.13070399
29	0xbd35b1cb	-0.04435901
30	0x3d9390d1	0.07205356
31	0xbd4003d0	-0.046878636

encoder.6.running_var f4 [32]
0	0x4013862c	2.3050642
1	0x3fc8adf2	1.5678084
2	0x40159ecc	2.3378172
3	0x3fad4e6f	1.3539561
4	0x404723b3	3.111554
5	0x4092e725	4.590716
6	0x4007c4fa	2.1213975
7	0x40d96c55	6.794474
8	0x400db523	2.2141807
9	0x3fc7aaa7	1.5598954
10	0x40fdac72	7.9273005
11	0x40934db5	4.6032357
12	0x40b90bfb	5.7827125
13	0x3f86bc47	1.0526208
14	0x3fd53865	1.6657835
15	0x4096709d	4.7012467
16	0x40300ac7	2.7506578
17	0x408ad841	4.338898
18	0x40281353	2.6261795
19	0x40ab86f9	5.360226
20	0x40a2dccb	5.0894523
21	0x40ab7f44	5.3592854
22	0x40b3e0a6	5.621173
23	0x40de4106	6.9454374
24	0x406d8948	3.711504
25	0x40a4e062	5.1523905
26	0x40b61617	5.6901965
27	0x40c2f9b4	6.0929813
28	0x4003e462	2.0608144
29	0x401e266e	2.4710956
30	0x3ff0008b	1.8750166
31	0x3fd742c8	1.6817255

encoder.10.weight f4 [64, 32, 3, 3]
0	0xbd7e7776	-0.062125646
1	0xbd2c0973	-0.0420012
2	0xbd4172ff	-0.04722881
3	0xbd930e9f	-0.07180523
4	0xbd36e48f	-0.044651564
5	0xbd026faa	-0.031844772
6	0xbd9ae1ae	-0.07562576
7	0xbda79bd1	-0.081840165
8	0xbcea2c8d	-0.028585697
9	0x3ba0c7dd	0.004906638
10	0xbdc95ee1	-0.0983255
11	0xbc524b76	-0.012835374
12	0xbd887e99	-0.066647716
13	0xbd1de3b8	-0.038547248
14	0x3c094615	0.008378525
15	0x3d49daa2	0.04928077
16	0xbb037451	-0.0020058344
17	0xba9c2133	-0.001191175
18	0x3d113351	0.03544933
19	0xbcefb351	-0.02926031
20	0xbcbe121a	-0.02320199
21	0x3a9e4eb1	0.0012077895
22	0xbda3aaa5	-0.07991532
23	0xbd4f92a6	-0.050676964
24	0xbc261c3b	-0.010138567
25	0x3d32e48d	0.043674994
26	0xbd830a18	-0.063984096
27	0x3d5c0dc9	0.053724084
28	0xbbf96fab	-0.007612189
29	0x3c73449b	0.0148479
30	0x3d61efcb	0.055160325
31	0x3cf554e0	0.029947698
32	0xbcdf7b04	-0.027280338
33	0xbcb4b10b	-0.022057077
34	0xbd212cb2	-0.039349265
35	0x3dc214c8	0.0947662
36	0x3c8bc5e9	0.017062144
37	0x3ce96b4c	0.028493546
38	0xbc7e15b2	-0.015508102
39	0xbc8998c9	-0.016796486
40	0x3cb0e5e4	0.021593995
41	0x3d81031f	0.062994234
42	0xbc2c6c69	-0.010523894
43	0x3d47891d	0.048714746
44	0x3b3486fe	0.0027546282
45	0xbd9b7740	-0.075911045
46	0x3c8dee2b	0.017325481
47	0x3d1d818b	0.03845362
48	0xbd7924d9	-0.060826156
49	0xbd83cf08	-0.064359725
50	0xbd9abc87	-0.0755549
51	0xbcebbeb4	-0.028777458
52	0xbdba57fa	-0.090988114
53	0xbd4aa7a3	-0.049476277
54	0xbc052d91	-0.00812854
55	0xbd077d18	-0.033078283
56	0x3da01267	0.0781601
57	0x3c162f03	0.009166482
58	0xbd3e6010	-0.04647833
59	0x3ce6330a	0.02810051
60	0xbb86a49e	-0.0041089794
61	0xbd919a24	-0.07109478
62	0xbb9434ba	-0.004522887
63	0x3c19b375	0.009381165
64	0x3d889f2e	0.06670986
65	0x3d2d04fe	0.04224109
66	0xbb61f46c	-0.0034477962
67	0xbd9d7c35	-0.07689706
68	0xbcfc39f9	-0.030789362
69	0xbd467154	-0.048447922
70	0xbdcc5e66	-0.099789426
71	0xbc5019db	-0.012701477
72	0x3d80d5bd	0.06290767
73	0x3b54f6e6	0.0032495796
74	0xbd01f6cb	-0.0317295
75	0xbd8b4655	-0.06800524
76	0xbdb0bac3	-0.08629372
77	0xbd264a1d	-0.040598024
78	0x3d10d4da	0.03535924
79	0x3cbdf8d3	0.023189938
80	0x3c96c1db	0.018402984
81	0xbcdb1473	-0.02674315
82	0xbd89dc0d	-0.067314245
83	0x3e17167f	0.14754675
84	0x3d26f3b7	0.04075977
85	0xbc092e14	-0.008372802
86	0x3df04c06	0.1173325
87	0x3dee429d	0.11633799
88	0x3d8fe8db	0.070268355
89	0x3deff605	0.117168464
90	0x3d63e62d	0.055639435
91	0xbd962aee	-0.07332407
92	0x3d83e566	0.06440239
93	0x3c9a0da1	0.018805327
94	0xbca981ee	-0.020691838
95	0xbd7cb6fd	-0.06169795
96	0xbd1d9b24	-0.03847803
97	0x3d225284	0.039629474
98	0x3d882dfb	0.06649395
99	0x3d001c69	0.031277094
100	0xbcae9a63	-0.021313852
101	0x3d5b1219	0.053484056
102	0x3d4b1247	0.049577978
103	0xbd8fc68b	-0.07020291
104	0xbd8d9043	-0.06912281
105	0xbd2052e7	-0.03914156
106	0xbcf7da13	-0.030255353
107	0xbd5be245	-0.053682584
108	0x3d6f03f5	0.058353383
109	0xbd23728b	-0.03990416
110	0xbd4c0bb4	-0.04981585
111	0xbda015fa	-0.07816692
112	0xbd3b88dc	-0.045784816
113	0xbdf303af	-0.11865937
114	0xbdf07cbd	-0.11742542
115	0xbd118828	-0.03553024
116	0xbdbcb993	-0.09215083
117	0x3c04ba54	0.008101065
118	0xbd2e123d	-0.042497862
119	0x3e07345a	0.13203564
120	0x3b32d42f	0.0027287116
121	0xbda47eb6	-0.08031981
122	0xbb8fa1c1	-0.0043832962
123	0x3cab3c41	0.020902755
124	0xbcab9670	-0.020945758
125	0x3e26d6ce	0.16292879
126	0xbd6ff086	-0.05857899
127	0xbdc92bfd	-0.09822843
128	0x3d2650fa	0.04060457
129	0xbd03a92a	-0.03214375
130	0xbdb9d65c	-0.09074089
131	0x3d83e63f	0.064404
132	0x3dbdd4ef	0.092691295
133	0x3d1a4e77	0.037672486
134	0x3dc99ef6	0.098447725
135	0xbd5fb51d	-0.054616082
136	0x3b02627d	0.001989513
137	0x3d5afe22	0.053465016
138	0xbdad8a5a	-0.08473654
139	0xbcbf3f5b	-0.02334564
140	0xbc221e35	-0.009894897
141	0xbc92a65d	-0.017901594
142	0x3d255a02	0.04036904
143	0x3d2ae8ba	0.04172585
144	0xbbddad5c	-0.006765051
145	0xbca64abf	-0.020299314
146	0x3d36d82c	0.04463975
147	0xbd786c6d	-0.060650278
148	0xbd3e62f2	-0.04648108
149	0xbd4ad5f8	-0.049520463
150	0xbc3fca80	-0.011705995
151	0xbd53e05f	-0.05172765
152	0x3e08e7a7	0.13369618
153	0xbd12c008	-0.035827667
154	0x3c9b931d	0.018991048
155	0x3d6d6081	0.05795336
156	0xbd330de6	-0.043714426
157	0xbcff72a8	-0.031182602
158	0x3da41492	0.08011736
159	0x3b2c2867	0.00262692
160	0x3dab16f8	0.0835399
161	0x3d387015	0.045028765
162	0xbd1481a1	-0.036256436
163	0xbdac077c	-0.08399865
164	0xbbb1b9a0	-0.0054237396
165	0xbcd304b1	-0.025759073
166	0xbdafd451	-0.08585418
167	0xbdc68af5	-0.09694473
168	0x3cf5ecac	0.03002008
169	0x3c9ef6aa	0.019404728
170	0xbd1f0166	-0.038819693
171	0xbcf9fabb	-0.030515065
172	0x3d58e92a	0.052956738
173	0x3d884796	0.06654279
174	0x3bdc82a9	0.006729443
175	0xbb5a1527	-0.0033276768
176	0xbb148f70	-0.0022668503
177	0x3db98569	0.09058649
178	0x3d82ad4a	0.063807085
179	0xbd07dd60	-0.033170104
180	0x3cbac8ed	0.022800887
181	0xbd0235b3	-0.031789493
182	0x3d6df33c	0.058093295
183	0xbd4c5e01	-0.049894337
184	0xbab1f898	-0.0013578115
185	0x3d90216e	0.07037626
186	0x3dd90b25	0.10597829
187	0x3db179f9	0.086658426
188	0x3d9684c0	0.07349539
189	0xbba97e59	-0.0051725325
190	0x3d224d06	0.039624237
191	0x3d84b16e	0.064791545
192	0x3cd3fa42	0.025876168
193	0x3d05f4de	0.032704227
194	0x3cf16863	0.02946872
195	0x3d7bce64	0.061476126
196	0x3da655af	0.081218116
197	0x3c8c401b	0.017120412
198	0xbd099767	-0.033591654
199	0x3d1d5d42	0.038419016
200	0x3c649c82	0.01395333
201	0xbda7192a	-0.081590965
202	0xbd755a93	-0.05990083
203	0x3d72d69f	0.05928671
204	0x3dac1a59	0.08403463
205	0x3d604093	0.054749083
206	0x3df0824a	0.11743601
207	0xbb82372b	-0.0039738617
208	0xbcf39e98	-0.02973871
209	0xbd5aafba	-0.053390242
210	0x3cda6454	0.026659168
211	0xbc6615a2	-0.014043244
212	0x3c82cf58	0.01596801
213	0xbd1fb733	-0.03899307
214	0xbd70dcf5	-0.05880447
215	0xbd8fb1e4	-0.07016352
216	0x3d4e0aa1	0.050303105
217	0x3d82c76c	0.06385693
218	0x3dff3bcf	0.124625795
219	0x3d664dd5	0.05622657
220	0x3cb91988	0.022595182
221	0x3d28030a	0.041018523
222	0x3d45bd36	0.04827615
223	0x3d0acd31	0.033887092
224	0x3e43e861	0.19131614
225	0xbbd7dd1e	-0.0065876385
226	0x3d41af92	0.047286578
227	0xbce35a08	-0.027752891
228	0xbc322f2b	-0.0108755035
229	0x3d550b95	0.052013
230	0xbd4864ef	-0.048924383
231	0xbd02e9af	-0.03196114
232	0xbda51a07	-0.08061605
233	0xbd27dc34	-0.040981486
234	0x3cb0d42f	0.021585552
235	0xbbb375f0	-0.0054767057
236	0x3b201154	0.002442439
237	0xbc319864	-0.010839555
238	0xbd30bc7e	-0.04314851
239	0xbdbc321e	-0.091892466
240	0x3ceb04ae	0.028688755
241	0xbdad4579	-0.084605165
242	0xbd3fa723	-0.046790253
243	0x3db3ee30	0.08785665
244	0x3d8dea27	0.06929427
245	0x3c85439d	0.016267592
246	0x3bba5d86	0.0056874184
247	0x3db722a2	0.089421526
248	0x3d303aa9	0.043024693
249	0x3d181d86	0.03713753
250	0xbc605c95	-0.013693948
251	0x3cb293e1	0.02179903
252	0x3d3c25ec	0.045934603
253	0xbd8635aa	-0.06553204
254	0xbc8618e5	-0.016369293
255	0xbce58793	-0.028018748

encoder.10.bias f4 [64]
0	0x3cf0beab	0.029387793
1	0x3ccf7813	0.02532581
2	0xbc5f9995	-0.013647457
3	0xbc334b53	-0.010943252
4	0x3c2c7cba	0.010527784
5	0xbc615946	-0.013754195
6	0x3ce673d2	0.0281314
7	0xbcda9e98	-0.026686952
8	0x3d11a1f7	0.035554852
9	0x3d18ba8b	0.037287276
10	0xbc02e3e1	-0.007988901
11	0xbb865aaf	-0.004100166
12	0xb929feb9	-0.00016211988
13	0xbd6d8a8f	-0.057993468
14	0x3ca31dc5	0.019911656
15	0xbcd1a499	-0.025591182
16	0xbba624f1	-0.0050703217
17	0xbc2ff676	-0.010739913
18	0xbd310eca	-0.043226995
19	0x3d14736d	0.03624289
20	0x3d41a36a	0.047274984
21	0xbd0f1072	-0.034927793
22	0xbb49264a	-0.0030692988
23	0xbd54ef36	-0.05198594
24	0xbcc5dcb5	-0.024153093
25	0x3d49851e	0.049199216
26	0xbd2ae60a	-0.04172329
27	0x3c139b5c	0.0090092085
28	0x3d04e08b	0.032440703
29	0x3d572a8c	0.05253081
30	0x3b19ed9f	0.002348758
31	0xbd4785ce	-0.04871159
32	0xbd6850a8	-0.056717545
33	0xbd1b3a39	-0.037897322
34	0x3d52bc9e	0.05144941
35	0x3bdf8fa5	0.0068225437
36	0x3d3c135f	0.04591691
37	0xbd0f775c	-0.03502594
38	0x3bf48708	0.007462386
39	0xbcef04f0	-0.02917716
40	0x3c85170c	0.016246341
41	0x3d15fc7c	0.03661774
42	0xbb86e5ef	-0.0041167657
43	0x3c542c2f	0.012949987
44	0xbc279bb1	-0.010229991
45	0x3d471a38	0.04860899
46	0x3d523847	0.0513232
47	0xbcc5096d	-0.024052346
48	0x3d374717	0.04474553
49	0xbca25e96	-0.019820493
50	0xbd476bbb	-0.048686724
51	0x3d2ab699	0.041678045
52	0xbd5c5210	-0.0537892
53	0x3d114756	0.035468422
54	0x3d29800b	0.041381877
55	0xbd06ab9b	-0.0328785
56	0x3d3ff135	0.046860892
57	0x3cb6aa6a	0.022298057
58	0xbbcbb34a	-0.0062164413
59	0x3c6f640b	0.014611254
60	0xbcb3cc8a	-0.021948118
61	0x3d5f472b	0.05451123
62	0xbd152f87	-0.03642228
63	0x3cc6c38a	0.024263162

encoder.11.weight f4 [64]
0	0x3f7feb66	0.99968565
1	0x3f807b70	1.003767
2	0x3f86e307	1.0538033
3	0x3f771f88	0.9653249
4	0x3f8078d5	1.0036875
5	0x3f7f0843	0.9962198
6	0x3f808c54	1.0042825
7	0x3f777807	0.9666752
8	0x3f866645	1.049996
9	0x3f70998e	0.93984306
10	0x3f6f0cbb	0.933788
11	0x3f77d952	0.9681598
12	0x3f6592ff	0.89677423
13	0x3f87d98a	1.0613263
14	0x3f80c3fe	1.0059812
15	0x3f74ef65	0.9567779
16	0x3f80164f	1.0006808
17	0x3f8072af	1.0034999
18	0x3f7f1b3b	0.99650925
19	0x3f7a5cc2	0.9779779
20	0x3f835029	1.0258838
21	0x3f7dda83	0.9916155
22	0x3f6f7c3c	0.9354894
23	0x3f850a21	1.0393716
24	0x3f85c29e	1.0450017
25	0x3f817dd4	1.0116525
26	0x3f8122bb	1.0088724
27	0x3f85fb4d	1.0467316
28	0x3f832acf	1.0247439
29	0x3f7c93de	0.9866313
30	0x3f87bdc9	1.0604793
31	0x3f857c66	1.0428588
32	0x3f784abf	0.96989053
33	0x3f85460d	1.0412003
34	0x3f8157e7	1.0104951
35	0x3f80fea7	1.0077714
36	0x3f74238b	0.95366734
37	0x3f870a2a	1.0549977
38	0x3f710046	0.9414104
39	0x3f7aa2b8	0.9790454
40	0x3f6bb053	0.92065924
41	0x3f8623de	1.0479696
42	0x3f829516	1.0201747
43	0x3f7173fb	0.943176
44	0x3f68914f	0.90846723
45	0x3f808c45	1.0042807
46	0x3f808f69	1.0043765
47	0x3f81f0de	1.0151632
48	0x3f74922d	0.95535547
49	0x3f721c52	0.94574463
50	0x3f7fc6d5	0.9991277
51	0x3f876822	1.0578654
52	0x3f853871	1.040785
53	0x3f7b28ab	0.9810893
54	0x3f7c309c	0.9851167
55	0x3f827f95	1.0195185
56	0x3f7a0f17	0.97679275
57	0x3f807803	1.0036625
58	0x3f83eb7a	1.0306237
59	0x3f836bdf	1.0267295
60	0x3f77f70e	0.9686135
61	0x3f796033	0.97412413
62	0x3f81c884	1.0139318
63	0x3f616450	0.8804369

encoder.11.bias f4 [64]
0	0x3dd80ed9	0.10549707
1	0xbe7e55d6	-0.24837431
2	0xbe43851b	-0.19093744
3	0x3de50004	0.111816436
4	0x3c855a6f	0.016278474
5	0x3dba5687	0.09098535
6	0xbe732328	-0.2374388
7	0x3d65ea9a	0.056131937
8	0xbdeeab2e	-0.11653744
9	0x3d52222b	0.051302116
10	0x3d9043e9	0.07044203
11	0x3d9ba6b5	0.07600156
12	0x3de9473e	0.113905415
13	0xbe75f9e2	-0.24021104
14	0x3da95b6b	0.0826939
15	0x3c893afb	0.016751757
16	0xbe667871	-0.22506882
17	0xbe8f7c31	-0.28024438
18	0x3d91dbec	0.07122025
19	0xbe7ffc5d	-0.24998613
20	0xbe382051	-0.17981078
21	0xbe7f6547	-0.24940978
22	0x3de96694	0.11396518
23	0xbe7833e9	-0.24238552
24	0x3c00aaf2	0.007853257
25	0xbe8aec10	-0.27133226
26	0xbe6d1039	-0.2315072
27	0x3e0f2851	0.13980223
28	0x3e12f794	0.14352256
29	0xbe50dc6f	-0.20396589
30	0xbe40c21d	-0.18824048
31	0xbe575257	-0.21027504
32	0x3c938347	0.018006934
33	0x3dd21ca7	0.10259371
34	0xbe580244	-0.21094614
35	0xbb31efdc	-0.0027151024
36	0x3ddd05cf	0.107921235
37	0x3dd88680	0.10572529
38	0x3dee24bd	0.11628101
39	0x3ce074d8	0.027399465
40	0x3d0b2cc4	0.03397824
41	0xbe43aae4	-0.19108158
42	0xbe598ae9	-0.21244396
43	0x3de19765	0.11015204
44	0xbe05f20e	-0.13080618
45	0xbe529c01	-0.20567323
46	0xbe699ace	-0.2281296
47	0x3e003eda	0.12523976
48	0xbe2f9a1a	-0.17148629
49	0x3c84bfbd	0.01620471
50	0xbdf268a5	-0.118363656
51	0xbdb12816	-0.08650224
52	0x3dc7c418	0.09754199
53	0xbe933fa5	-0.28759494
54	0xbe88e4d7	-0.2673709
55	0xbddccff8	-0.107818544
56	0x3d3125ae	0.043248825
57	0x3dd0c016	0.101928875
58	0xbe639c53	-0.22227602
59	0x3dcdba57	0.10045307
60	0x3df1b186	0.11801438
61	0xbe3cb49c	-0.18428272
62	0xbe4b2439	-0.19838037
63	0xbd7d2637	-0.061804023

encoder.11.running_mean f4 [64]
0	0xbe2d2d6c	-0.16911858
1	0xc03a0d3b	-2.9070575
2	0xbfe1ccf7	-1.7640675
3	0x3f85c353	1.0450233
4	0x3fdb5a26	1.7136886
5	0xbe9b9f6f	-0.30395076
6	0xbfc397eb	-1.5280737
7	0x3eb2c641	0.3491688
8	0x3e3d3716	0.18478045
9	0xbe00702f	-0.12542795
10	0x3f478687	0.7793965
11	0x3d8ffbeb	0.070304714
12	0x3eafd222	0.34340006
13	0xbfb8f0cf	-1.4448489
14	0x3edea2e4	0.4348365
15	0xbf072790	-0.5279474
16	0xbf9eeb9b	-1.2415651
17	0xc00c1810	-2.1889687
18	0xbee6d306	-0.45082873
19	0xbfdd9a99	-1.7312804
20	0xbf32c532	-0.69832146
21	0xbff680e1	-1.9258081
22	0xbf3f002f	-0.74609655
23	0xc01b3636	-2.4251838
24	0x3f2a9890	0.6663904
25	0xc015ee83	-2.3426826
26	0xbff6c54e	-1.9278963
27	0x400703c1	2.1096041
28	0x3e28b7b2	0.16476324
29	0xc02b0169	-2.671961
30	0x3e9522fb	0.2912825
31	0xbffa2efc	-1.9545588
32	0x3f764d35	0.9621156
33	0x3e52d2ff	0.20588301
34	0xbfef44ff	-1.8692931
35	0xbf031cde	-0.5121592
36	0x3f1b174f	0.6058244
37	0xbd29f283	-0.041491043
38	0x3d6ac8f8	0.057320565
39	0xbd1539f9	-0.03643224
40	0x3ebda24a	0.3703788
41	0xbfa5888e	-1.2932298
42	0xc02d4b04	-2.7077036
43	0x3e24dee1	0.16100647
44	0x3ff00310	1.8750935
45	0xbff8b7a2	-1.943104
46	0xbfa69e12	-1.3016989
47	0x3eac088a	0.33600265
48	0xbf5d5969	-0.86464554
49	0x3ec385a4	0.38187897
50	0x3e529e6d	0.20568247
51	0x3efcbac5	0.49361244
52	0xbd0cdf66	-0.034392737
53	0xc0101127	-2.251047
54	0xc032277e	-2.7836604
55	0x3fb5b7f7	1.4196767
56	0x3f28f4c1	0.65998465
57	0x3e8ccea1	0.27501395
58	0xc001c2f4	-2.027524
59	0x3d16ce80	0.036818027
60	0x3e8be4f4	0.27323115
61	0xbe748bd8	-0.23881471
62	0xc02d70b3	-2.7100036
63	0x3fcd0c08	1.6019297

encoder.11.running_var f4 [64]
0	0x403ad418	2.9191952
1	0x40f91729	7.784077
2	0x40385060	2.8799057
3	0x40a9dfe8	5.3085823
4	0x4093e003	4.621095
5	0x40f85d4b	7.7613883
6	0x4063f6e0	3.561943
7	0x3fe5adf7	1.7943715
8	0x3fa4fbc0	1.2889328
9	0x40805ef9	4.0115933
10	0x40d5d5a1	6.6823277
11	0x3ffaa7c4	1.9582448
12	0x402712fc	2.6105337
13	0x3ff485db	1.910335
14	0x4014716b	2.3194225
15	0x40a7c62d	5.2429414
16	0x40469d79	3.1033614
17	0x40d1d20d	6.556891
18	0x402266a5	2.537515
19	0x409ccf46	4.900302
20	0x40050cc4	2.0789042
21	0x408f8e9b	4.486158
22	0x405ea2b7	3.4786813
23	0x40c0ed91	6.029
24	0x3fd735c9	1.6813289
25	0x40e2fd21	7.0933995
26	0x408c814f	4.3907847
27	0x409a4fb9	4.822232
28	0x400f9fe9	2.2441351
29	0x40d565cb	6.668676
30	0x3fa39d01	1.2782289
31	0x408205d5	4.063212
32	0x408b4266	4.3518553
33	0x3fd4e2e2	1.6631739
34	0x407a19f1	3.9078333
35	0x3fffbe91	1.9980031
36	0x408d36bc	4.4129314
37	0x40092da4	2.1434107
38	0x40a16ce1	5.044541
39	0x406c0548	3.6878223
40	0x410e99ac	8.912518
41	0x3ff6b313	1.9273399
42	0x40c95b49	6.292393
43	0x406d096c	3.7037
44	0x405245d2	3.2855115
45	0x40a86b79	5.263119
46	0x408ca84c	4.395544
47	0x40289336	2.633985
48	0x400d8304	2.2111216
49	0x3f8ec992	1.1155264
50	0x3fa9030f	1.3204058
51	0x3fca543e	1.5806959
52	0x4026ebbc	2.608138
53	0x40a0bc61	5.0229955
54	0x40de2422	6.9419107
55	0x400e1955	2.2202961
56	0x3fb4d8a5	1.4128615
57	0x401fdca8	2.4978428
58	0x40693b06	3.6442275
59	0x40826c95	4.0757546
60	0x40922617	4.5671496
61	0x3fa8e499	1.3194762
62	0x40d90a24	6.782488
63	0x405d6376	3.4591956

decoder.0.weight f4 [64, 32, 2, 2]
0	0xbc1bf3dd	-0.009518591
1	0xbd189e91	-0.037260596
2	0x3a9c4fd8	0.0011925651
3	0x3d07a23f	0.033113714
4	0x3d81d9e3	0.06340387
5	0x3cf12503	0.029436594
6	0xbdfcb413	-0.12339034
7	0xbda0478f	-0.07826149
8	0x3d55c02a	0.052185215
9	0xbd2639ac	-0.040582344
10	0xbda01d08	-0.07818037
11	0xbd872a92	-0.065999165
12	0x3c21fece	0.00988741
13	0xbbccf259	-0.006254476
14	0x3cda7b33	0.026670074
15	0xbd7785ef	-0.060430463
16	0x3d985af8	0.07439226
17	0x3c7603ae	0.015015526
18	0xbd8c9d58	-0.068659484
19	0x3d4a3265	0.049364466
20	0xbd0579ea	-0.03258697
21	0xbcde8d14	-0.02716688
22	0x3d08b2f7	0.0333738
23	0x3cc987a9	0.02460082
24	0xbcf70741	-0.030154826
25	0x3b624f08	0.003453197
26	0x3c2479ec	0.010038834
27	0xbcb148fc	-0.021641247
28	0x3c4b1d62	0.012397142
29	0x3c23bd79	0.009993904
30	0xbbbc86b5	-0.005753363
31	0x3cc3bc45	0.023893485
32	0xbe09e3b7	-0.13465773
33	0xbd15cede	-0.036574237
34	0xbda2b042	-0.07943775
35	0xbe276b1d	-0.16349454
36	0xbd47ec9c	-0.048809633
37	0x3da33d1d	0.07970641
38	0x3cc392a6	0.023873638
39	0x3cd4ee71	0.025992604
40	0xbdb3add8	-0.087733924
41	0xbd137964	-0.03600444
42	0x3d1de111	0.03854472
43	0x3ce1f39c	0.027581982
44	0xbd1ae310	-0.0378142
45	0x3c0481af	0.00808756
46	0xba40f082	-0.0007360057
47	0xbc82669a	-0.015918065
48	0xbdc45a80	-0.09587574
49	0xbe0a1a4f	-0.13486598
50	0x3c1337fb	0.008985515
51	0x3bb894dd	0.0056329803
52	0x3d3c8996	0.04602965
53	0xbddfe0f4	-0.10931578
54	0xbcbdd6f2	-0.023173783
55	0x3daf151f	0.085489504
56	0x3d06fa90	0.0329538
57	0xbd37e5af	-0.044896778
58	0x3d70f361	0.058825854
59	0x3ddaf239	0.106907316
60	0xbdfbc1c8	-0.1229282
61	0x3d571be2	0.052516825
62	0x3d86f322	0.06589343
63	0x3cc3f226	0.023919176
64	0x3b945c74	0.004527623
65	0x3d40164a	0.046896257
66	0xbc962215	-0.018326798
67	0x3d905272	0.07046975
68	0x3c7208e3	0.014772627
69	0x3cc410b0	0.023933738
70	0x3c8d6bae	0.01726326
71	0x3cf7dfb2	0.030258033
72	0x3ceda46b	0.029009065
73	0x3dc7a101	0.09747506
74	0x3d6c1e4b	0.057646077
75	0xbcc5d102	-0.024147514
76	0xbc1f01ff	-0.009705066
77	0xbe11bec3	-0.14232926
78	0xbd15711a	-0.036484815
79	0x3b7d2be5	0.00386309
80	0x3d200a6c	0.03907244
81	0xbd0d5e8b	-0.03451399
82	0xbd0e7bb7	-0.034785952
83	0x3cdb0987	0.026737941
84	0xbd054086	-0.032532237
85	0xbc54fb01	-0.012999297
86	0x3c929afd	0.01789617
87	0x3d03d2d4	0.032183483
88	0xbd965404	-0.073402435
89	0x3b2a716e	0.002600755
90	0xbd7e592e	-0.062096767
91	0xbdfea87a	-0.12434478
92	0xbd0acc50	-0.033886254
93	0x3daf24fe	0.085519776
94	0xbcf48c58	-0.029852077
95	0xbbe7838e	-0.007065243
96	0x3de21e59	0.110409446
97	0x3c886b25	0.016652653
98	0xbe28ecac	-0.16496533
99	0xbcd748da	-0.026279856
100	0xbcd25473	-0.025675034
101	0x3cee042f	0.02905473
102	0xbd7cce3d	-0.06172012
103	0x3d4a4caa	0.04938952
104	0xbd9d88aa	-0.07692082
105	0xbd2c6c5d	-0.04209553
106	0xbbfae18c	-0.007656282
107	0x3d83e3fc	0.06439969
108	0xbe49e8ba	-0.19717684
109	0xbe100fda	-0.14068547
110	0xbd87e662	-0.06635739
111	0x3d9a3abd	0.07530735
112	0xbda6aca3	-0.081383966
113	0xbd2e4f65	-0.042556185
114	0xbe12ecc7	-0.14348136
115	0xbd862013	-0.065490864
116	0xbd86ed68	-0.065882504
117	0xbc90490a	-0.017612953
118	0x3da59bfc	0.08086392
119	0x3b06a32e	0.002054404
120	0xbdef2ddd	-0.116786696
121	0xbb82b519	-0.0039888737
122	0xbcd56d4e	-0.026053097
123	0xbc805ce0	-0.015669286
124	0xbc1d1163	-0.009586665
125	0x3db0e37d	0.0863714
126	0x3c6684db	0.014069761
127	0xbd60194f	-0.054711636
128	0xbdd36d48	-0.10323578
129	0xbd7d9215	-0.061906893
130	0xbe040c78	-0.12895381
131	0x3c00ed34	0.007869054
132	0xbd91c2a5	-0.071172036
133	0xbc646753	-0.01394065
134	0xbde4eb8b	-0.11177739
135	0xbdec838b	-0.11548527
136	0x3dcb815f	0.09936785
137	0x3dfa5472	0.12223138
138	0xbd3c6f98	-0.04600486
139	0x3d398d92	0.045301028
140	0x3b83195b	0.0040008253
141	0xbc987141	-0.018608691
142	0x3dd18718	0.10230845
143	0x3cb7e3aa	0.022447426
144	0x3ce4a4bb	0.02791058
145	0xbc19fd41	-0.009398759
146	0x3d06425c	0.03277813
147	0xbcf1c0ec	-0.029510938
148	0x3cd45a63	0.025922006
149	0x3d27088b	0.04077963
150	0xbd835c00	-0.06414032
151	0x3da1a0dd	0.0789201
152	0xbdac169f	-0.08402752
153	0x3db9cbea	0.09072097
154	0x3c0ab4f0	0.00846599
155	0x3c82bf9c	0.015960507
156	0x3dd83025	0.10556058
157	0x3d4e16dd	0.050314773
158	0x3951ecbe	0.00020019987
159	0xbd0f6bcb	-0.03501491
160	0x3d104aea	0.035227694
161	0x3dd7f63d	0.10545013
162	0x3dc5197b	0.09624001
163	0x3d75d9ce	0.060022168
164	0x3d7d5129	0.06184498
165	0x3d8b8952	0.06813301
166	0xbb836a37	-0.0040104645
167	0x3cb62c77	0.022238
168	0xbcbae43f	-0.022813914
169	0xbd26abc6	-0.04069116
170	0x3b158524	0.0022814954
171	0x3bb8902c	0.005632421
172	0x3de99f20	0.11407304
173	0x3d9e8105	0.07739452
174	0xbd53dc87	-0.051723983
175	0x3d933e2f	0.07189595
176	0xbd3e4338	-0.046450824
177	0x3d5936d7	0.053030815
178	0x3d0ad6f3	0.033896398
179	0x3b7222c3	0.003694699
180	0xbd228e12	-0.03968627
181	0xbe5b9bcf	-0.21446155
182	0xbdada57a	-0.08478828
183	0xbdbf2b46	-0.09334426
184	0xbe233d37	-0.1594132
185	0xbdd25793	-0.1027061
186	0xbd38bf4f	-0.04510432
187	0x3cb36d91	0.021902831
188	0xbdd69b5d	-0.10478852
189	0xbd25f459	-0.04051623
190	0xbcfe7686	-0.031062376
191	0xbdb6ffdd	-0.08935521
192	0xbbd68372	-0.006546431
193	0x3d454f1d	0.04817115
194	0x3cc89faa	0.024490196
195	0xbb24c7ff	-0.002514362
196	0xbd7408d1	-0.05957872
197	0x3d5628a7	0.052284863
198	0xbd39ba5d	-0.045343745
199	0x3d05635a	0.032565452
200	0xbd52b229	-0.051439438
201	0xbd730122	-0.059327252
202	0xbdee1da6	-0.11626749
203	0xbe72a869	-0.23697056
204	0x3cacae50	0.021079212
205	0x3d874741	0.066053875
206	0x3d6531a4	0.055955544
207	0x3d21d4af	0.03950947
208	0x3df34ec7	0.1188026
209	0x3d07f981	0.03319693
210	0x3de0b5eb	0.10972198
211	0x3ded775c	0.115950316
212	0x3d9323cf	0.07184564
213	0x3db887ce	0.09010278
214	0x3d378dc6	0.04481294
215	0x3dcc43f1	0.09973896
216	0x3dc98e73	0.09841623
217	0x3d2b5a9b	0.041834455
218	0x3bda27d1	0.0066575785
219	0x3da7903a	0.08181806
220	0x3b8324c2	0.0040021846
221	0x3d68cde4	0.056836978
222	0xbd006a39	-0.0313513
223	0xbd9b80c5	-0.0759292
224	0xbcd7fa2b	-0.026364407
225	0xbdc0e111	-0.09417928
226	0xbd844ad4	-0.06459585
227	0xbe07b55c	-0.13252777
228	0xbd5a1a1c	-0.053247556
229	0xbdc23377	-0.094824724
230	0xbe23916a	-0.1597344
231	0x3cd616c4	0.026133902
232	0x3d30042e	0.042972736
233	0xbd80be2b	-0.06286272
234	0xbcb8d503	-0.02256251
235	0xbcb2ed3c	-0.021841638
236	0x3c177e9e	0.0092464965
237	0xbe1a24e9	-0.15053143
238	0xbc456075	-0.012046923
239	0x3d36f4ba	0.044666983
240	0xbce40472	-0.027834151
241	0x3d72e1cf	0.05929738
242	0x3d89faba	0.067372754
243	0x3d832408	0.06403357
244	0xbe5bac3d	-0.21452422
245	0xbaa3311f	-0.0012450552
246	0xbd89f8f0	-0.06736934
247	0xbdb5a959	-0.08870191
248	0xbdd74fdc	-0.10513279
249	0xbca35c04	-0.019941337
250	0x3d331b60	0.04372728
251	0xbcaa300b	-0.020774862
252	0xbdc0edd8	-0.09420365
253	0xbd581b8e	-0.052760653
254	0xbd875f3b	-0.06609961
255	0xbe502ea5	-0.20330293

decoder.0.bias f4 [32]
0	0x3b9c17ce	0.00476358
1	0x3c8c082c	0.01709374
2	0xbdab42d4	-0.08362356
3	0xbc96b169	-0.018395143
4	0xbc208b15	-0.009798785
5	0x3d74b9b9	0.05974743
6	0x3cc33145	0.023827204
7	0xbd958309	-0.073003836
8	0x3ce6749a	0.028131772
9	0x3c9dcdb1	0.01926312
10	0xbd83102e	-0.063995704
11	0xbd0c84a9	-0.034306202
12	0xbd6a4a07	-0.057199504
13	0xbd7e591b	-0.062096696
14	0xbbb67473	-0.005568081
15	0xbc547702	-0.012967827
16	0xbd115416	-0.03548058
17	0x3d64a41f	0.05582058
18	0x3c0c5756	0.008565744
19	0xbd9ecb63	-0.07753637
20	0xbd5cb66f	-0.05388492
21	0xbd8b7a3b	-0.06810423
22	0xbc607d7a	-0.013701791
23	0xbd631de0	-0.055448413
24	0x3d6f0cc1	0.058361772
25	0xbd909dd2	-0.07061352
26	0x3d1b5375	0.037921388
27	0x3d401dff	0.046903607
28	0xbbe9badd	-0.0071328715
29	0xbda6da39	-0.081470914
30	0xbd21138a	-0.039325275
31	0x3d8ad0ba	0.06778093

decoder.1.weight f4 [32]
0	0x3f78d8de	0.97205913
1	0x3f8991a6	1.0747573
2	0x3f888c06	1.0667732
3	0x3f5986cf	0.84971327
4	0x3f62cba1	0.88591963
5	0x3f688244	0.9082377
6	0x3f5264fb	0.82185334
7	0x3f64288b	0.89124364
8	0x3f8b5d7a	1.0887902
9	0x3f6ea032	0.9321319
10	0x3f764194	0.96193814
11	0x3f733543	0.95003146
12	0x3f863b18	1.0486784
13	0x3f6e057f	0.92977136
14	0x3f8a1b10	1.0789509
15	0x3f7c8467	0.9863953
16	0x3f6d2480	0.9263382
17	0x3f676a18	0.9039626
18	0x3f842548	1.0323877
19	0x3f85dc96	1.0457942
20	0x3f660a8c	0.89859843
21	0x3f631982	0.88710797
22	0x3f86dc95	1.0536066
23	0x3f7b2785	0.98107177
24	0x3f859304	1.0435491
25	0x3f6d88a3	0.92786616
26	0x3f72572b	0.9466426
27	0x3f91f1a1	1.1401864
28	0x3f7fe19a	0.99953616
29	0x3f882fe6	1.0639617
30	0x3f77c00a	0.96777403
31	0x3f7f3a2c	0.9969814

decoder.1.bias f4 [32]
0	0x3df065f8	0.11738199
1	0x3de4e9e3	0.11177423
2	0x3d4a03d3	0.049320053
3	0xbddc25e5	-0.10749415
4	0xbe4f16ea	-0.20223585
5	0xbe5d8c08	-0.21635449
6	0xbe6c6d4a	-0.23088565
7	0xbe0c231a	-0.13685265
8	0xbc6ad4c1	-0.014332951
9	0xbd75a28b	-0.059969466
10	0x3d2af4f2	0.041737504
11	0xbdbea011	-0.09307874
12	0x3d2a869d	0.041632283
13	0x3deb7c50	0.1149832
14	0x3dcb8f61	0.09939457
15	0x3def6f41	0.11691142
16	0xbe5db344	-0.21650416
17	0xbe3b67c3	-0.183013
18	0x3e110106	0.14160547
19	0xbd07af5f	-0.03312623
20	0xbe09975e	-0.13436648
21	0xbdcab317	-0.0989744
22	0xbd414fef	-0.04719537
23	0x3ce3f5ff	0.027827261
24	0x3dcb5001	0.09927369
25	0x3e18d2ef	0.14924215
26	0x3cb87295	0.022515574
27	0x3c7239c6	0.014784282
28	0xbddb01c6	-0.10693698
29	0x3e0404a8	0.12892401
30	0x3d95fd89	0.073237486
31	0x3dc6832d	0.096929885

decoder.1.running_mean f4 [32]
0	0xbf7e0848	-0.99231386
1	0xbf82010f	-1.0156573
2	0xbf18e981	-0.597313
3	0x3ef18098	0.47168422
4	0x3eedab8f	0.4641995
5	0x3eb41ff0	0.35180616
6	0x3f43d15a	0.7649132
7	0x3ecb8309	0.3974841
8	0xbe89d4f8	-0.26920295
9	0x3eac8cb2	0.33701092
10	0xbf6f72d9	-0.9353462
11	0xbdfbc8fb	-0.12294193
12	0xbf41ee24	-0.75754
13	0xbf69cd8e	-0.91329277
14	0xbf6ac384	-0.91704583
15	0xbf7e6673	-0.99375075
16	0x3f449b09	0.76799065
17	0x3f4bc818	0.79602194
18	0xbf176ece	-0.5915345
19	0xbeacccce	-0.33750004
20	0x3ee1065d	0.43950167
21	0x3f2cfc77	0.6757273
22	0xbebe071e	-0.37114805
23	0xbf510eef	-0.8166341
24	0xbf2c4bb7	-0.6730303
25	0xbf0ffe40	-0.5624733
26	0xbe151c1f	-0.14561509
27	0xbeed5420	-0.46353245
28	0xbc8da0af	-0.017288534
29	0xbf61b994	-0.88173795
30	0xbf4cda40	-0.80020523
31	0xbf240098	-0.64063406

decoder.1.running_var f4 [32]
0	0x4034ea07	2.826784
1	0x3fef6f3c	1.8705821
2	0x3fe0130f	1.7505816
3	0x3f8edc9a	1.1161072
4	0x3f78e1eb	0.97219723
5	0x3f8c49b0	1.0959988
6	0x3fcb13a5	1.586537
7	0x3f182781	0.5943528
8	0x3fae83b8	1.3633947
9	0x3f0c6e3d	0.5485571
10	0x400c7439	2.1945937
11	0x3f9b9ce7	1.2157258
12	0x401f073e	2.484817
13	0x405ce411	3.45142
14	0x400dce75	2.2157261
15	0x403b3a6f	2.9254415
16	0x3fc7fcee	1.5624063
17	0x3fa036db	1.251674
18	0x3f88d03b	1.0688547
19	0x3fb0fa7a	1.3826439
20	0x3fb1beda	1.3886368
21	0x3f35e082	0.71045697
22	0x3fb11917	1.3835782
23	0x400fd4f8	2.2473736
24	0x403cdf40	2.951126
25	0x3fcdc6b4	1.6076264
26	0x3f97695f	1.1829032
27	0x40249345	2.5714886
28	0x3f427244	0.75955606
29	0x401f2fde	2.4872966
30	0x4030b41b	2.7609928
31	0x4028199a	2.6265626
